Proposed/BestModel/Chen.pth (torch, 177054 bytes, 17 tensors)

q_mlp.0.weight f4 [128, 180]
0	0xbd9758e6	-0.07390003
1	0xbd70d66f	-0.05879825
2	0xbd02c37f	-0.03192472
3	0xbd906b6f	-0.07051741
4	0xbb8aa840	-0.0042314827
5	0xbd864ba8	-0.06557399
6	0x3d260006	0.040527366
7	0x3d14cd42	0.03632856
8	0x3c669cd8	0.01407548
9	0x3d6cd2d6	0.057818256
10	0xbbef3350	-0.007299818
11	0x3d36de20	0.04464543
12	0xbd55ce3e	-0.05219864
13	0xbc70a6a0	-0.014688164
14	0xbd881bdb	-0.06645938
15	0xbbc64bc0	-0.0060515106
16	0xbd4612f4	-0.04835792
17	0x3d892271	0.06696022
18	0x3d54123e	0.05177521
19	0x3d64e2b6	0.05588027
20	0x3cb51d8c	0.022108816
21	0xbd2e2aed	-0.042521406
22	0x3d892bfd	0.06697843
23	0xbd94f3c0	-0.07273054
24	0xbd42dae0	-0.047572017
25	0xbd3eae04	-0.046552673
26	0xbcfd192e	-0.030895796
27	0x3c738098	0.014862202
28	0xbd674288	-0.056459934
29	0xbd6b343a	-0.057422854
30	0xbd120180	-0.03564596
31	0x3d3a562e	0.045492344
32	0xbd5c3435	-0.053760726
33	0xbd88e905	-0.0668507
34	0xbd844d56	-0.06460063
35	0xbd163b88	-0.036677867
36	0xbca06ed0	-0.01958409
37	0xbd975424	-0.073890954
38	0xbd0eefc8	-0.034896642
39	0x3abbf140	0.0014338866
40	0x3c494e68	0.01228676
41	0xbc2f1198	-0.010685347
42	0xbc0a7708	-0.008451231
43	0xbd469e72	-0.04849095
44	0x3d1c67e8	0.03818503
45	0xbc931872	-0.017955992
46	0xbd50bcbc	-0.05096124
47	0xbc930bda	-0.017949987
48	0xbc2a9b70	-0.010413036
49	0x3d8d23db	0.068916045
50	0x3d1f1bc2	0.03884483
51	0xbcf68d0c	-0.030096553
52	0xbc2d40a8	-0.010574497
53	0x3d86e423	0.065864824
54	0x3d442272	0.047884412
55	0x3c983e18	0.018584296
56	0xbcdb07d8	-0.026737139
57	0x3d7e0802	0.062019356
58	0x3d02cc80	0.031933308
59	0xbd07f8d5	-0.03319629
60	0x3d58a84a	0.052894868
61	0x3bae1340	0.0053123534
62	0xbd61c8f6	-0.055123292
63	0xbd0751c3	-0.03303696
64	0xbd64a64c	-0.055822656
65	0xbd7cdce4	-0.061734095
66	0x3aeed540	0.0018221512
67	0xbd5ac925	-0.053414483
68	0x3d22b578	0.039723843
69	0x3d08895e	0.03333413
70	0x3c835858	0.016033337
71	0x3d7b8e16	0.0614148
72	0xbd0a7d3e	-0.033810847
73	0x3a91af80	0.0011114925
74	0x3d3b98c0	0.04579997
75	0x3cd30f6c	0.02576419
76	0x3c13f540	0.00903064
77	0x3d7f49de	0.062326305
78	0x3c8b2874	0.016987063
79	0x3d4d69f4	0.050149873
80	0xbd838d9f	-0.064234965
81	0xbd838a09	-0.064228125
82	0xbd89c7b1	-0.06727541
83	0x3b8a41e0	0.0042192787
84	0x3d818a5d	0.06325219
85	0xbd8536da	-0.06504603
86	0x3cf2f4bc	0.029657714
87	0xbd86b5b5	-0.065776266
88	0xbd4ae3d6	-0.049533688
89	0xbcd0371c	-0.025416903
90	0xbcf84a78	-0.030308947
91	0x3cb459bc	0.022015445
92	0xbd7fff21	-0.06249917
93	0x3d96f3f5	0.0737075
94	0x3c3207e8	0.010866143
95	0x3cd4dc48	0.025983945
96	0xbd4e3bbc	-0.050349936
97	0x3d287b5e	0.041133277
98	0xbc8e9204	-0.01740361
99	0xbd17e5ff	-0.037084576
100	0x3c4fb7b0	0.012678072
101	0x3cfe1f3c	0.031020753
102	0x3c015388	0.007893451
103	0xbcd59fb8	-0.026077136
104	0x3c6313d8	0.013859712
105	0xbcec4164	-0.028839774
106	0xbcceb9c0	-0.025235057
107	0xbce2d972	-0.027691577
108	0x3d35e4f2	0.044407792
109	0xbd556536	-0.052098475
110	0x3d049136	0.032365046
111	0x3d1e3d8a	0.038632907
112	0xbd4adacc	-0.049525067
113	0xbd67e3f4	-0.056613877
114	0xbd4b4ee8	-0.049635798
115	0xbd812136	-0.063051626
116	0x3d80290f	0.06257831
117	0x3d868ded	0.06570039
118	0xbc2a82d0	-0.010407165
119	0x3d8f22d1	0.069890626
120	0x3cacf534	0.021113016
121	0xbd95bfeb	-0.07311996
122	0xbd8babb1	-0.06819857
123	0xbd136bdd	-0.03599154
124	0xbd9843ce	-0.07434808
125	0xbd0c0f47	-0.034194257
126	0x3ca52424	0.020158835
127	0xbadb16c0	-0.0016715154
128	0xbc640998	-0.013918303
129	0x3b960320	0.0045780092
130	0x3d8b8fd3	0.06814542
131	0x3a544c80	0.00080985576
132	0x3d1981dc	0.03747736
133	0xbc932bfa	-0.017965306
134	0xbd650794	-0.05591543
135	0x3c6ee070	0.014579877
136	0x3d0c99c4	0.03432633
137	0x3d318492	0.04333932
138	0xbd8fa010	-0.070129514
139	0xbc21b620	-0.009870082
140	0xbd93145c	-0.071816176
141	0x3a6f5f00	0.00091312826
142	0x3b57ada0	0.0032909885
143	0x3cc6b7ac	0.024257503
144	0xbcd18884	-0.025577791
145	0xbc326500	-0.010888338
146	0x3c95d1dc	0.018288545
147	0xbd93dc2f	-0.07219731
148	0x3d162978	0.03666064
149	0x3d938f51	0.0720507
150	0xbd594454	-0.05304368
151	0x3d94dc6d	0.072686054
152	0x3c3964f8	0.011315577
153	0x3d9707ef	0.0737456
154	0x3d85adaf	0.06527268
155	0xbd82b292	-0.06381716
156	0x3d65d63a	0.056112505
157	0x3b2719c0	0.0025497526
158	0x3c9abd5c	0.018889122
159	0xbcdd935c	-0.027047805
160	0xbd74b584	-0.05974342
161	0x3be9b980	0.007132709
162	0x3ca9dde4	0.020735689
163	0x3d198854	0.03748353
164	0xbd800b1a	-0.062521175
165	0xbd93b54f	-0.07212316
166	0x3d1145ac	0.035466835
167	0xbc747bd0	-0.014922097
168	0xba904680	-0.0011007339
169	0xbc9e6d94	-0.01933936
170	0x3921fe00	0.00015448779
171	0x3c49a370	0.012307033
172	0xbd8cf9df	-0.06883597
173	0x3ce13500	0.027491093
174	0x3c064d00	0.008197069
175	0x3d0cf774	0.034415677
176	0xbd1dabc0	-0.03849387
177	0x3d5e2ce2	0.054242022
178	0x3d4b963c	0.04970382
179	0xbd1952e5	-0.03743257
180	0x3d60db6a	0.05489675
181	0xba3db2f3	-0.00072364433
182	0x3d64adad	0.055829693
183	0x3d6aea01	0.05735207
184	0x3ab05dec	0.0013455725
185	0x3b07aac8	0.0020701159
186	0x3c54200d	0.012947095
187	0x3d19cbd3	0.037547898
188	0xbd9fe4d5	-0.07807318
189	0xbc2282dd	-0.009918896
190	0x3d7981fa	0.06091497
191	0xbd8058dd	-0.06266949
192	0xbd5671db	-0.052354675
193	0xbb21a764	-0.0024666423
194	0x3c8a415c	0.016876869
195	0x3cf32099	0.02967863
196	0xbbc563e5	-0.0060238712
197	0x3bf50810	0.0074777678
198	0xbd34ad2f	-0.044110473
199	0x3d777332	0.060412593
200	0xbd72b37a	-0.059253193
201	0x3d1c4d91	0.03815991
202	0x3cf8311d	0.030296857
203	0x3d610116	0.054932676
204	0x3d64d9de	0.055871837
205	0xbd0ed1ec	-0.034868166
206	0x3d305cbe	0.043057196
207	0xbd8468e6	-0.0646532
208	0x3d2b83d3	0.041873764
209	0xbd65bf1a	-0.05609045
210	0xbd796a74	-0.060892537
211	0xbd77e6a1	-0.06052268
212	0x3d7f25c1	0.062291864
213	0x3c41a776	0.011819711
214	0xbd7df4ef	-0.062001165
215	0xbd877c75	-0.06615535
216	0xbb21dad0	-0.0024697073
217	0xbcd5f3b3	-0.026117181
218	0x3c163305	0.009167437
219	0x3d168cf2	0.03675551
220	0xbd69f355	-0.057116825
221	0xbd9fa50c	-0.07795152
222	0xbb20c258	-0.00245299
223	0x3d227f39	0.03967211
224	0x3d0fc184	0.03509666
225	0xbc37399f	-0.0111831715
226	0xbcf4f40b	-0.029901525
227	0x3c5cbc6e	0.0134726595
228	0x3d2ae8d3	0.041725945
229	0xbd9803b7	-0.074225836
230	0xbc8e515c	-0.01737278
231	0x3d3d8272	0.04626698
232	0x3d4224a7	0.047398236
233	0x3d7056fd	0.05867671
234	0x3c9931e0	0.01870054
235	0x3d822f95	0.06356732
236	0xbda8e536	-0.082468435
237	0x3b840f85	0.0040301704
238	0x3a323a23	0.0006798824
239	0x3d27c4ab	0.04095904
240	0x3b9c60b1	0.0047722687
241	0x3d1a6e6c	0.037702963
242	0xbd9b76f0	-0.07591045
243	0xbc94a1a4	-0.018143483
244	0x3c92c216	0.017914813
245	0x3d18759f	0.037221547
246	0x3bf8df3d	0.0075949715
247	0x3d1c48b4	0.038155273
248	0xbd0b06a4	-0.03394188
249	0xbc86e7fe	-0.016468044
250	0x3d75a07e	0.05996751
251	0x3d1fa554	0.03897603
252	0x3d2d44d4	0.042301968
253	0xbd9897f1	-0.074508555
254	0xbc41543e	-0.01179987
255	0xbd99270c	-0.07478151

q_mlp.0.bias f4 [128]
0	0xbd92228e	-0.07135497
1	0xbcc1b58e	-0.023646142
2	0x3c10a796	0.008829018
3	0xbd0521fa	-0.032503106
4	0xbda19996	-0.07890622
5	0xbde32394	-0.1109077
6	0x3c87e374	0.01658795
7	0x3caddbeb	0.02122303
8	0x3cab42d0	0.020905882
9	0xbc865db4	-0.016402103
10	0xbe076f30	-0.13226008
11	0x3cc73d1a	0.024321128
12	0x3cc04703	0.023471361
13	0x3bbf5e16	0.0058400733
14	0xbe1b5f68	-0.15173113
15	0x3d5af415	0.05345543
16	0xbd946e9c	-0.072476596
17	0x3d2be2c4	0.041964307
18	0x3c976b3d	0.018483752
19	0xbd807254	-0.06271806
20	0x3c0ff6a0	0.008786827
21	0x3c390f2b	0.01129512
22	0xbc8fa293	-0.017533576
23	0xbd03b879	-0.03215835
24	0x3b240418	0.0025026854
25	0x3bfd90ba	0.0077382
26	0xbc967303	-0.018365389
27	0xbded583b	-0.11589094
28	0x3cdd66f7	0.027026637
29	0x3beee05d	0.00728993
30	0xbb3d50d1	-0.0028887282
31	0x3c81f647	0.015864505
32	0xbd9d4572	-0.07679261
33	0x3b24c4bd	0.002514168
34	0xba4ddb2f	-0.00078527903
35	0x3a2c8b50	0.00065820385
36	0xbd6524e1	-0.055943374
37	0xbd81a1fd	-0.06329725
38	0xbbea0b3e	-0.0071424535
39	0xbdf98d75	-0.12185184
40	0xbdef5f5d	-0.11688111
41	0x3d3346a8	0.043768555
42	0xbe19b81d	-0.1501164
43	0x3c7f0ee2	0.015567513
44	0x3bb81412	0.005617627
45	0x3bb50ec7	0.0055254432
46	0x3d19600a	0.037445106
47	0x3cf52dd6	0.029929083
48	0xba774d36	-0.00094338076
49	0xbe033da6	-0.12816486
50	0x3cdfc6b1	0.027316423
51	0xbc8e92ce	-0.017403986
52	0xb9a0a398	-0.00030639465
53	0x3ce2f9b0	0.02770695
54	0x3cc265b8	0.023730144
55	0x3c8695ef	0.016428916
56	0x3d460813	0.048347544
57	0xbd5126c2	-0.051062353
58	0x3d19723d	0.03746246
59	0xbcd98ea8	-0.026557282
60	0xbcf77993	-0.030209338
61	0xbdaa31ec	-0.08310303
62	0xbd95ddc0	-0.07317686
63	0x3d25d5c2	0.04048706
64	0xbd8f408b	-0.069947325
65	0x3d0167c5	0.031593103
66	0x3ca3ff64	0.02001924
67	0x3ce6578b	0.028117916
68	0xbbf78d64	-0.007554697
69	0x3cd6955b	0.026194265
70	0xbda44060	-0.08020091
71	0xbdb8b27f	-0.090184204
72	0x3caac10f	0.02084401
73	0xbd8be8de	-0.06831525
74	0x3cb95156	0.022621792
75	0xbdfa62ba	-0.12225862
76	0xbdd08f79	-0.10183615
77	0xbd911314	-0.07083717
78	0x3d1df29a	0.03856144
79	0x3bcf3b09	0.006324176
80	0x3c811b7b	0.015760174
81	0x3ae49a78	0.0017441055
82	0x3d0806bd	0.03320955
83	0x3cd0097a	0.025395144
84	0x3ca46ba1	0.020070853
85	0xbe22a85d	-0.15884538
86	0x3bb26d74	0.0054451767
87	0xbc0dd0ce	-0.00865574
88	0xbd868ee7	-0.06570225
89	0x3d22cce8	0.039746195
90	0x3d169f39	0.03677294
91	0xbe105ee2	-0.14098695
92	0xbc055dba	-0.008140022
93	0xbd43eae5	-0.047831435
94	0x3cd521fe	0.026017185
95	0x3d0f3e9c	0.03497182
96	0xbd174f4e	-0.036940865
97	0x3c96a928	0.018391207
98	0xbe10a872	-0.14126757
99	0x3aaa1e99	0.001297909
100	0x3bb2779d	0.005446388
101	0xbc4554ce	-0.012044145
102	0x3ce79fcb	0.028274437
103	0x3cb877db	0.022518089
104	0xbe185758	-0.14877069
105	0xbe124d3a	-0.14287272
106	0xbc2a7e0e	-0.01040603
107	0x3bbde185	0.0057947063
108	0xbe27c552	-0.16383865
109	0x3d3c69d9	0.04599938
110	0xbd914491	-0.07093156
111	0x3b08f0f7	0.002089558
112	0xbd94e959	-0.0727107
113	0x3cb70e59	0.022345709
114	0x3d000833	0.03125782
115	0xbd2527ed	-0.04032128
116	0x3cf82d28	0.03029497
117	0x3ca5005e	0.020141777
118	0x3c057e35	0.008147766
119	0x3d269d5e	0.04067742
120	0x3c02971f	0.0079706
121	0xbdf46fe5	-0.11935405
122	0x3baa5e74	0.005199248
123	0xbd92241c	-0.071357936
124	0x3cc342de	0.023835596
125	0xbda0e09f	-0.07855343
126	0x3c2237ff	0.009901046
127	0x3d10244d	0.03519087

q_mlp.3.weight f4 [64, 128]
0	0xbda146cf	-0.07874834
1	0x3d4d81f3	0.050172757
2	0xbd714add	-0.058909286
3	0xbc932557	-0.017962141
4	0x3b9dcf40	0.004815966
5	0xbce0aeac	-0.02742704
6	0xbd5f503f	-0.054519888
7	0xbc59adc2	-0.013286056
8	0x3ca69fc5	0.020339856
9	0xbdc87076	-0.09787075
10	0x3bda459e	0.006661131
11	0xbc11bd23	-0.008895191
12	0x3cfe4c5f	0.031042276
13	0xbddeff89	-0.10888583
14	0xbd7a4599	-0.06110153
15	0x3cede7d8	0.029041216
16	0x3c92c15c	0.017914467
17	0x3d99187d	0.07475374
18	0xbc956797	-0.018237872
19	0xbd836f5f	-0.06417727
20	0x3d8c2114	0.06842247
21	0xbdc13eca	-0.09435804
22	0x3d701194	0.058610514
23	0xbdb29c84	-0.08721259
24	0xbd86e08c	-0.06585798
25	0x3c645140	0.013935387
26	0x3d8d44c9	0.06897885
27	0xbc2b9fac	-0.01047508
28	0x3dfca9e0	0.123370886
29	0xbc9f2a03	-0.019429212
30	0xbdc8fae0	-0.098134756
31	0xbdb0dd46	-0.086359546
32	0xbc943e5a	-0.018096138
33	0xbc9ad5a5	-0.018900702
34	0x3d0a5364	0.033770934
35	0xbe06a44f	-0.13148616
36	0x3da9e80d	0.08296213
37	0xbd5b8cb1	-0.05360097
38	0x3dc38e17	0.09548586
39	0xbdd8ba61	-0.10582424
40	0xbc1c0edd	-0.009525028
41	0x3d46789c	0.048454866
42	0xbdc5eda1	-0.09664465
43	0x3daf1081	0.0854807
44	0x3a6f6741	0.00091325125
45	0xbdc287d3	-0.09498563
46	0xbb2c046b	-0.002624775
47	0xbd8b43a8	-0.06800014
48	0xbd0017a0	-0.03127253
49	0xbd90320b	-0.07040795
50	0x3c916132	0.017746542
51	0x3d817507	0.06321149
52	0xba9cae43	-0.001195379
53	0xbd160660	-0.036627173
54	0x3cb0bbcd	0.021573925
55	0x3d817007	0.06320196
56	0x3c3298df	0.010900705
57	0xbd8288b1	-0.06373728
58	0xbd8d7bf3	-0.06908407
59	0xbd8dae1c	-0.06917974
60	0x3c6062e8	0.013695456
61	0x3d8f8f65	0.07009772
62	0x3cfe23e6	0.031022977
63	0xbc022ea8	-0.007945694
64	0xbd00fb73	-0.0314898
65	0x3c43fcff	0.011962174
66	0xbcfea9c6	-0.031086814
67	0xbd8b4ea6	-0.068021104
68	0xbd9f73fe	-0.07785796
69	0xbc8447ca	-0.016147513
70	0xbd508cb4	-0.050915435
71	0xbdbc2b08	-0.09187895
72	0x3ce95fb7	0.028488023
73	0x3d97cd84	0.07412246
74	0xbb22aff8	-0.0024824124
75	0xbda16b24	-0.078817636
76	0x3d031d92	0.032010622
77	0x3d7879ef	0.06066316
78	0xbc757e16	-0.0149836745
79	0x3d597ffb	0.053100567
80	0x3d9b9f5c	0.07598755
81	0xbe071421	-0.13191272
82	0xbc0b6867	-0.008508778
83	0x3c166f43	0.0091818
84	0xbcf6bb25	-0.030118534
85	0xbdf0d7da	-0.117599204
86	0xbcd6087f	-0.026127098
87	0x3d74b7a2	0.05974544
88	0xbd9c2e5c	-0.0762603
89	0xbdaba16a	-0.08380397
90	0xbc62bd11	-0.013839022
91	0xbde959b5	-0.113940634
92	0xbcfa6f0d	-0.030570531
93	0xbd338645	-0.04382922
94	0x3d0bc21c	0.034120664
95	0xbd7cec65	-0.06174888
96	0x3dae6003	0.085144065
97	0xbdcd11e7	-0.1001318
98	0x3c02d97a	0.007986421
99	0xbdf5e4c9	-0.12006528
100	0x3c2eb2a4	0.010662708
101	0xbda47f73	-0.080321215
102	0xbd0c3bb5	-0.03423663
103	0xbdba7094	-0.09103504
104	0xbdbce2e0	-0.092229605
105	0xbc260f3c	-0.010135468
106	0xbd8b0cb9	-0.06789536
107	0xbcb3a022	-0.021926943
108	0xbd91f2f3	-0.07126417
109	0x3d30b831	0.04314441
110	0x3d753db5	0.0598733
111	0x3d9867c0	0.07441664
112	0x38210000	3.838539e-05
113	0x3dc4cec6	0.096097514
114	0x3d54fc3f	0.051998373
115	0xbd9d1fb5	-0.07672063
116	0xbda572ee	-0.08078562
117	0xbc5056ff	-0.012716054
118	0x3d880d90	0.06643212
119	0xbd41fe72	-0.0473618
120	0x3cc9f6ba	0.024653781
121	0xbdb47b78	-0.08812612
122	0xbd2e5203	-0.04255868
123	0x3da4d1ea	0.080478504
124	0xbbd5354e	-0.0065065986
125	0x3ca3f154	0.020012535
126	0xbc5471a2	-0.012966545
127	0xbcc55c16	-0.024091762
128	0xbd7d6ae7	-0.06186953
129	0xbd9b2a40	-0.07576418
130	0xbd09b37e	-0.033618443
131	0x3c90e3a7	0.017686678
132	0xbd8e4ccf	-0.06948244
133	0xbd89c470	-0.067269206
134	0x3dc53331	0.096289046
135	0x3d3ef0e6	0.046616457
136	0x3ba69996	0.005084227
137	0x3d563e9a	0.052305795
138	0x3d2a374d	0.041556645
139	0xbd971d95	-0.07378689
140	0x3d0fc1ec	0.035097048
141	0x3dbc7835	0.09202615
142	0xbd84ad5f	-0.064783804
143	0xbd69bc40	-0.057064295
144	0x3cca7b60	0.024717033
145	0xbd8ff9fc	-0.070301026
146	0xbc919425	-0.017770836
147	0x3d0bd259	0.03413615
148	0x3d81cc97	0.063378505
149	0x3d615fff	0.05502319
150	0xbd907b34	-0.07054749
151	0xbd7e403c	-0.062072977
152	0xbd1ce476	-0.038303815
153	0x3c5e7b5e	0.013579218
154	0x3da85d8c	0.08220968
155	0xbd512df3	-0.05106921
156	0x3d353234	0.04423733
157	0x3dd690d1	0.1047684
158	0x3d93c419	0.07215137
159	0xbbf3130a	-0.007418041
160	0xbb5eac93	-0.0033977374
161	0x3e0b57db	0.13607733
162	0xbc3ccc45	-0.011523311
163	0x3de3cf7d	0.111235596
164	0xbda3d5cc	-0.07999763
165	0xbaa095fb	-0.0012251729
166	0xba717754	-0.00092112017
167	0x3d9ad4ba	0.075601056
168	0x3bc0a265	0.005878734
169	0x3deba90b	0.11506852
170	0x3d52c87d	0.05146073
171	0xbd111eef	-0.03542989
172	0x3af4cb49	0.0018676306
173	0x3dd40041	0.10351611
174	0x3c924d1c	0.017859034
175	0x3d9ed5f3	0.07755651
176	0x3e2692fb	0.16267006
177	0x3daa66d9	0.08320398
178	0xba0f1ee3	-0.00054596196
179	0x3a6d6361	0.0009055641
180	0x3d7e6fd0	0.06211835
181	0xbd859be0	-0.065238714
182	0x3d3cd906	0.046105407
183	0xbdd29c52	-0.10283722
184	0xbd08c85c	-0.033394203
185	0xbb87e900	-0.004147649
186	0xbd2a08ad	-0.04151218
187	0x3d47f2ea	0.048815645
188	0x3d43d612	0.047811575
189	0x3dab0bbc	0.083518475
190	0x3d9d6fa9	0.07687313
191	0x3c532e35	0.012889435
192	0x3d47536c	0.04866354
193	0x3d7115c5	0.05885865
194	0x3c08126a	0.0083051715
195	0x3da04ebb	0.07827517
196	0xbccc6c47	-0.024953974
197	0x3d8308e0	0.06398177
198	0x3db7ad29	0.089685746
199	0xbd7aca78	-0.061228245
200	0xbd1360d9	-0.035981033
201	0x3da93a6c	0.08263096
202	0x3d8f22ad	0.06989036
203	0xbcbb96c1	-0.022899034
204	0xba828bf6	-0.0009959925
205	0x3d4ab8b7	0.049492564
206	0x3d1fea25	0.039041657
207	0xbda324fb	-0.07966038
208	0x3da1e083	0.0790415
209	0x3d2078f4	0.03917785
210	0x3c10daaa	0.008841196
211	0xbd820c4b	-0.06350001
212	0xbd8b3edf	-0.06799101
213	0xbd1ebf3c	-0.038756594
214	0x3cff7bd9	0.031186985
215	0x3d2938b8	0.041313857
216	0xbd3e0f63	-0.046401393
217	0x3bdd8eee	0.0067614233
218	0xbe3011e6	-0.17194328
219	0xbd83e4d8	-0.06440133
220	0x3db3d754	0.08781305
221	0xbab27782	-0.0013615938
222	0xbd221681	-0.039572243
223	0x3d8cb0a6	0.068696305
224	0x3d191fee	0.037383966
225	0x3cf5f699	0.030024813
226	0x3c7b8775	0.01535212
227	0xbd088a90	-0.03333527
228	0x3d3ef856	0.04662355
229	0xbd4703ae	-0.048587494
230	0xbd54da11	-0.051965777
231	0xbd4ebe42	-0.050474413
232	0x3cfec056	0.031097572
233	0xbd8bf9a1	-0.06834722
234	0x3d2ae87f	0.04172563
235	0x3df72e93	0.1206943
236	0xbd89863a	-0.06715055
237	0x3e001332	0.12507322
238	0x3d754941	0.059884313
239	0xbd8443c0	-0.06458235
240	0xbda61786	-0.081099555
241	0xbcd006bc	-0.025393836
242	0x3cbb0a7d	0.02283215
243	0xbd17565b	-0.03694759
244	0xbd535e38	-0.051603526
245	0xbcc483ae	-0.023988571
246	0xbbad92a9	-0.0052970243
247	0x3cb30204	0.021851547
248	0xbd5c2542	-0.05374647
249	0x3cede58d	0.029040122
250	0xbc303dea	-0.010756949
251	0x3d4f50fd	0.050614346
252	0x3d451fcd	0.04812603
253	0x3d6d1108	0.05787757
254	0x3de49827	0.11161833
255	0xbdad28c5	-0.08455042

q_mlp.3.bias f4 [64]
0	0xbd28a210	-0.04117018
1	0x3ca05611	0.01957229
2	0x3cf6ac50	0.030111462
3	0xbd626a23	-0.055277
4	0xbd22bb88	-0.039729625
5	0xbdc884aa	-0.09790929
6	0xbc86f695	-0.016475001
7	0xbc0f8793	-0.008760351
8	0x3c072a89	0.008249887
9	0x3da189e6	0.0788763
10	0x3ccb55fd	0.024821276
11	0xbce48394	-0.027894773
12	0x3db6a0c8	0.08917385
13	0x3d885a9f	0.066579096
14	0x3d87f75c	0.06638977
15	0x3dca5970	0.0988034
16	0xbc001118	-0.0078165755
17	0x39f27a58	0.0004624899
18	0xbd5c9527	-0.05385318
19	0xbc6fbf6e	-0.014633043
20	0xbd9aa880	-0.0755167
21	0xbdc09a89	-0.09404475
22	0xbdaa3e32	-0.08312644
23	0xbd91c418	-0.0711748
24	0x3cfeceb4	0.031104423
25	0x3d37ebca	0.0449026
26	0xbd8cac12	-0.06868757
27	0x3db584f5	0.0886325
28	0xbc59b84b	-0.013288568
29	0xbd6cdf0a	-0.057829894
30	0xbcd39681	-0.025828602
31	0xbd6c2ef9	-0.057661984
32	0x3d340319	0.043948267
33	0xbdc7a5b0	-0.09748399
34	0x3ad3850b	0.0016137672
35	0x3ca35f3d	0.019942874
36	0x3d903243	0.07040837
37	0x3d0effeb	0.03491203
38	0xbc0e01fd	-0.008667466
39	0x3d330f3a	0.043715693
40	0xbcecb037	-0.02889262
41	0xbd24d6de	-0.040243976
42	0x3d39710b	0.04527382
43	0xbd5d5e8a	-0.054045238
44	0x3d2def98	0.042464823
45	0xbd409f7c	-0.047027096
46	0x3d2c352d	0.0420429
47	0x3dfebe1c	0.12438604
48	0xbd90fe64	-0.07079771
49	0x3d88fb1a	0.06688519
50	0x3cbe7817	0.023250623
51	0x3d47d326	0.04878535
52	0xbbe3958b	-0.006945317
53	0xbd6ad22a	-0.057329334
54	0xbd4fab35	-0.050700385
55	0xbc6a7eed	-0.014312488
56	0x3d677380	0.056506634
57	0x3d56041d	0.052250016
58	0x3c207cea	0.009795407
59	0xbd936379	-0.07196707
60	0x3dac1d50	0.084040284
61	0x3db10d8a	0.086451605
62	0x3d3275a5	0.043569226
63	0x3ca20eda	0.019782472

hamiltonian_mlp.mlp.0.weight f4 [1, 128]
0	0xbd68dda7	-0.05685201
1	0xbbdf8370	-0.0068210885
2	0x3ca2534c	0.01981511
3	0xbdb2841f	-0.08716606
4	0xbd2c521e	-0.0420705
5	0x3b5f9b00	0.0034119487
6	0xbc863bf4	-0.01638601
7	0x3da69151	0.08133186
8	0xbc88f124	-0.016716547
9	0xbd5d4a55	-0.054025967
10	0x3d2abbda	0.041683055
11	0x3ca238bc	0.019802444
12	0xbd3049e0	-0.043039203
13	0xbd10a641	-0.035314802
14	0xbda6e6ac	-0.08149466
15	0xbdb12519	-0.08649654
16	0xbc8da2e8	-0.017289594
17	0xbd3434fc	-0.043995842
18	0x3d2eefd2	0.04270918
19	0x3d938c4b	0.07204493
20	0x3d55623a	0.05209563
21	0xbda5dbbf	-0.08098554
22	0x3da3f3bd	0.08005474
23	0x3c88cdb0	0.016699642
24	0x3d7168da	0.058937885
25	0xbd261d7a	-0.040555455
26	0x3c367000	0.011135101
27	0xbd5bf664	-0.053701773
28	0xbc80d424	-0.015726157
29	0xbc823fc8	-0.015899554
30	0x3db36ba3	0.087607644
31	0x3d896cf1	0.06710232
32	0x3a60df00	0.00085781515
33	0xbbd54280	-0.0065081716
34	0xba782a00	-0.00094667077
35	0xbb0a57a0	-0.0021109357
36	0xbd4f00ef	-0.050538
37	0xbc9cbe58	-0.019133732
38	0xbd2da7fe	-0.042396538
39	0xbd9d5789	-0.07682712
40	0xbd8a02b6	-0.06738798
41	0x3d66c15e	0.056336753
42	0xbc3ba178	-0.011452071
43	0x3dafb617	0.08579653
44	0x3d95dc99	0.07317466
45	0x3d7d6b6e	0.06187003
46	0xb9e80100	-0.00044251233
47	0x3dabaa8d	0.08382139
48	0x3d827151	0.0636927
49	0xbd503648	-0.050833017
50	0x3d1def8e	0.038558535
51	0x3c7bb5a0	0.015363127
52	0x3d2f180a	0.042747535
53	0x3b545fe0	0.0032405779
54	0x3d9a5345	0.07535414
55	0x3d25cf7a	0.04048107
56	0x3bf8fa70	0.007598214
57	0x3d572e1e	0.052534215
58	0xbd351d55	-0.044217426
59	0xbc91af50	-0.01778379
60	0x3d2e7ac6	0.042597555
61	0xbd7309e2	-0.059335597
62	0x3c2492b0	0.010044739
63	0xbd4914fa	-0.04909227
64	0xbd1f6a12	-0.038919516
65	0x3d4f24a2	0.050572045
66	0xbd11d000	-0.035598755
67	0x3d331e42	0.043730028
68	0x3d463746	0.048392557
69	0xbd93ed44	-0.07222989
70	0x3d8d06dd	0.06886075
71	0x3d8704bf	0.06592702
72	0x3d6df6ae	0.05809658
73	0xbd06468f	-0.032782134
74	0x3cc8c994	0.024510182
75	0xbd57cd80	-0.052686214
76	0x3d94efa9	0.07272274
77	0xbd45dcc1	-0.04830623
78	0x3d552706	0.05203917
79	0xbd0ca4b2	-0.034336753
80	0x3d5dafea	0.054122843
81	0x3d1a1b66	0.037623785
82	0x3d22f036	0.039779864
83	0x3d99e0a1	0.07513548
84	0x3d1bd0ca	0.038040914
85	0x3db4c0b9	0.088258214
86	0x3ae4dec0	0.0017461404
87	0xbd22ee51	-0.039778057
88	0x3d93b2c1	0.07211829
89	0x3c1cd998	0.009573363
90	0xbd94a2a4	-0.07257584
91	0xbd66f609	-0.05638698
92	0xbd82874e	-0.063734636
93	0xbd5b89a1	-0.05359805
94	0x3c139ec8	0.009010024
95	0xbd432c57	-0.047649708
96	0x3d0e1730	0.034690082
97	0x3cf54648	0.02994074
98	0xbb3dac00	-0.0028941631
99	0xbc61b1a8	-0.013775267
100	0xbd4bb977	-0.04973742
101	0x3ccc9c08	0.024976745
102	0xbd4d297b	-0.050088387
103	0xbd6b13b6	-0.057391845
104	0x3c67bbc0	0.014143884
105	0xbcf1d278	-0.029519305
106	0x3c4a3960	0.012342781
107	0xbcc31ed8	-0.023818418
108	0x3d9df50f	0.07712757
109	0xbd915813	-0.07096877
110	0xbd9e1b4d	-0.07720051
111	0x3b053dc0	0.0020330995
112	0xbc78ddb0	-0.015189573
113	0x3d8d96af	0.06913506
114	0xbd8db0cc	-0.06918487
115	0xbd182c15	-0.037151415
116	0xbce80c92	-0.028326306
117	0xbd760107	-0.060059574
118	0x3d9af5f5	0.07566444
119	0xbd828324	-0.06372669
120	0x3d64ac42	0.05582834
121	0x3d3a15ca	0.045430936
122	0x3da19f1d	0.078916766
123	0x3bac86e0	0.005265102
124	0xbd8f493b	-0.069963895
125	0xbcf11962	-0.029431049
126	0x3d9e6737	0.077345304
127	0x3d7deae6	0.061991595

fusion.weight f4 [6, 128]
0	0xbde3d49f	-0.11124539
1	0x3b6db83f	0.003627315
2	0xbd0db8d5	-0.034600098
3	0x3c0b1217	0.0084882
4	0xbd8bb347	-0.06821304
5	0x3ce9b010	0.028526336
6	0xbd094254	-0.03351052
7	0xbda3db4d	-0.08000813
8	0xbdbdaf81	-0.0926199
9	0x3da3bcbd	0.07994983
10	0x3d3856e2	0.045004733
11	0xbd8c3775	-0.06846515
12	0x3dca13c6	0.09867053
13	0x3da746cc	0.081678
14	0xbda99cef	-0.08281886
15	0xbc9ab26f	-0.018883912
16	0x39a5551c	0.00031534664
17	0xbcecc84e	-0.028904106
18	0xbd7d848a	-0.061893977
19	0xbd4aad8e	-0.04948192
20	0x3d5067b9	0.050880168
21	0xbd662887	-0.056190994
22	0x3db46164	0.08807638
23	0xbdd2ba00	-0.10289383
24	0x3dcb6ffa	0.09933467
25	0x3c36b324	0.011151109
26	0xbd1ef661	-0.038809184
27	0x3dc5abc1	0.096519
28	0x3d7298ef	0.05922788
29	0x3d9818a8	0.07426578
30	0x3dafbc5f	0.08580851
31	0xbce6748c	-0.028131746
32	0xbd5bdf6a	-0.05367986
33	0xbc61b385	-0.013775711
34	0xbdbf3cd5	-0.09337775
35	0x3d3e25a0	0.0464226
36	0x3d416eca	0.047224797
37	0xbcfa1849	-0.030529158
38	0x3d7caf25	0.06169047
39	0x3de8afb9	0.113616414
40	0xbc052a35	-0.008127739
41	0x3d7ba580	0.06143713
42	0xbd849211	-0.064731725
43	0xbc8bf782	-0.017085794
44	0xbca84bf3	-0.020544028
45	0x3d380bc8	0.04493311
46	0x3cb2ca55	0.021824995
47	0x3da51ad3	0.08061757
48	0x3cc1216f	0.023575513
49	0xbd3f1fc1	-0.046661142
50	0xbdc23eb1	-0.09484614
51	0x3c6be8b2	0.014398741
52	0xbdb9a113	-0.090639256
53	0x3c40a434	0.011757899
54	0xbcfa9cb4	-0.0305923
55	0x3d982c76	0.07430355
56	0xbcee9736	-0.029124837
57	0x3d92502c	0.07144198
58	0x3dc57a09	0.09642417
59	0x3d117ccc	0.035519406
60	0x3d87d434	0.066322714
61	0xbdc4a2dd	-0.09601376
62	0x3dd6feb6	0.10497801
63	0x3d5d0fdb	0.0539702
64	0xbd263300	-0.04057598
65	0xbb68cbf9	-0.0035521968
66	0xbdd185b1	-0.10230578
67	0xbce86f35	-0.02837334
68	0x3c2b8246	0.010468071
69	0xbde069c6	-0.10957675
70	0x3d886cd8	0.06661385
71	0xbe116356	-0.1419805
72	0x3c1eb097	0.009685657
73	0x3df2941f	0.11844658
74	0x3d0d81d5	0.034547646
75	0xbd051491	-0.032490317
76	0x3d5928e5	0.053017516
77	0x3d173983	0.03692008
78	0x3cded493	0.027200973
79	0xbd6119d8	-0.054956287
80	0xbe10b93d	-0.14133163
81	0xbd55cc23	-0.052196633
82	0xbe05f4df	-0.13081692
83	0xbe123dbe	-0.14281365
84	0x3d920718	0.07130259
85	0xbc165bfa	-0.009177202
86	0x3dc38526	0.095468804
87	0xbc142990	-0.009043112
88	0x3ceec8ea	0.029148538
89	0x3c6c649e	0.014428286
90	0xbca3fa85	-0.020016918
91	0x3de4ee32	0.11178245
92	0x3e31bf48	0.17358124
93	0xbda56cd2	-0.080773965
94	0xbdd70cf5	-0.10500518
95	0xbd88b32a	-0.06674798
96	0x3cf37558	0.02971904
97	0xbd8fde48	-0.07024819
98	0xbde29282	-0.110631004
99	0xbc70d74a	-0.014699766
100	0x3db5332f	0.08847653
101	0x3ddd0e6e	0.10793768
102	0x3d9738ca	0.073838785
103	0x3cefe76c	0.029285155
104	0x39b02535	0.00033597057
105	0x3d911123	0.07083347
106	0x3e0a5e36	0.13512501
107	0x3d8f46d2	0.0699593
108	0x3ded821c	0.11597082
109	0xbd1c7959	-0.038201664
110	0x3e288364	0.16456372
111	0x3d9e4302	0.077276245
112	0xbc51dd47	-0.012809104
113	0x3cbf37a8	0.023341969
114	0xbdaee186	-0.08539109
115	0x3e21282c	0.1573798
116	0xbdc93773	-0.09825029
117	0xbd455042	-0.048172243
118	0x3b5b6ca3	0.00334815
119	0x3e222fea	0.1583859
120	0xbd879651	-0.066204675
121	0x3dc803f1	0.09766377
122	0x3df16ed4	0.11788717
123	0x3d8d545b	0.06900855
124	0xbbce9467	-0.006304312
125	0xbd593356	-0.053027473
126	0x3d99bc1e	0.07506584
127	0x3d8d3688	0.06895167
128	0x3db7dbeb	0.08977493
129	0x3da97d7f	0.082758896
130	0x3d8e4f14	0.06948677
131	0x3d58e4e8	0.052952677
132	0xbd63add6	-0.055585705
133	0x3d1f50af	0.038895305
134	0x3d6a2e4f	0.05717307
135	0x3c87f280	0.016595125
136	0xbd43cc31	-0.047802154
137	0x3c9e714f	0.01934114
138	0x3d009967	0.031396296
139	0xbd836018	-0.06414813
140	0xbca45690	-0.020060807
141	0xbdbf9473	-0.09354486
142	0xbd6f3167	-0.058396723
143	0x3cb4f26d	0.022088254
144	0x3d90babf	0.07066869
145	0x3cb652fe	0.02225637
146	0x3daeafa2	0.08529593
147	0x3a4a3165	0.0007713049
148	0xbd39e938	-0.04538843
149	0x3d365018	0.044509977
150	0xbd5756de	-0.052573077
151	0x3d499807	0.04921725
152	0x3c63e95b	0.013910617
153	0xbdaac8b3	-0.083390616
154	0x3d78c1f9	0.06073186
155	0xbcb70672	-0.02234194
156	0x3d4c9768	0.04994908
157	0xbd819f35	-0.063291945
158	0xbd214ef8	-0.03938195
159	0xbd8a9ec2	-0.06768562
160	0xbda654dc	-0.081216544
161	0x3d9c6ee7	0.076383404
162	0x3ce00553	0.027346289
163	0xbcb50fe6	-0.022102308
164	0x3d003591	0.031301085
165	0x3b8ca9b6	0.004292692
166	0x3d27588e	0.040855937
167	0x3d135624	0.035970822
168	0x3c79d46d	0.0152484
169	0x3c9f0d18	0.019415423
170	0x3c4b4d2f	0.012408539
171	0x3c7c805c	0.015411463
172	0x3d807604	0.0627251
173	0xbd29a283	-0.04141475
174	0x3c2ef226	0.01067785
175	0xbd8b3dfc	-0.06798932
176	0x3d62fb32	0.05541534
177	0xbd471cd9	-0.048611496
178	0x3cbe94dc	0.023264341
179	0xbd2329a6	-0.03983464
180	0xbb96ff1c	-0.004608048
181	0x3be26c21	0.0069098626
182	0xbd612509	-0.05496696
183	0xbd502be3	-0.050823104
184	0xbdac9c32	-0.084282294
185	0xbd0c1727	-0.034201767
186	0x3d0d3232	0.034471698
187	0x3c9fccae	0.019506779
188	0x3ccc4b98	0.02493839
189	0xbc8f8c93	-0.017523086
190	0x3d4160d2	0.047211476
191	0xbc740019	-0.014892601
192	0x3da987ae	0.08277832
193	0xbd96fe3a	-0.073727086
194	0x3e36b6df	0.17843197
195	0x3d284fae	0.041091613
196	0x3e2adc11	0.16685511
197	0xbd16815b	-0.036744457
198	0x3a790250	0.0009498941
199	0x3c88a51f	0.016680298
200	0x3dd8f056	0.105927154
201	0xbdfb4d40	-0.12270594
202	0xbe342a16	-0.1759418
203	0x3d021deb	0.031766813
204	0xbdc70775	-0.09718219
205	0xbdf1a3dc	-0.11798832
206	0x3d36e3bb	0.044650774
207	0xbd21df62	-0.039519675
208	0xbb71b3f3	-0.003688094
209	0x3cc2736c	0.023736678
210	0x3e2006de	0.1562762
211	0x3d7b48e8	0.061348826
212	0x3d8a1838	0.067429006
213	0x3d90aa70	0.070637584
214	0x3dc21ec5	0.09478525
215	0x3daee4bc	0.08539721
216	0xbcd5b013	-0.026084935
217	0xbd876789	-0.06611545
218	0x3c942631	0.018084617
219	0xbc82a44c	-0.015947483
220	0xbca5d82c	-0.02024468
221	0x3d223052	0.039596863
222	0x3d03b467	0.032154467
223	0x3dd87276	0.10568707
224	0xbcb08ecf	-0.021552471
225	0x3e0886ba	0.13332644
226	0x3d537971	0.051629487
227	0x3cdc7eb1	0.02691588
228	0xbdbc043d	-0.09180496
229	0xbd8160d0	-0.06317294
230	0x3c950a12	0.018193278
231	0xbd824d8e	-0.06362449
232	0x3cc765af	0.024340479
233	0x3d3e9068	0.046524435
234	0xbd7d445f	-0.061832782
235	0x3d5f98ca	0.05458907
236	0xbd5e03af	-0.05420273
237	0xbe021eb9	-0.12707032
238	0xbdc5300a	-0.09628303
239	0xbdf1c6ea	-0.11805518
240	0xbcb71884	-0.022350557
241	0xbdcda91a	-0.10042019
242	0xbdcae740	-0.09907389
243	0xbde3767c	-0.111065835
244	0x3deb5bc2	0.11492111
245	0xbe2c54f7	-0.16829287
246	0x3d83bd9c	0.064326495
247	0xbda4e0b0	-0.08050668
248	0xbd04eae1	-0.03245056
249	0xbd3fdb41	-0.046839956
250	0x3d2462aa	0.040133156
251	0x3d31157b	0.043233376
252	0x3c745774	0.014913429
253	0xbc9ab5d2	-0.018885527
254	0xbbe8aa25	-0.007100361
255	0xbc9c7ea4	-0.019103356

fusion.bias f4 [6]
0	0x3cbb5f1f	0.022872506
1	0xbd220708	-0.039557487
2	0xbd9660fc	-0.07342717
3	0xbda5b2fc	-0.08090779
4	0xbd49fe18	-0.04931459
5	0xbd5a1a24	-0.053247586

hnn.fc.0.weight f4 [128, 6]
0	0x3e6ca630	0.2311027
1	0xbdd4b44e	-0.10385953
2	0x3ea98e64	0.33116448
3	0x3e412ae7	0.18864022
4	0x3eb21196	0.34779042
5	0x3ead591a	0.33857042
6	0x3eb8bafc	0.36080158
7	0x3ec54dab	0.38535818
8	0xbe191bc8	-0.14952004
9	0xbeb93141	-0.3617039
10	0xbe8b29f2	-0.2718044
11	0x3cba530a	0.022744674
12	0xbe2f9cb9	-0.17149629
13	0x3e221c7b	0.15831177
14	0x3dd132c1	0.10214759
15	0xbdc5688e	-0.09639083
16	0xbdee82dc	-0.11646053
17	0xbe1d796b	-0.15378349
18	0xbe512c38	-0.20427024
19	0xbe0ef26c	-0.13959664
20	0xbea2632e	-0.31716293
21	0xbcbdfaf0	-0.023190945
22	0xbdd7eb08	-0.105428755
23	0x3d1a7ce8	0.037716776
24	0x3e7a0275	0.24415
25	0xbebe9a83	-0.37227258
26	0xbecc2b43	-0.39876756
27	0x3e2b3bdd	0.16722055
28	0xbe0c740d	-0.13716145
29	0xbec4bc6a	-0.38425
30	0x3e6a9130	0.22906947
31	0xbe4b4364	-0.19849926
32	0x3e3de49a	0.18544236
33	0x3e638fe7	0.22222863
34	0xbe5eac6f	-0.21745466
35	0x3e64263d	0.22280212
36	0xbe1bde8c	-0.15221614
37	0x3e8d980c	0.27655065
38	0x3eb74176	0.3579213
39	0x3e39e7b8	0.181548
40	0xbe9094bc	-0.28238475
41	0xbe40f122	-0.18841985
42	0x3e9365a0	0.2878847
43	0xbe9cb2c8	-0.3060515
44	0x3d84a832	0.06477393
45	0xbe9ddca0	-0.30832386
46	0x3d744e8d	0.059645224
47	0x3e22f460	0.15913534
48	0x3eaa9039	0.33313158
49	0xbe85f2fc	-0.26161945
50	0x3d871caf	0.06597268
51	0x3e30c1ce	0.1726143
52	0x3e19326e	0.14960644
53	0xbdd5c37d	-0.10437677
54	0x3d02138c	0.031756923
55	0x3eafec8e	0.34360164
56	0xbe3db778	-0.18527019
57	0xbe718e00	-0.23589325
58	0x3e040899	0.12893905
59	0x3eae1cb9	0.3400629
60	0xbea257a2	-0.31707484
61	0xbe6e3d45	-0.2326556
62	0xbb38b4b2	-0.0028183875
63	0x3eaac2c7	0.33351728
64	0xbe3985e0	-0.18117476
65	0xbe0187f4	-0.12649518
66	0xbe51ee49	-0.20501055
67	0x3e80e3e6	0.25173873
68	0x3e5b78d9	0.21432818
69	0x3e13716a	0.14398733
70	0x3e3e4967	0.18582688
71	0x3ece5f92	0.4030729
72	0x3e317939	0.17331399
73	0xbeb0d624	-0.34538376
74	0x3e795b81	0.24351312
75	0xbe0e797e	-0.13913533
76	0x3d9469bc	0.0724673
77	0x3e35a465	0.17738493
78	0x3e33a6b0	0.17544055
79	0xbe8f2c14	-0.27963316
80	0xbd8df0ab	-0.069306694
81	0xbe017e7c	-0.12645906
82	0xbe4300a8	-0.19043219
83	0xbed55c63	-0.41672048
84	0xbe992c4d	-0.2991661
85	0x3dac33f7	0.08408349
86	0xbd564fde	-0.05232226
87	0x3b3228fe	0.0027185078
88	0xbe8fc44b	-0.28079447
89	0xbd8064b7	-0.0626921
90	0x3e428dd2	0.18999413
91	0x3ea1750b	0.3153461
92	0xbe2ee96f	-0.17081235
93	0x3e247691	0.16060854
94	0xbe143d25	-0.1447645
95	0x3e5772b6	0.21039852
96	0xbeb4bc4e	-0.35299915
97	0xbec8958e	-0.391766
98	0xbe3d8aa2	-0.18509915
99	0x3ea67d16	0.32517308
100	0x3ebd912a	0.37024814
101	0x3e109398	0.14118803
102	0x3e3aa868	0.18228304
103	0x3ec13b3a	0.377405
104	0xbdc765a4	-0.09736183
105	0x3e51ebb8	0.20500076
106	0x3eac3aac	0.33638513
107	0xbe8b7b63	-0.27242574
108	0xbd3d7404	-0.04625322
109	0x3e2a8414	0.16651946
110	0xbea1c2b0	-0.31593847
111	0xbde077ff	-0.109603874
112	0xbe565841	-0.20932104
113	0x3e95ff73	0.29296455
114	0x3e99a2bc	0.3000697
115	0x3ed6832c	0.4189695
116	0x3b709ee7	0.0036715807
117	0x3eae2e47	0.34019682
118	0xbdba7a52	-0.09105362
119	0xbe487d36	-0.19579014
120	0xbe9ef0dd	-0.3104314
121	0xbd479f65	-0.048735995
122	0x3e452548	0.19252503
123	0xbe48c643	-0.19606881
124	0x3ce481b7	0.027893884
125	0x3c8f9b62	0.017530147
126	0x3d886372	0.06659593
127	0xbe952534	-0.29129946
128	0xbd62f7d3	-0.055412125
129	0x3ea091b9	0.31361178
130	0x3cb9cfe9	0.022682147
131	0x3e49122e	0.19635841
132	0xbdf16cf0	-0.11788356
133	0x3c5c3d8c	0.013442408
134	0xbe8f8638	-0.28032088
135	0xbe5fe7ed	-0.21865816
136	0x3ea5415b	0.32276425
137	0xbe831af3	-0.25606498
138	0x3c9bf3a8	0.019037083
139	0x3dd09afa	0.101858094
140	0x3da58b18	0.08083171
141	0xbe71aeb5	-0.23601802
142	0x3e6dfe3a	0.23241511
143	0x3e9b0733	0.3027893
144	0xbe6cee7b	-0.23137848
145	0xbd844c49	-0.06459863
146	0x3e0c729a	0.13715592
147	0x3e80bdff	0.25144956
148	0x3e1e462d	0.15456457
149	0xbe29990f	-0.16562293
150	0x3e203039	0.15643395
151	0xbe2c4c23	-0.16825919
152	0x3e998bf6	0.29989594
153	0xbe817179	-0.25281885
154	0xbedab2b9	-0.4271448
155	0x3e2474a0	0.16060114
156	0x3debc7c5	0.115127124
157	0xbe0f520c	-0.13996142
158	0xbe53b9b1	-0.20676304
159	0x3e7e4452	0.2483075
160	0xbe3ed08c	-0.18634242
161	0xbe6361e7	-0.22205316
162	0xbed5a643	-0.4172841
163	0x3edf3df2	0.43601948
164	0x3cd1c247	0.025605334
165	0xbe97a0e4	-0.29614937
166	0x3e8811c0	0.26576042
167	0x3e988847	0.2979147
168	0xbc5e6d94	-0.01357593
169	0x3dae4b7f	0.085104935
170	0xbe89df13	-0.26928005
171	0x3e951ff4	0.2912594
172	0xbe33d457	-0.1756147
173	0x3d9a9190	0.07547295
174	0x3c773180	0.015087485
175	0x3dc79880	0.09745884
176	0x3e0d9b0c	0.13828677
177	0x3deb86f8	0.115003526
178	0xbe351d66	-0.17686996
179	0xbe97876a	-0.295955
180	0x3e8b5328	0.2721188
181	0x3e507d1c	0.20360225
182	0xbebd8e8b	-0.37022814
183	0xbe66549d	-0.22493215
184	0xbe3734de	-0.17891261
185	0xbd8ab956	-0.06773631
186	0xbd02e0e7	-0.031952765
187	0x3e8945cd	0.26811066
188	0xb96915a7	-0.00022228678
189	0xbeb23851	-0.3480859
190	0xbe46a51b	-0.1939892
191	0x3db48d56	0.0881602
192	0xbe57e5c1	-0.21083738
193	0x3e53e690	0.20693421
194	0x3d0b7618	0.03404817
195	0x3e0414e8	0.128986
196	0xbd5af3e0	-0.053455234
197	0xbd0f2bd0	-0.034953892
198	0xbc7a0a26	-0.015261209
199	0x3bf2f1d0	0.00741408
200	0xbe5266a5	-0.20546968
201	0xbd197adb	-0.03747068
202	0xbe1893d1	-0.14900137
203	0x3ddf7ef6	0.10912888
204	0xbeb7f350	-0.3592782
205	0x3d216576	0.0394034
206	0xbeb0250c	-0.34403265
207	0x3de8bda5	0.11364297
208	0xbd1b76df	-0.03795516
209	0x3e47d6dd	0.19515558
210	0xbec3c01a	-0.382325
211	0xbea6151f	-0.3243799
212	0xbd056c85	-0.032574195
213	0xbeaf6042	-0.34253126
214	0xbc53ac5e	-0.0129195135
215	0xbe4d4be1	-0.20048477
216	0x3e44b78c	0.19210643
217	0x3e9b8715	0.30376497
218	0xbe7582ef	-0.23975728
219	0x3e19ff24	0.15038735
220	0x3e7498f8	0.23886478
221	0xbd0884bb	-0.033329707
222	0xbde303a7	-0.11084681
223	0x3e50eabd	0.20402046
224	0xbd9254cb	-0.07145079
225	0x3ec5a2f9	0.386009
226	0xbecaac8e	-0.39584774
227	0xbe6b260b	-0.22963731
228	0x3ec9257b	0.39286408
229	0x3e97ed7b	0.2967337
230	0xbdae1428	-0.08499938
231	0xbe10fc3d	-0.14158721
232	0xbe2ce405	-0.16883858
233	0xbea2b0e1	-0.31775573
234	0x3e5e8cae	0.21733353
235	0x3dc8025b	0.09766074
236	0xbe9c78c1	-0.30560878
237	0xbe9b7c3b	-0.30368218
238	0x3e8a9b54	0.2707163
239	0xbe9dc8da	-0.308173
240	0xbdbd3042	-0.0923772
241	0xbec8e95f	-0.39240548
242	0xbe9e1f0c	-0.30883062
243	0x3e1ef507	0.15523158
244	0xbdef2c35	-0.11678354
245	0x3ea26115	0.31714693
246	0xbea1bf11	-0.31591085
247	0x3ec345d4	0.38139212
248	0xbec74f69	-0.38927773
249	0x3ed141f4	0.4087063
250	0xbea7d09f	-0.32776353
251	0x3e3d52cd	0.18488617
252	0xbecea4b2	-0.40360028
253	0x3dd8b71e	0.10581802
254	0x3ed12178	0.40845847
255	0xbeae57e1	-0.3405142

hnn.fc.0.bias f4 [128]
0	0x3a58465f	0.0008250232
1	0xbd18ca33	-0.037302207
2	0x3ea9c2bd	0.33156386
3	0xbe8de64c	-0.27714765
4	0x3ed619e1	0.4181662
5	0x3ea6cf96	0.3258025
6	0xbed015b3	-0.40641555
7	0x3eaf7601	0.34269717
8	0xbd8fc565	-0.07020072
9	0x3cbc0ff6	0.02295683
10	0x3ea23145	0.31678215
11	0x3e7fe4db	0.24989645
12	0xbd143a21	-0.03618825
13	0x3e71aa32	0.2360008
14	0x3d8e36b0	0.069440246
15	0x3e015fea	0.12634245
16	0xbeb6f742	-0.35735518
17	0xbed03875	-0.40668073
18	0xbdb481fb	-0.08813854
19	0x3e9ce75e	0.3064527
20	0x3e597007	0.21234141
21	0xbea903ba	-0.33010656
22	0xbe6ccff4	-0.23126203
23	0x3b56c93b	0.0032773751
24	0x3e5521d9	0.20813693
25	0xbe37a34e	-0.1793339
26	0xbe96cc64	-0.29452813
27	0x3e65f7d3	0.22457819
28	0xbe544c70	-0.20732284
29	0xbe381dbc	-0.17980093
30	0x3d461d42	0.048367746
31	0x3e9a9613	0.30192623
32	0xbecbe419	-0.39822462
33	0x3d7ea88a	0.06217245
34	0x3d534769	0.051581774
35	0x3e68f6f9	0.22750463
36	0xbe82c147	-0.25538084
37	0xbd3dcf3b	-0.04634021
38	0xbed86065	-0.42261043
39	0x3e1759dd	0.14780374
40	0x3e979cf0	0.2961192
41	0x3eaed6d8	0.34148288
42	0xbdd4455d	-0.103647925
43	0xbe795e91	-0.2435248
44	0xbd397c35	-0.04528447
45	0x3e26922c	0.16266698
46	0x3d472a87	0.04862454
47	0x3e44043d	0.19142242
48	0x3e6c2286	0.23060045
49	0x3e906b53	0.28206882
50	0xbecd050a	-0.40042907
51	0xbe031f73	-0.12804966
52	0x3c757819	0.014982247
53	0x3e8304d0	0.2558961
54	0xbc414a60	-0.011797518
55	0xbe051cc6	-0.12999257
56	0x3ebfa594	0.37431014
57	0x3e3677b5	0.17819102
58	0xbd3b9cba	-0.045803763
59	0xbec5df78	-0.38647056
60	0x3d161df1	0.036649648
61	0x3e729c12	0.23692349
62	0xbdc7e669	-0.09760744
63	0xbecacaf1	-0.39607957
64	0xbe82ceb9	-0.25548342
65	0x3d855c98	0.065118015
66	0xbd96cc42	-0.07363178
67	0x3e264438	0.16236961
68	0x3d68d607	0.056844737
69	0x3e083c5c	0.13304275
70	0x3e722119	0.23645438
71	0x3e168d9b	0.14702456
72	0xbe59eff7	-0.21282946
73	0xbea7acab	-0.32748923
74	0x3e5b3cc9	0.21409906
75	0xbde64798	-0.11244124
76	0xbe574a4d	-0.21024437
77	0xbe9a58f8	-0.30146003
78	0xbe9da8b0	-0.3079276
79	0x3e9fdea6	0.31224555
80	0xbe9e2883	-0.30890283
81	0xbd4f27fa	-0.050575234
82	0xbe5b27fe	-0.21401975
83	0x3aa674b7	0.0012699579
84	0xbc92a32a	-0.017900068
85	0xbe77c8bb	-0.24197666
86	0xbe0940a4	-0.13403565
87	0x3cbff6b3	0.023433065
88	0xbebd6f0f	-0.36998793
89	0x3d0b70f1	0.034043256
90	0xbdc2cd87	-0.095118575
91	0xbe4b198a	-0.19833961
92	0xbd8c9e39	-0.06866116
93	0x3e8323b1	0.25613168
94	0x3e99c93c	0.30036342
95	0x3e9fd3de	0.3121633
96	0xbe4a8010	-0.19775414
97	0x3e79ba33	0.24387436
98	0xbe6e5503	-0.23274617
99	0x3e310159	0.1728567
100	0x3d4448e7	0.047921088
101	0xbe03a718	-0.1285671
102	0xbdd3aac3	-0.103353046
103	0xbeba63d0	-0.36404276
104	0x3c92c90d	0.017918134
105	0x3ea9b8f3	0.33148918
106	0xbe577970	-0.21042418
107	0xbe92d53b	-0.28678307
108	0x3df3ad1f	0.118982546
109	0xbe6ddc22	-0.23228505
110	0x3dcee092	0.10101427
111	0x3db38eb6	0.08767454
112	0x3e6bf906	0.23044214
113	0x3e6d7c73	0.23192005
114	0x3e574e66	0.21026
115	0xbe29c050	-0.16577268
116	0xbe21723a	-0.1576623
117	0xbdc147a1	-0.0943749
118	0xbe95b1f2	-0.29237324
119	0xbe1149e0	-0.14188337
120	0xbd31b040	-0.043380976
121	0x3dc82e63	0.097744726
122	0xbec5783c	-0.38568294
123	0x3e33c8a3	0.17557006
124	0xbdf217f4	-0.11820975
125	0xbe75c7ad	-0.24001952
126	0x3e8ee23b	0.27906975
127	0x3cd520c3	0.026016599

hnn.fc.3.weight f4 [64, 128]
0	0xbd076df4	-0.033063844
1	0x3d4e996f	0.050439294
2	0x3c0117de	0.007879226
3	0xbda1a14f	-0.07892095
4	0x3d6871f0	0.056749284
5	0x3c90afd1	0.01766196
6	0xbd038df0	-0.032117784
7	0x3c9837bf	0.01858127
8	0xbd84fb62	-0.0649326
9	0xbde3a542	-0.11115505
10	0x3d739f04	0.05947782
11	0x3c29bd14	0.010360021
12	0xbc441692	-0.011968272
13	0xbd870f77	-0.065947466
14	0xbd975817	-0.07389849
15	0xbcb2c3d2	-0.02182189
16	0x3d46abfe	0.04850387
17	0xbccaa91c	-0.02473884
18	0xbca09a14	-0.01960472
19	0xbd79967e	-0.060934536
20	0xbd8b19a2	-0.067919984
21	0x3d81b0c1	0.06332541
22	0x3cf57eb8	0.02996765
23	0xbd721b2a	-0.059107937
24	0xbd81086b	-0.06300434
25	0xbd0afaf8	-0.03393075
26	0xbd6765d3	-0.05649359
27	0x3d92c5b6	0.071666166
28	0x3c21d5b0	0.009877607
29	0xbd06270f	-0.032752093
30	0xbd9eb9ea	-0.07750304
31	0xbd823301	-0.063573845
32	0xbd871f9e	-0.065978274
33	0xbd6e0037	-0.058105674
34	0xbda6c306	-0.081426665
35	0xbd432012	-0.047638007
36	0xbd033476	-0.032032453
37	0x3b8c9eb3	0.0042913794
38	0xbd59c51c	-0.053166494
39	0xbc286201	-0.010277272
40	0xbc963d0e	-0.01833966
41	0xbb1f328a	-0.0024291598
42	0xbd89eb53	-0.06734338
43	0x3c22f5a4	0.009946261
44	0x3db1ca95	0.086812176
45	0x3d3afda0	0.045652032
46	0xbbc9cdfe	-0.0061585894
47	0xbcfe772b	-0.031062683
48	0x3d997f5d	0.07494996
49	0xbd88d4b7	-0.06681197
50	0xbc83d1ac	-0.01609119
51	0xbd0e0958	-0.03467688
52	0x3c6778ad	0.014127892
53	0xbbea7de9	-0.007156123
54	0xbd3f87b6	-0.046760283
55	0xbc9c0b00	-0.019048214
56	0xbc67368c	-0.014112126
57	0x3cc0edfc	0.02355098
58	0xbcae2798	-0.021259114
59	0x3db119b4	0.086474806
60	0xbdb205e1	-0.086925276
61	0x3d3033b1	0.043018047
62	0xbcd3ef01	-0.025870802
63	0x3d862b66	0.06551246
64	0xbd9f412d	-0.07776103
65	0x3cfeb744	0.031093247
66	0xbca8b334	-0.020593263
67	0x3d688daa	0.056775726
68	0x3d851d30	0.06499708
69	0x3d9a30c3	0.07528832
70	0x3baff7d4	0.0053701196
71	0xbc2e098e	-0.010622395
72	0xbc71ffc8	-0.014770456
73	0xbd14ac05	-0.036296863
74	0x3cf5caee	0.030003991
75	0x3d8b99bf	0.06816434
76	0xbd8d347a	-0.06894775
77	0xbcacbb90	-0.02108553
78	0x3b58eebb	0.0033101279
79	0x3d491790	0.049094737
80	0x3dba87b1	0.09107912
81	0xbdbb1673	-0.09135141
82	0xbc570399	-0.013123416
83	0xbd8bb0ce	-0.06820832
84	0x3ce8907d	0.02838921
85	0x3d303472	0.043018766
86	0xbda4265f	-0.08015131
87	0x3a75dd9f	0.00093790324
88	0xbd7fadf1	-0.062421743
89	0xbd057965	-0.032586474
90	0x3cead0b7	0.028663976
91	0x3bafe164	0.005367445
92	0x3d9f617c	0.077822655
93	0xbd724f23	-0.059157502
94	0x3d15fa98	0.036615938
95	0x3c0c7628	0.0085730925
96	0xbcf2c305	-0.029634008
97	0x3d9348f4	0.07191649
98	0xbd476110	-0.04867655
99	0xbd8b1110	-0.06790364
100	0x3cbd0ab7	0.023076398
101	0xbd2827af	-0.04105347
102	0xbda7e6f6	-0.08198349
103	0x3d91ef9f	0.07125782
104	0xbc57c991	-0.013170616
105	0xbceb83d9	-0.028749393
106	0xbda0a18d	-0.07843313
107	0xbc4bd9fe	-0.01244211
108	0xbcd62be5	-0.026143977
109	0xbdd3cfc3	-0.10342362
110	0x3a7a697d	0.0009552462
111	0xbd9544af	-0.07288491
112	0xbd676cbc	-0.05650018
113	0x39b6f421	0.00034895635
114	0x3d9a98de	0.07548688
115	0xbce04c2f	-0.027380077
116	0x3d862251	0.06549514
117	0xbd27bc39	-0.040950987
118	0x3d98b87a	0.07457061
119	0xbc87daf5	-0.016583899
120	0x3daae0a3	0.08343627
121	0x3c8e6f7a	0.01738714
122	0xbd2e64ae	-0.042576484
123	0xbd285f7d	-0.04110669
124	0x3c780b10	0.015139356
125	0xbdac2461	-0.08405376
126	0x3d6d798d	0.057977248
127	0xbdb344a0	-0.087533236
128	0xbd4ee783	-0.050513756
129	0xbd3e47bb	-0.046455126
130	0xbc8d5ab5	-0.017255167
131	0xbcd38bf4	-0.02582357
132	0xbd4e6a77	-0.0503945
133	0x3d8ea8b0	0.06965768
134	0xbd949d6a	-0.07256587
135	0xbd127622	-0.03575719
136	0x3b80b331	0.0039276113
137	0x3d848601	0.06470872
138	0xbd6c24d7	-0.05765232
139	0xba942558	-0.0011302633
140	0x3d308cae	0.043102913
141	0xbdb192e1	-0.08670593
142	0x3da2cd0a	0.07949264
143	0xbd767219	-0.060167406
144	0xbd553ceb	-0.05206005
145	0xbd57dd1a	-0.052701093
146	0x3d2fefa5	0.042953152
147	0x3c7e1e54	0.0155101605
148	0xbc4afa0d	-0.012388718
149	0x3d16a0df	0.036774512
150	0x3d9a08d0	0.07521212
151	0xbce40f5b	-0.027839353
152	0xbb70c694	-0.0036739456
153	0xbca1916f	-0.019722668
154	0x3bee564c	0.007273471
155	0xbd04d3bb	-0.032428484
156	0xbd2b3f10	-0.041808188
157	0xbb010ac0	-0.0019690245
158	0xbdbb8087	-0.09155374
159	0x3c9d1e76	0.019179564
160	0x3d0026d0	0.031287014
161	0xbd9e9d90	-0.077448964
162	0x3d47126a	0.048601545
163	0x3d56e799	0.052466962
164	0xbcdcb815	-0.026943246
165	0x3d9298ba	0.071580365
166	0x3d2ab74f	0.041678723
167	0x3caf0120	0.021362841
168	0x3c7655e0	0.015035123
169	0xbd5fedf7	-0.0546703
170	0xbdbcaeab	-0.09213003
171	0xbe39eee2	-0.18157533
172	0xbd8a149a	-0.06742211
173	0x3cec4da8	0.028845623
174	0x3d2aea32	0.041727252
175	0xbc880b63	-0.016606992
176	0xbd3266d9	-0.043555114
177	0xbd2a364e	-0.041555695
178	0x3be807b0	0.0070809945
179	0x3dbc4cc1	0.09194327
180	0xbd5f6b3a	-0.05454562
181	0x3cb26389	0.021775978
182	0xbd18e82f	-0.037330803
183	0xbd9c07c2	-0.07618667
184	0xbca25eab	-0.019820532
185	0x3b225a73	0.002477315
186	0x3d494e60	0.04914701
187	0xbd5b7a68	-0.053583533
188	0xbba15cee	-0.004924408
189	0x3d1a44eb	0.03766338
190	0x3e1f9150	0.15582776
191	0xbda755f9	-0.08170695
192	0x3e1004a4	0.1406427
193	0xbd572667	-0.052526858
194	0xbcbbb483	-0.022913223
195	0x3cd99d83	0.026564365
196	0xbd50f35c	-0.051013336
197	0x3d1e1fa9	0.038604412
198	0x3c8c704b	0.01714339
199	0x3cabe600	0.020983696
200	0xbda3bd4e	-0.079950914
201	0xbd9dc442	-0.07703449
202	0x3b58eb1e	0.0033099125
203	0xbd39a0f6	-0.04531952
204	0xbd82cf9c	-0.063872546
205	0x3d6a2462	0.057163604
206	0xbd8a953e	-0.06766747
207	0x3d4eac22	0.050457127
208	0x3e751e20	0.23937273
209	0xbbda43cd	-0.0066609145
210	0xbd75649f	-0.059910413
211	0xbd69fb3e	-0.05712437
212	0xbd96c62d	-0.07362018
213	0xbd96d23f	-0.0736432
214	0xbcbe6c84	-0.023245104
215	0x3d7f6838	0.06235525
216	0xbdbef4f2	-0.09324063
217	0xbdaccf8e	-0.084380254
218	0x3d3a691b	0.045510393
219	0xbbbd8dc1	-0.0057847206
220	0x3cf4da31	0.029889198
221	0xbccac25b	-0.024750879
222	0x3d062f8b	0.032760184
223	0x3cb6aaec	0.022298299
224	0x3d41891c	0.0472499
225	0xbbb62ffc	-0.0055599194
226	0x3dadf96c	0.08494839
227	0x3d9a2c4e	0.07527982
228	0xbb1def44	-0.0024098912
229	0xbda42340	-0.08014536
230	0x3d89066d	0.06690679
231	0xbd375250	-0.044756234
232	0xbc9d4835	-0.01919947
233	0xbd560417	-0.052249994
234	0xbd9a577b	-0.07536217
235	0x3e67ab8a	0.2262403
236	0x3d517232	0.051134296
237	0xbb41ee55	-0.002959152
238	0x3d78ce89	0.060743842
239	0xbca189ca	-0.019719023
240	0x3d11a875	0.035561044
241	0x3cbda0ca	0.02314796
242	0xbd878a8b	-0.06618222
243	0x3d8637b8	0.06553596
244	0x3d7dc346	0.061953805
245	0xbdf56b2e	-0.119833335
246	0xbd5f5dc3	-0.054532778
247	0x3d25133d	0.04030155
248	0xbd5bb877	-0.053642716
249	0xba038d91	-0.00050183485
250	0xbd3e1d49	-0.046414647
251	0xbd662a36	-0.0561926
252	0x3d043dd2	0.03228552
253	0xbcdff1cc	-0.027336977
254	0x3ba46960	0.0050174445
255	0x3da2b6d4	0.07945028

hnn.fc.3.bias f4 [64]
0	0xbdab2bc0	-0.08357954
1	0x3d7cd7dc	0.061729297
2	0x3d9f2be3	0.077720426
3	0x3c7384f8	0.014863245
4	0x3d9353a2	0.07193686
5	0xbce33686	-0.02773596
6	0x3d1bdb20	0.03805077
7	0xbd5499cd	-0.05190449
8	0x3c6023f1	0.013680444
9	0xbd8035c5	-0.06260256
10	0xbd65cec5	-0.056105394
11	0x3d682237	0.056673255
12	0xbd877afc	-0.06615254
13	0xbcd32e48	-0.025778905
14	0xbda8b052	-0.082367554
15	0xbcfef2a7	-0.031121565
16	0xbd794508	-0.06085685
17	0xbd042de2	-0.03227032
18	0xbcc70d3a	-0.0242983
19	0x3b160b74	0.002289501
20	0xbd51d34e	-0.051226906
21	0xbd6cfde7	-0.057859328
22	0x3d7f9934	0.062401965
23	0xbbad00d4	-0.0052796397
24	0xbd965c0e	-0.07341777
25	0x3bd0865f	0.0063636745
26	0x3cd7f9b8	0.026364192
27	0xbc92e05e	-0.017929252
28	0xbc159f12	-0.009132164
29	0xbd64b376	-0.05583521
30	0x3d8d144a	0.068886355
31	0xbd01f800	-0.03173065
32	0x3d755a37	0.05990049
33	0x3ceea373	0.029130673
34	0xbdc64a02	-0.096820846
35	0x3c676745	0.0141237425
36	0x3d7f5837	0.062339988
37	0x3d0ce2f5	0.03439613
38	0x3d458a19	0.048227403
39	0xbd28bb19	-0.041194055
40	0xbdcc8386	-0.099860236
41	0xbcac5a4b	-0.021039149
42	0xbd143820	-0.036186337
43	0x3d2f0b5d	0.042735446
44	0xbd34aad8	-0.04410824
45	0xbd17730c	-0.03697495
46	0xbd0b50f8	-0.034012765
47	0xbd98ad02	-0.074548736
48	0x3d6a2506	0.057164215
49	0xbd3283a3	-0.04358257
50	0xbcc9feb3	-0.024657583
51	0xbcd9a1eb	-0.026566466
52	0x3c5a232f	0.0133140525
53	0x3d730ae7	0.05933657
54	0xbd25b91b	-0.040459733
55	0x3d91056e	0.07081114
56	0x3dce8fe5	0.100860395
57	0xbdb6cb85	-0.08925537
58	0x3d753b45	0.059870977
59	0xbb71a9a4	-0.0036874795
60	0xbd5f3d73	-0.054501962
61	0x3da68afa	0.081319764
62	0xbd4d412a	-0.050110973
63	0xbd5c6e27	-0.053815987
