Proposed/BestModel/Chua.pth (torch, 177054 bytes, 17 tensors)

q_mlp.0.weight f4 [128, 180]
000000 9e 4f 02 bb b8 4a 74 ba ea e3 94 bd f6 a4 5d bd
       -0.0019883881 -0.0009318995 -0.07270034 -0.054112397
000010 0e a5 aa bd 0d 08 a5 bd 20 2e 80 3d 3d 5c 53 3d
       -0.08332263 -0.08058176 0.06258798 0.051601637
000020 f2 18 bd 3b 5a 06 75 3d 97 f7 17 bd c0 15 5f bd
       0.005770796 0.05982051 -0.037101354 -0.0544641
000030 72 97 57 3d e1 56 68 bc 83 67 0d 3b 16 be 07 3d
       0.052634664 -0.01418087 0.002157659 0.033140264
000040 07 e3 ec 3c a1 1a 60 bd 26 e0 22 bd a6 5c a2 bd
       0.028916849 -0.054712895 -0.039764546 -0.079278275
000050 ae e9 0f bc 56 56 1a bd 3d 8f b0 3b 98 5e 0d bc
       -0.008783741 -0.037679993 0.005388169 -0.00862851
000060 86 4e 57 3d cc d1 8d bb 40 b6 ce 3c 04 15 4d 3c
       0.05256512 -0.0043279883 0.025233388 0.012517218
000070 e4 52 62 3d f6 a1 30 bd 21 bf 51 3d 3c e9 2d 3d
       0.055254832 -0.043123208 0.051207665 0.042458758
000080 38 9f 2b bd 78 db 0d 3d 21 ac 6c 3d 01 6d 5e bd
       -0.04189989 0.03463313 0.057781342 -0.054303173
000090 58 7c 24 bd 4d c7 22 3d e1 5a 44 3d ac 04 0c 3c
       -0.040157646 0.03974085 0.04793823 0.008546036
0000a0 d4 bb 3c 3c 82 53 30 3d 8b e3 5d 3d ff 22 70 bd
       0.011519391 0.04304839 0.05417208 -0.058627125
0000b0 f9 56 2f bd 55 3d 53 3d 23 c2 ea 3c 0d f2 40 bd
       -0.042807553 0.051572163 0.028657025 -0.047105838
0000c0 ea 8c 15 bd 6a 4d 78 3d 10 d3 70 bd 98 46 16 3d
       -0.03651134 0.060620703 -0.058795035 0.036688417
0000d0 18 be 00 3d 3a 25 ab bd 21 85 af bd a6 09 52 3c
       0.031431288 -0.0835671 -0.08570314 0.012819683
0000e0 c1 df c8 3c 4f 2b 60 3d 21 f0 39 bb 45 ee 1d 3d
       0.024520757 0.054728802 -0.0028371888 0.03855731
0000f0 13 cb 83 bd cb 97 04 3d 17 8d ab bd 18 17 18 3d
       -0.06435218 0.032371324 -0.0837652 0.0371314
000100 18 5f 87 bb 0c d0 0b 3d 12 42 93 3c 16 cb 82 bd
       -0.004131209 0.034133956 0.01797584 -0.06386392
000110 7e 65 35 bc 68 79 08 bb d1 95 da ba 8e c5 9d bd
       -0.011071561 -0.0020824317 -0.0016676729 -0.07703696
000120 7e 88 49 bd bb da 42 bd 5e df 55 bd 8e 75 54 3d
       -0.049202435 -0.04757188 -0.052214973 0.05186992
000130 2c b4 f2 3c 73 40 9c 3c 1d 34 0b bd e6 aa 95 bd
       0.029626928 0.0190737 -0.033985246 -0.07307987
000140 c5 0a 8e 3b bc 39 6a 3d a6 f6 a7 3c 32 a5 92 bd
       0.00433478 0.057183966 0.020503353 -0.07160415
000150 74 31 96 bc c6 ef 1e bc ac 61 13 3d 11 8b a1 3c
       -0.018334128 -0.009700721 0.03598182 0.019719632
000160 c1 d3 85 bd e8 e8 a6 bd 4e 20 29 3c 5e f7 c0 3c
       -0.065345295 -0.08149892 0.010322643 0.023555454
000170 49 b2 01 3d 46 a0 21 3d 0c 24 59 3d 2f 50 2c bd
       0.031664167 0.03945949 0.053012893 -0.042068657
000180 a7 d3 ac bd f9 3a c1 3c 51 2d 7a 3d 79 9d 87 bd
       -0.08438807 0.02358769 0.061078373 -0.066218324
000190 5f b8 4e bd 34 ae 59 3d 0b 70 3d 3d 0d b1 a4 bc
       -0.0504688 0.05314465 0.04624943 -0.020103956
0001a0 e5 59 59 bd 45 bc d9 3a 37 21 b0 bd 1d 07 23 bd
       -0.053064246 0.0016611895 -0.08600085 -0.039801706
0001b0 70 a6 b1 bc b3 25 fc bc 5f 15 a8 3c 8d 04 2c bc
       -0.021685809 -0.030779695 0.020518003 -0.010499132
0001c0 0f f3 92 bd 67 fc 8d bc 1a fb a9 bb ba 5e 09 3d
       -0.07175266 -0.017332269 -0.0051874043 0.033537604
0001d0 a1 ee b8 bb e2 35 1c bd cf 04 83 3c 15 44 ca 3c
       -0.005643681 -0.038137324 0.015993504 0.024690667
0001e0 4d d5 00 3b 8e 51 59 bd f9 4b 2f 3c 88 6e cc ba
       0.0019658387 -0.053056292 0.010699266 -0.0015596906
0001f0 c3 10 ec 3c 03 c0 f2 bc ef fe 8b bc 3a 08 d4 3c
       0.028816586 -0.029632574 -0.017089335 0.025882829
000200 db 64 9b bc d8 0b da 3c 65 88 cc bc db d5 67 3d
       -0.01896899 0.026616976 -0.024967382 0.056600433
000210 3f 1c 53 bc a6 08 eb bc 3a ce 8c 3c 92 08 84 bc
       -0.012885152 -0.028690647 0.01718818 -0.016117368
000220 73 64 3f 3d 5e e2 9a bc d4 90 1a 3d f6 ce 03 bd
       0.046726655 -0.018906768 0.037735775 -0.032179795
000230 c3 bf dd ba 43 cd 40 3c ea 9e a9 bd 27 f0 ce 3b
       -0.0016918111 0.011767688 -0.082822636 0.0063152495
000240 fd 2c e6 3c 9c fb 87 3c ba 77 c4 bb e4 2b a5 bc
       0.028097624 0.016599469 -0.005995718 -0.02016253
000250 86 f7 2e 3c 3d e6 74 3c e9 3c 46 bd ae 11 86 3c
       0.010679131 0.014947471 -0.048397932 0.016365852
000260 44 e9 91 bd ba 1a 1d bc a5 de 1c bd b7 4e 1d bd
       -0.0712457 -0.009588892 -0.038298268 -0.038405146
000270 4e 7e 95 bd 0b 55 3c 3d 95 75 28 b9 06 ef f3 bb
       -0.07299481 0.04597954 -0.00016065531 -0.0074442653
000280 1d af c2 bc ed a1 1a bd 71 cf 8f bd 95 95 e1 3a
       -0.023765141 -0.03775208 -0.07021988 0.0017210717
000290 84 bb 84 bd ba 55 36 bd 3c 54 cd 3c 10 d7 64 3d
       -0.06481078 -0.04451535 0.02506458 0.055869162
0002a0 6a 5b 15 bd df 9e af bd 56 4e 88 3d f6 cc e2 3c
       -0.036464132 -0.08575224 0.066555664 0.027685624
0002b0 05 2b 2a 3d 11 16 a2 bc 75 bb e5 bc 99 9f 9f bb
       0.041544933 -0.019785913 -0.028043488 -0.0048713204
0002c0 c3 a5 47 3c 9e 9a 30 bc 7e e4 4f bd 00 66 78 3d
       0.012185517 -0.010779051 -0.050755017 0.06064415
0002d0 61 30 36 3d f1 53 1d 3c 91 dc 54 bd dd cc cb bc
       0.04447973 0.009602533 -0.05196816 -0.02487796
0002e0 d3 2a 4e bc 66 1f 9a bb e1 b4 04 3d 20 7f 89 3a
       -0.012583452 -0.00470345 0.032399062 0.0010490157
0002f0 80 90 08 3d 1e a2 16 bd 25 1e 33 bb fd 2e 28 3d
       0.03334093 -0.0367757 -0.00273312 0.041060437
000300 63 50 ad 3d 2c 21 4a bd d9 ea 74 3c fe c3 4e 3d
       0.08462598 -0.04934804 0.01494857 0.05047988
000310 86 f2 b6 3b ab df c7 3c 50 86 6a 3d e7 b7 77 bd
       0.0055831103 0.024398645 0.057256997 -0.060478117
000320 18 f1 50 3d 23 ff 66 bd 33 ee df 3c 97 5a 54 3d
       0.051011175 -0.05639566 0.027335262 0.051844206
000330 ac 67 c6 bc 9a 7b 65 3c 80 09 85 bd 50 12 90 3b
       -0.024219356 0.01400652 -0.064959526 0.0043967143
000340 16 c0 61 3d 5d b4 32 3d 49 6f e6 3c 61 97 db 3b
       0.055114828 0.04362904 0.028129237 0.0067013954
000350 5f e4 c5 bc eb 1e 8b 3d 2a 25 0d 3d 31 79 06 3d
       -0.024156747 0.067930065 0.03445927 0.03283042
000360 33 d0 2e 3d d1 ad 14 bc e7 0d 17 3a 5c ff 9a 3d
       0.042679023 -0.009074644 0.00057622645 0.07568237
000370 9b 19 a0 3d f4 b6 8a bd 6d 47 73 bd 1e 57 2d bc
       0.07817384 -0.06773177 -0.05939429 -0.010579852
000380 df a0 cd 3c 0f 88 13 bd ed c7 40 3d a1 0d 78 bd
       0.025101123 -0.036018427 0.047065664 -0.060559873
000390 d2 8a f0 bb 94 0f 6b 3d f1 d0 4e bc 46 0f 9a bc
       -0.0073407674 0.057387903 -0.012623058 -0.018806111
0003a0 a3 ce c9 3c 70 52 82 3d 43 6a 7e 3c a2 3f 19 3c
       0.024634665 0.0636338 0.015528264 0.00935355
0003b0 b4 97 9f 3b 6a e9 86 bd 8e db bc bc 89 41 a6 3d
       0.0048703793 -0.06587489 -0.02305391 0.081179686
0003c0 85 da 5d bd db f4 25 3d 3a e6 98 bc 0d 7c 9e 3c
       -0.054163475 0.040516715 -0.018664468 0.019346261
0003d0 7e 8e 18 3d 7b d3 76 3d 21 27 5c bd ec f1 d6 bb
       0.037245266 0.060260277 -0.053748254 -0.006559601
0003e0 72 9f 2f bd ae c6 c6 3b 7f 0a 0a bd 71 ef 80 3c
       -0.04287667 0.006066165 -0.033701416 0.015739175
0003f0 09 99 93 bd ae 1b 88 bc 3c b5 5a bd d8 7a 9a bd
       -0.072069235 -0.016614761 -0.053395495 -0.07542962

q_mlp.0.bias f4 [128]
000000 c8 e6 6d bd 3a 7e 71 3c 58 bd a9 3c 3d 87 21 bd
       -0.05808142 0.014739567 0.020720169 -0.039435614
000010 c8 05 62 bd cf 45 20 3c 00 b5 8d bc 1d a5 3b 3d
       -0.055181295 0.009782269 -0.017298222 0.04581176
000020 a6 e5 0d 3d 5e 37 8f bd 4c 31 33 3d 9f f5 38 bc
       0.034642838 -0.06992982 0.043748185 -0.011289029
000030 fa 0f df 3c 19 15 4b bd e7 14 30 bc 2a a9 ac bd
       0.027229298 -0.049580667 -0.010747171 -0.08430703
000040 4f ac e4 bc 15 96 64 bc f3 56 89 bd b2 4e 6b bc
       -0.027914194 -0.013951798 -0.06706037 -0.014362024
000050 4a ce 72 ba c4 d4 25 bd 8a 13 ea 3c 43 8c 3b bd
       -0.0009262307 -0.040486112 0.02857377 -0.04578806
000060 08 d9 74 bd 88 6d 30 bb 92 87 ed bc 78 0d 00 3d
       -0.05977729 -0.0026920754 -0.028995309 0.031262845
000070 9d 6e 8f bd 81 12 6e bd a6 5e 88 bd 9c d2 fa 3c
       -0.0700352 -0.058123115 -0.06658678 0.030618005
000080 3e 34 0c 3d 4b 01 d4 3c 0e 7a 07 3d 69 0b 31 bd
       0.03422951 0.025879523 0.033075385 -0.043223772
000090 56 0d 6e 3d 2b 57 60 bd 81 29 0a 3d 55 1d eb 3c
       0.058118187 -0.05477063 0.033730987 0.02870051
0000a0 2b f4 a9 3c 14 9c bd bc d7 c0 83 bd 25 b1 5e bb
       0.020746311 -0.023145713 -0.06433266 -0.0033980098
0000b0 56 57 b4 bb a7 fb 8e 3d 8b 40 32 3d fc ad eb 3c
       -0.0055035753 0.069815926 0.043518584 0.028769486
0000c0 80 ab 0c bd c2 aa 36 bd 49 d3 06 3d c6 4b 16 bd
       -0.034343243 -0.04459644 0.03291634 -0.036693357
0000d0 3f 54 9f bc e6 51 a8 bd d7 be 03 3d b9 af 0a 3d
       -0.019449351 -0.08218746 0.03216442 0.03385899
0000e0 71 2f 1e 3d 5c 6a f2 3c ae 58 65 bd b8 ca ca 3c
       0.038619462 0.029591732 -0.055992775 0.024754867
0000f0 5c d6 47 bc 77 2b 64 3c f0 e5 84 3c 45 34 d8 bc
       -0.012197103 0.013926378 0.016222924 -0.026392112
000100 13 b2 b8 3c 40 1c 3f 3d 57 3c 1e 3d 8c 95 b9 3c
       0.02254585 0.0466578 0.038631763 0.022654317
000110 91 fd 0d bd 50 23 83 bd c5 1a 6e 3d a7 e2 be 3c
       -0.034665648 -0.0640322 0.058131 0.023301436
000120 97 63 02 3d 1e b7 95 bd ff d1 06 3d 4b 24 0e bd
       0.031833258 -0.073103175 0.03291511 -0.03470258
000130 4d 7a 14 bd f7 4f a0 3c b1 b1 ac bc 25 a4 5a 3d
       -0.036249448 0.01956938 -0.021080824 0.053379197
000140 09 a4 46 bc 35 a3 63 3d 82 3e df 3c a5 f7 86 bd
       -0.01212407 0.05557557 0.027251486 -0.06590203
000150 b3 3a b6 bd b5 6c 42 3d af 48 e2 bc 9c a7 91 3c
       -0.08897915 0.047466952 -0.027622549 0.017780118
000160 77 10 32 bd bf d2 7c bd d3 5b 01 3d 0a 88 e4 3a
       -0.043472733 -0.06172442 0.03158171 0.0017435562
000170 6b f1 51 bd 54 69 f3 3c 96 da a8 3c 3d d3 ae 3c
       -0.051255625 0.02971331 0.020612042 0.02134096
000180 11 98 02 3d a7 a6 0e 3d 63 96 dd 3c b8 f5 03 bd
       0.031883303 0.0348269 0.027049249 -0.032216758
000190 53 af b6 bd d8 21 10 bd dc 80 1a 3d 13 3f 46 3d
       -0.08920159 -0.035188526 0.037720546 0.048399996
0001a0 3d 02 40 3d 3d 47 1c bd b2 92 5f bd b1 c9 92 bd
       0.046877135 -0.038153876 -0.05458326 -0.07167376
0001b0 f2 b8 75 bd d2 e4 82 bc 4f 68 55 bd d0 9c 1d 3d
       -0.05999083 -0.01597825 -0.05210143 0.038479626
0001c0 7d 25 ea 3c 40 4c 2f bd 0d 95 db 3c 0a e5 ab bc
       0.028582329 -0.042797327 0.026804471 -0.020983238
0001d0 78 59 82 bd 31 28 5b bd 41 08 90 bd ef 30 6b bd
       -0.06364721 -0.053505126 -0.07032824 -0.057419714
0001e0 6f 52 93 bd 44 eb ef 3c 8d 9e a1 bc a3 42 30 bd
       -0.07193457 0.029286988 -0.019728923 -0.0430323
0001f0 e7 56 06 3d 48 dd ca 3c 7c 32 74 3d 25 77 88 bd
       0.03279772 0.024763718 0.05961846 -0.0666335

q_mlp.3.weight f4 [64, 128]
000000 84 55 8c 3d d8 fc 42 bd b4 d0 2e bd 54 ab b4 bd
       0.06852248 -0.04760441 -0.042679504 -0.08821741
000010 10 97 b5 bd ae a6 6f 3c ab af 81 3d f2 3b 04 be
       -0.088667035 0.014627142 0.06332334 -0.12913492
000020 2b da 4e bd 6b 1c d0 3c bd bd 95 bb 4e 71 0e bc
       -0.05050103 0.025404176 -0.0045697377 -0.008694006
000030 0b 0c 28 bd 22 71 ef 3c af e3 8e bc df 88 46 3d
       -0.04102711 0.02922875 -0.017442552 0.048470374
000040 9e bd a7 3d 15 6e 8c bc 36 61 8e 3d 98 4c 14 bd
       0.081904635 -0.017142335 0.06952135 -0.036205858
000050 c5 f1 2c bc cd f1 81 bb 6c 36 a7 bd d1 b9 a6 bd
       -0.010555689 -0.0039655925 -0.08164677 -0.081409104
000060 db 07 4f 3d 14 bf 93 3d 90 67 19 bc f6 ba 23 3c
       0.0505446 0.0721418 -0.00936307 0.009993305
000070 a4 1d 79 3d 14 c4 9b bd db 2a 9c bd 16 71 7b 3b
       0.060819283 -0.07605758 -0.076253615 0.0038366965
000080 3c 84 b8 bc 21 f2 9f bd a7 2b 23 bd d5 bc 60 3c
       -0.022523992 -0.07809854 -0.039836552 0.013716896
000090 7e 96 b2 bd 8f 9c b1 bd 29 fa e1 bd b3 aa 5b bd
       -0.0872011 -0.08672439 -0.110340424 -0.05362959
0000a0 b3 ae 19 be 42 92 7f bd 8e 18 49 3c 28 4a 06 bd
       -0.15008049 -0.06239534 0.012273921 -0.032785565
0000b0 c1 16 cb 3c ac 6f e3 bd e2 93 75 3a 37 f3 cd ba
       0.024791123 -0.11105284 0.00093680446 -0.0015712742
0000c0 59 8d 8e 3d ec 42 b3 bd ad 09 0c 3d d0 1f 9f 3b
       0.06960554 -0.08752999 0.034188915 0.0048560873
0000d0 29 00 89 bd f1 9a 76 bd 93 1d 9c 3c e4 21 ec 3c
       -0.06689484 -0.060206357 0.01905707 0.028824754
0000e0 6f 19 93 3d 53 9b 88 bd 31 7a 9e 3d 61 58 ca bc
       0.071825854 -0.06670251 0.0773815 -0.024700345
0000f0 e4 e5 ed bc 2a a2 cf bc 0b 69 a2 bd 22 10 87 3d
       -0.029040284 -0.02534588 -0.079301916 0.06594874
000100 e5 14 60 bd 28 ce be 3c 10 74 d5 3c 21 d4 03 bd
       -0.054707427 0.023291662 0.02605632 -0.032184724
000110 f1 23 d0 3c 93 e9 1d bd 87 1d 4d bd ed 18 e2 bc
       0.025407763 -0.03855283 -0.050076988 -0.027599776
000120 39 30 64 bd f7 46 ac bd 5f dd 8a bd 13 e2 b3 bd
       -0.05571005 -0.08411973 -0.067805044 -0.087833546
000130 b8 37 85 bd ca 21 be bd af 28 e5 bb 0a 45 cf bc
       -0.06504768 -0.092837885 -0.0069933753 -0.025301475
000140 75 48 e7 3b 74 95 8a 3c 43 c2 a7 3c 1b d1 c3 bc
       0.007058198 0.016916968 0.020478373 -0.02390342
000150 e6 a4 49 bc 83 fd ca bd b5 86 90 3d 97 8d ff bc
       -0.012307381 -0.09911635 0.07056943 -0.031195445
000160 2a 72 74 3d a6 cb 0c 3d 5e 0d 03 3d 0b ca 19 3c
       0.059679188 0.0343739 0.03199517 0.00938655
000170 92 33 a0 3d 7a 2a 37 3b 7a ae 62 3d f5 c5 03 3b
       0.07822336 0.0027948902 0.055342175 0.0020107005
000180 c5 1c 51 bd 02 37 69 3b 62 be 07 3d 17 f1 ff 3b
       -0.051052827 0.0035585766 0.033140548 0.0078107226
000190 3d c0 0a 3d 63 7b 05 bd f9 77 77 bc c1 6b 2a bd
       0.03387474 -0.032588374 -0.015104287 -0.04160667
0001a0 d1 3f e6 3a 0a 55 6d 3d 77 af 6d bd ca 86 29 3d
       0.0017566626 0.057942428 -0.058028664 0.04138831
0001b0 18 2f 93 3c 78 ad a4 bd af d8 e5 bd db 83 5c bc
       0.017966792 -0.08040899 -0.1122297 -0.013459171
0001c0 d4 87 5e bd de be 9a bd e2 50 5e 3d a5 57 86 3d
       -0.054328755 -0.07555936 0.054276355 0.065596856
0001d0 44 b0 05 3d 67 33 d8 bb 0a d0 b1 3d 11 fb 83 3d
       0.032638803 -0.0065979245 0.086822584 0.064443715
0001e0 75 57 63 bd 2b 31 b6 bb e4 43 a9 bd 3f 65 03 3c
       -0.055503327 -0.0055600605 -0.08264902 0.008019744
0001f0 08 6e bf ba 98 5a c2 bc 02 09 60 bd 55 8e 97 bd
       -0.0014604935 -0.02372484 -0.05469609 -0.074001946
000200 c3 90 b5 3c f6 99 2e 3d cd 4e a7 3c 3a cc 12 3d
       0.022163754 0.042627297 0.020423317 0.035839297
000210 78 bf 66 bd 10 a4 38 be 1b 56 92 bd f6 72 80 3d
       -0.056334943 -0.18031335 -0.071453296 0.06271927
000220 78 29 c9 bd 40 e2 c9 3d 31 d7 9d 3c 4e 27 c7 bc
       -0.09822363 0.09857607 0.01926765 -0.024310734
000230 56 71 fe bd bd 6d f3 3c 24 15 9a 3d e2 22 59 bd
       -0.12423961 0.029715413 0.075235635 -0.053011782
000240 b0 41 70 bd 3a ef c1 bc dc a5 8c 3d 66 1c 93 3d
       -0.058656394 -0.023673642 0.06867573 0.07183151
000250 f7 76 80 bd ae 42 9d bd 51 82 bc bb dd 70 58 3d
       -0.06272691 -0.07678734 -0.0057528396 0.05284201
000260 ee 98 3f bd 03 d9 cc bd ae bb 27 bc 94 10 2f 3c
       -0.046776704 -0.10002329 -0.010237617 0.010685105
000270 61 a8 88 bd 10 e4 8c bc f5 a1 a5 bd 30 16 9a 3c
       -0.06672741 -0.017198592 -0.080875315 0.018809408
000280 68 f5 a4 bd 3e ae fc 3a 2f 05 50 3d 6e 7d 79 3d
       -0.0805462 0.0019278002 0.050786193 0.060910635
000290 d3 8e 77 bd 3b 39 cd bd 99 d8 6e 3d 6b ac ab bd
       -0.060438942 -0.100206815 0.058312032 -0.083824955
0002a0 2a 27 c0 3c 7c f5 ab 3c 09 9e ad 3d 91 62 80 bc
       0.023456175 0.02099108 0.084774084 -0.015672
0002b0 ba 51 c8 bd b7 e1 7d 3d 46 f9 bf 3c 47 ac a7 bd
       -0.09781213 0.061982837 0.023434293 -0.08187156
0002c0 57 21 9e 3d 5e 69 3c 3d a9 6f a0 3c 61 6f 7f bd
       0.07721203 0.045998923 0.019584494 -0.06236208
0002d0 da 61 de bd 9b 6b e3 bc d3 1f 4f bd 62 58 9a bd
       -0.108585075 -0.027761271 -0.05056746 -0.07536389
0002e0 6e 07 c5 3c 64 98 42 bc 78 03 90 bc 96 b6 06 3d
       0.024051394 -0.011877153 -0.017579779 0.03288897
0002f0 86 7e 0c 3d 5f d1 11 bd c3 66 2a bd be f2 1f 3d
       0.03430035 -0.035600062 -0.041601907 0.039049856
000300 40 35 62 bd 10 fa 22 3d e0 83 cd bd 20 63 d8 3d
       -0.055226564 0.03978926 -0.10034919 0.105657816
000310 7b 76 c9 bc ba 0c bd 3d 10 a6 3c ba fd 89 37 bd
       -0.024592629 0.09230943 -0.0007196376 -0.04480933
000320 c6 e8 01 3d ac 35 8e 3d 32 23 85 3c d8 52 4e 3d
       0.03171613 0.06943831 0.016252134 0.050371975
000330 2d a8 fc bc ec 83 6e 3d 0a b9 00 bc c5 95 a5 bd
       -0.030841911 0.05823128 -0.007856617 -0.08085207
000340 1f 79 6b bd dc 50 ca 3c fe f5 83 bd f0 60 40 be
       -0.057488557 0.02469676 -0.06443404 -0.18786979
000350 29 00 85 bd 12 57 ed 3c 77 bc 3f bc 20 60 d2 3d
       -0.06494171 0.028972182 -0.011702648 0.10272241
000360 98 9d 74 3c 96 f3 99 bc d3 2b 4c bd 80 02 61 bd
       0.014930151 -0.018792909 -0.04984648 -0.054934025
000370 29 eb 56 3d ee 3b b8 bd 71 35 57 3d 18 2f 3b bd
       0.05247036 -0.08995806 0.0525412 -0.04569921
000380 3f 1d 13 bd c3 a8 08 bd e6 a0 72 3d b3 c5 41 bc
       -0.035916563 -0.03336407 0.059235476 -0.01182692
000390 21 92 b8 bd ce da 2e 3d a4 ca 07 3d bd 26 c2 3d
       -0.09012247 0.042689137 0.033152238 0.09480045
0003a0 36 f6 5e 3d 1d 89 1f 3d 2a af 2e be ba d0 ec bc
       0.054434024 0.03894912 -0.17059007 -0.028908122
0003b0 2a cc 1b 3d 4b 42 98 3d 9f ed da 3d b4 65 89 bd
       0.038036503 0.074345194 0.10689854 -0.067088515
0003c0 03 c7 8c 3d d3 12 b8 3d 4b 72 23 3d 66 9e 9f bd
       0.06873896 0.089879654 0.03990392 -0.07793884
0003d0 79 e9 3f 3d ff 3d 32 3d 01 30 bd 3c cc 14 27 3d
       0.046853516 0.043516155 0.02309418 0.040791318
0003e0 29 66 81 bc 03 17 82 bc 76 a0 a8 bc 0f 73 90 bd
       -0.015795784 -0.015880113 -0.020584326 -0.07053196
0003f0 c4 d7 a0 3d ad 06 f0 3d c7 bf 8e 3b d4 33 8d bc
       0.07853654 0.11720023 0.0043563577 -0.017236628

q_mlp.3.bias f4 [64]
000000 ec f8 03 be b5 97 8f 3d 30 51 94 bd d1 63 fc bc
       -0.12887925 0.07011358 -0.07242048 -0.030809315
000010 5e c9 6f 3d 39 a6 d8 3d af 3f ca 3d 2c 72 df 3d
       0.058541648 0.105785795 0.09875428 0.109104484
000020 c9 82 05 bd de ca d0 3d e4 9a 87 3d e9 2a 22 3e
       -0.03259543 0.10194944 0.0662134 0.15836681
000030 21 b4 14 3e f6 a6 63 3d 8a fe f5 3d 2f 92 98 3d
       0.14521839 0.05557915 0.1201144 0.07449757
000040 cf 15 05 bd 8f 18 72 3d 75 0e 36 be 55 dd 95 bd
       -0.0324915 0.059105452 -0.17778952 -0.07317606
000050 6e bb e3 bd 40 d6 d6 3d 35 6f 98 bd 89 12 e7 3d
       -0.11119734 0.10490084 -0.07443086 0.11282832
000060 e3 ac c1 bd 13 77 0a be 47 1b a2 bd 1e 99 17 be
       -0.09456804 -0.13521986 -0.07915359 -0.14804503
000070 38 d4 71 bd 04 4b c3 bd 27 2d 17 be fd 28 30 3e
       -0.05904028 -0.095357925 -0.14763318 0.17203136
000080 eb 90 b6 bd 81 94 39 bc 31 2f b3 bd 40 19 fc bd
       -0.0891436 -0.01132691 -0.087492354 -0.123095036
000090 83 08 38 be fa 1f e7 3c ca 6f fc bb 65 3f da bd
       -0.17971997 0.02821349 -0.007703756 -0.10656623
0000a0 30 bc 9a bb 7e 5a 20 be 72 89 9e 3c 7e 36 d0 bd
       -0.0047221407 -0.1565952 0.019352648 -0.101666436
0000b0 4a 72 c0 bd 4f 71 91 3d be 1c b8 bc 42 32 e3 3c
       -0.09396799 0.0710169 -0.022474643 0.027733926
0000c0 ed ae 81 bd 7e 76 c4 bd ea a9 f7 3c 86 a2 0d be
       -0.063321926 -0.09592913 0.030232389 -0.13831529
0000d0 54 3c d8 3c 2c 5b 91 bc f9 01 c5 3d 04 f2 77 3d
       0.026395954 -0.01774367 0.09619517 0.06053354
0000e0 92 e4 d4 3d ca 8b 93 ba d6 31 6a bd ef 5a 02 bd
       0.10395159 -0.001125687 -0.057176434 -0.031825002
0000f0 af b1 bb bd 82 78 b5 bd 19 7a 1a 3e 75 58 31 be
       -0.0916475 -0.08860876 0.15085639 -0.173189

hamiltonian_mlp.mlp.0.weight f4 [1, 128]
000000 10 b8 39 3c 7c c6 af bd 40 9c 9a ba 7a 16 08 3d
       0.011335388 -0.0858278 -0.0011795834 0.03322456
000010 84 14 81 bc 88 ca 67 bc 1a 49 1e 3d ae f4 38 3d
       -0.015756853 -0.014147408 0.038643934 0.04515522
000020 e0 88 27 bb 53 6a 2e bd 4a 9a 7a 3d 9d 66 93 bd
       -0.0025563762 -0.042581867 0.061182298 -0.07197306
000030 34 ed 0e 3d 90 da cc 3b d6 b0 5f 3d b9 f1 a5 3d
       0.034894183 0.0062516406 0.054612003 0.081027456
000040 aa f0 13 3d b3 e3 ab 3d 1e 11 0f 3d 7a e3 73 3d
       0.036118187 0.083930396 0.034928434 0.05954311
000050 14 09 86 3c dd 1c 58 bd d4 02 0f 3d 28 76 a4 3c
       0.01636175 -0.0527619 0.034914806 0.020075873
000060 b9 3a a4 bd 1b e0 85 3d 3b 55 2a bd 8a 78 74 bd
       -0.08019013 0.06536885 -0.04158519 -0.059685268
000070 08 f3 a4 bc fb 12 0f bd 78 e1 39 3c 9a e1 64 3d
       -0.020135418 -0.03493021 0.01134526 0.055879213
000080 c0 44 2a bb 51 c5 b2 3d be ee 5a bd 6b 29 aa bd
       -0.002598092 0.08729041 -0.05345034 -0.08308681
000090 b1 ba 8d bd 26 9f 0a bd bb a4 01 bd 91 5e 8e 3d
       -0.06920374 -0.033843182 -0.03165124 0.06951631
0000a0 20 67 39 3c 4c c4 aa bc c1 75 70 bd 63 de 90 bd
       0.011316091 -0.020845555 -0.05870605 -0.07073667
0000b0 37 f4 99 3d 95 1c 9d bd c5 78 9a bd 2c 6b ff 3c
       0.075172834 -0.07671467 -0.07542566 0.031179033
0000c0 8a 10 8d bd b2 53 82 bd 00 4d 3c 3b 3f 96 7d bd
       -0.0688792 -0.0636362 0.002873242 -0.061910864
0000d0 f2 f4 0d 3d ce f2 5b 3d 48 32 b4 bd 3b 6e b4 bd
       0.034657426 0.053698353 -0.08798653 -0.08810087
0000e0 d8 1f 15 bc 70 6d 8e 3b c2 70 48 3d 88 f3 11 bc
       -0.00910183 0.004346542 0.04893566 -0.00890816
0000f0 b2 6b 3c 3d a5 65 aa bd b6 35 59 3d 40 38 f7 3c
       0.046001144 -0.083201684 0.05302974 0.03017819
000100 ce 7b 3b 3d 16 92 26 bd 8e 0e 27 3d e0 8b 01 bc
       0.045772366 -0.040666662 0.040785365 -0.007906884
000110 c1 24 b0 3d 0d d7 ac 3d 06 f6 04 3d e0 9c ea 3b
       0.0860076 0.08439455 0.03246119 0.0071598142
000120 ab 2b a7 3d 23 19 11 bd 51 85 45 bd da 53 6d bd
       0.08162626 -0.035424363 -0.048222844 -0.057941295
000130 c6 85 16 bd b7 8d 9e 3d f6 65 2d 3d 49 64 9a 3d
       -0.03674867 0.07741874 0.042333566 0.07538659
000140 00 a7 5f ba 9a 38 7a bd 79 d4 09 bd 6b fc 85 3d
       -0.000853166 -0.061089136 -0.033649895 0.065422855
000150 c0 45 b8 bc 58 ce f4 bc 9f 82 83 3d 92 37 66 bd
       -0.022494197 -0.029883549 0.06421398 -0.05620534
000160 5b 2a 87 3d 23 9c 6e bd 10 63 96 bd e2 8c 79 3d
       0.065998755 -0.058254372 -0.073431134 0.060925372
000170 e8 77 14 3c 26 c9 25 3d b0 4d 52 bc 40 6d 06 3c
       0.009061791 0.040475033 -0.012835905 0.008204758
000180 a3 1d 0c bd 2b 12 87 3d c7 d8 0c bd b0 ac 8c bb
       -0.03420795 0.06595262 -0.034386422 -0.004293047
000190 80 57 bc ba 02 a1 60 3d 63 46 38 bd 2b f0 95 bd
       -0.0014369339 0.05484105 -0.044989 -0.07321199
0001a0 fe 31 64 bd 49 d4 88 bd 03 a2 23 bd 98 e5 0e bd
       -0.05571174 -0.06681115 -0.03994943 -0.034886926
0001b0 c0 95 01 3c 40 84 9c bc c8 0d f9 bc 66 f2 7e bd
       0.007909238 -0.01910603 -0.03040208 -0.062242888
0001c0 00 93 c9 39 fc 0b 85 bc 68 e9 ad bc bb 12 9c bd
       0.0003844723 -0.016241066 -0.02122946 -0.0762076
0001d0 0f 26 55 bd 45 18 3a bd 2a f3 ee bc 92 e7 3e 3d
       -0.05203825 -0.0454333 -0.029168684 0.04660756
0001e0 7b 7e b3 3d 33 d1 ac 3d 30 fc 2c bd 06 20 22 3d
       0.087643586 0.08438339 -0.042232692 0.03958132
0001f0 72 e5 8e bd c6 9f 9d bd 8e ee 17 3d f4 4f e6 bc
       -0.06977357 -0.0769649 0.037092738 -0.028114296

fusion.weight f4 [6, 128]
000000 84 ba 93 3b dd b1 ca bd c2 0c 80 3c 10 53 c4 3d
       0.0045083184 -0.09897206 0.015631083 0.095861554
000010 78 3e 83 bd 93 d5 bf bd 79 53 c2 bb dc 1e c4 bd
       -0.06408399 -0.09366908 -0.005930361 -0.095761985
000020 ff de e5 bb 3c 24 c0 bd 42 05 98 bd 1d 48 f9 bc
       -0.0070151086 -0.09381911 -0.07422878 -0.030429894
000030 c1 18 3d bc 45 7e 36 bd 97 65 a7 3d 81 a5 3a bd
       -0.011541546 -0.044554014 0.081736736 -0.045567993
000040 39 22 9c bd 1b 65 e6 bd 86 d1 80 bd 1b 69 78 3d
       -0.07623715 -0.11249753 -0.062899634 0.06064711
000050 cc 2f 25 bd f3 07 eb bc 7a 71 c6 bd 42 a5 2b 3d
       -0.040328786 -0.028690314 -0.09689613 0.04190565
000060 db 0c a8 3d 70 71 b6 3d c7 2c 6e bc 13 1f 58 bd
       0.08205577 0.08908355 -0.014537043 -0.05276401
000070 4a 86 0a 3c 70 19 9a 3d 9c 93 46 bd eb 9e c3 3b
       0.008454869 0.07524383 -0.048480615 0.005969872
000080 b8 4a c8 bd 61 cc 66 3b 31 5f 65 bc 18 ef 85 3c
       -0.097798765 0.0035217034 -0.013999746 0.01634936
000090 71 69 f8 bc d0 b5 8d bb 82 93 86 3b 9c b4 99 3d
       -0.030323716 -0.0043246523 0.00410694 0.07505152
0000a0 82 73 9b bd 83 6e c8 bc 09 09 c1 bd 85 13 02 3d
       -0.07590391 -0.024466759 -0.094255514 0.031756897
0000b0 ec e4 cb 3c f0 b2 bc bd 53 f2 96 bd 6a c1 5f bd
       0.024889432 -0.09213817 -0.073704384 -0.054627813
0000c0 3d e2 82 3c 13 4c 77 bd fe 67 7d bd 6d 53 94 bd
       0.01597702 -0.060375284 -0.061866753 -0.07242475
0000d0 0a 7c 8a bd f1 67 94 bd b6 23 b7 3c 2c 2e fc bc
       -0.0676194 -0.07246388 0.022355895 -0.030783735
0000e0 e3 3e 36 3c be ed c0 3d f4 fd c0 bd b3 35 0c bd
       0.011123392 0.09420346 -0.09423438 -0.0342309
0000f0 cc ce 1b bb 7e 9c 06 bd f0 9d 4a bc 15 c3 23 bd
       -0.0023774384 -0.032864086 -0.012366757 -0.039980967
000100 0c 34 8d bd 35 a2 48 3c 33 f7 ca bd fc ee 6c bd
       -0.06894693 0.012245704 -0.09910431 -0.0578451
000110 c2 12 a3 3d 65 e9 00 3e c9 e2 16 bd 2e 5f b6 3d
       0.07962562 0.12589033 -0.036837373 0.08904873
000120 0e 73 5d 3c 98 4f dc 3c 44 8a e8 3c e9 d8 10 3e
       0.013516201 0.026893422 0.028386243 0.14145245
000130 88 f2 fd 3d 69 a0 1d 3d 4e bd 8d 3d b8 b6 26 3d
       0.12399775 0.038483057 0.06920873 0.040701598
000140 f8 1b 2c be 58 fc 65 bd e3 95 11 be aa 8b 02 bd
       -0.16807544 -0.056148857 -0.14217333 -0.031871475
000150 dc 6b 65 bd e0 8c 84 bc d9 3a e9 bd ea 39 9d bc
       -0.056011066 -0.016180456 -0.113881774 -0.019192655
000160 0d 46 83 bd 7c 37 cc bd 81 51 22 3d 15 b8 e9 bd
       -0.064098455 -0.0997152 0.03962851 -0.11412064
000170 a5 6c c3 bd 4d e9 db bc 9a 17 b8 bd 9b 66 c6 3b
       -0.09542207 -0.026844645 -0.08988877 0.006054712
000180 51 5f 9b bd 69 6c 59 bd a8 94 5e bc 66 c3 8e bd
       -0.075865395 -0.053081904 -0.013585247 -0.06970863
000190 7b f7 f7 bc 90 c1 19 bd ec c0 43 3d 0d e1 e6 bd
       -0.030269375 -0.03753811 0.047791407 -0.11273394
0001a0 cb ed 82 bd 61 95 cc bd 89 47 fb 3c 34 07 83 bd
       -0.06393012 -0.09989429 0.030673759 -0.06397858
0001b0 bc c5 25 3d e3 f9 37 3c 51 ed 5e bd 3e b4 12 bd
       0.040471777 0.011229011 -0.05442554 -0.035816424
0001c0 88 7b 70 3b 25 22 28 ba 14 01 76 3d f1 65 27 3c
       0.0036694724 -0.00064137793 0.060059622 0.010217176
0001d0 11 f3 98 3c ed d0 fa bc 27 81 38 3d c9 df af 3d
       0.01867059 -0.030617202 0.045045044 0.085876055
0001e0 af 72 d9 3d 1c 4f 10 bd b1 96 b7 bd 73 13 44 bd
       0.10617577 -0.035231695 -0.08964289 -0.04787011
0001f0 e6 e1 f8 bd 05 77 a0 bb 3b c7 63 3d bc fa ed bd
       -0.12152462 -0.0048970007 0.055609923 -0.116200894
000200 a4 9e 1e 3d ad e2 43 3d 53 5f 18 3d fe c5 c7 bd
       0.03872551 0.047823597 0.037200283 -0.09754561
000210 72 a2 da bd f4 ff 61 bd b8 d1 40 bb 2b e6 80 bc
       -0.10675515 -0.055175737 -0.0029421877 -0.015734753
000220 81 36 02 bc 93 34 c4 3d 46 a9 52 3d 47 8c 59 bd
       -0.007947565 0.0958034 0.051430963 -0.053112295
000230 ed 60 d9 bc 20 ef 45 bd c3 52 d7 bd 89 64 b8 3d
       -0.026535476 -0.04832375 -0.105138324 0.090035506
000240 a0 57 40 bd c6 b5 d4 3d 81 ef 1c 3d e1 e1 20 bd
       -0.046958566 0.10386233 0.038314346 -0.039277915
000250 9d 1f e0 bc 0a a5 b6 bc 64 22 05 3e d5 ab e2 3a
       -0.027358824 -0.022295494 0.130014 0.0017293642
000260 94 a9 73 3b 8e 2d c5 3c dd 89 e9 3c 3c 9d 43 3c
       0.0037179934 0.024069574 0.028508121 0.011939343
000270 fc bb cd bd c3 4a 30 3d c2 27 3f bd e6 61 c1 bd
       -0.10045621 0.04304005 -0.046668775 -0.09442501
000280 9d 43 3e 3d c8 e2 0c 3d c4 d4 1c 3d 94 62 78 bd
       0.0464512 0.034395963 0.038288847 -0.060640886
000290 1f d1 50 bc 91 10 20 bb e5 7f 05 be d9 b5 dc 3d
       -0.012745171 -0.0024423937 -0.13037069 0.10776872
0002a0 8f d0 74 3d ed d2 5a bd 8f 9b fb 3d fe 84 09 bc
       0.05976921 -0.05342381 0.1228553 -0.008393524
0002b0 5c 15 39 3d 82 35 a3 3d 1b fa 5e bd ad d4 51 bd
       0.045186386 0.0796919 -0.054437738 -0.051228214
0002c0 bb aa 6e bd c8 6b 01 3d 01 da c6 3c d0 ba c3 3d
       -0.05826829 0.03159693 0.024273874 0.09557116
0002d0 c9 a6 c2 bc 1e c0 f1 3a 3c f2 8c 3d 34 79 99 bd
       -0.02376117 0.0018444096 0.0688214 -0.07493821
0002e0 d3 43 25 bc e2 a5 d7 bd 47 c4 09 bd 9c 75 4c bc
       -0.010086971 -0.105296865 -0.03363445 -0.012479212
0002f0 8b 01 82 3d e8 db 8e 3d 26 ab 93 bd 57 e1 8f 3d
       0.063479505 0.069755375 -0.07210378 0.07025402
000300 47 e3 96 3d 5b 05 1c bd 32 c2 39 bd c2 0c ba bd
       0.073675685 -0.038091045 -0.045351215 -0.090844646
000310 33 4c ba 3d b8 88 d3 3d cd 0e 8d 3d dc a6 37 bd
       0.09096565 0.103288114 0.06887589 -0.044836864
000320 9c 55 07 3c fd bc d9 3c c4 5e c7 3b c7 85 a4 bc
       0.008260157 0.026579374 0.006084295 -0.020083321
000330 36 04 83 bd 4e cc e5 3d 20 83 b0 3b 1a ac 55 bd
       -0.063972875 0.11220609 0.005386725 -0.052166082
000340 33 51 0f 3d 7c 20 f6 bc 54 a1 5f bd c8 92 32 bd
       0.034989547 -0.030044787 -0.054597214 -0.043597013
000350 30 66 8e 3d 9a ff d8 bc 01 ef 33 3e ec b8 29 3d
       0.069530845 -0.026489068 0.17571642 0.04143612
000360 9e a7 89 3d 15 b2 0f bc 88 94 c0 bd d3 c0 9d 3d
       0.067214236 -0.008770485 -0.0940333 0.07702794
000370 fe 70 1b 3d 52 a8 79 bd dd 8e 83 3d 8f 95 87 3d
       0.037949555 -0.06095154 0.064237334 0.06620323
000380 4a 99 0e bd 5b 5b 13 3e fd 5a 4d bd 05 77 bc 3d
       -0.034814157 0.14390318 -0.0501356 0.09202389
000390 be 6a 8c 3d d1 d3 51 3d 2f 73 fe bd 81 19 00 3e
       0.06856297 0.051227394 -0.12424313 0.12509729
0003a0 e1 57 d9 3d 9a 52 23 3d 60 ba 3e 3d 91 da 24 bd
       0.10612465 0.039873697 0.04656446 -0.040247504
0003b0 19 94 b2 3a c2 71 94 3c 3f f5 28 3d d1 8d 68 bd
       0.0013624459 0.01812065 0.04124951 -0.05677587
0003c0 6b 4b c3 3d b0 46 8d 3c b2 45 ec 3d c4 c2 79 3d
       0.09535869 0.01724562 0.11536731 0.06097676
0003d0 a2 d4 cd 3d dd 1d 9c bd c0 4e 97 3d 64 15 97 3c
       0.10050322 -0.076228835 0.07388067 0.018442817
0003e0 87 86 78 bd e6 15 0c be 1c a2 c3 bc 70 35 79 3d
       -0.06067517 -0.13680229 -0.02388101 0.060841978
0003f0 97 5d 23 3e 17 82 1b bc 48 fe 3f bd 83 28 9d bb
       0.1595367 -0.009491465 -0.04687336 -0.004796089

fusion.bias f4 [6]
000000 c3 a5 dc bc dd cd 29 3d 10 a0 c1 bc d1 72 58 bc
       -0.02693451 0.041456092 -0.023635894 -0.013210968
000010 d5 ad 4a 3d f5 38 95 3d
       0.049482185 0.07286254

hnn.fc.0.weight f4 [128, 6]
000000 c8 f0 a8 3e 96 92 9e 3e 85 e5 ce 3d 89 8a bb be
       0.32996202 0.3097121 0.10102371 -0.3662913
000010 e8 c2 18 be fb 8f c8 3e f7 94 82 3c 4f 94 6c 3e
       -0.14918101 0.39172348 0.015940173 0.2310345
000020 2b 24 df bd 58 dd fc bd 0c e1 89 be ed eb b9 be
       -0.1089557 -0.123469055 -0.2692951 -0.3631281
000030 4c a4 6a 3e 60 c8 bd bd 58 d1 05 be 94 7a 66 3e
       0.22914237 -0.09266734 -0.1306814 0.22507697
000040 e0 d8 cb 3c 32 f0 9b 3e 26 ba c3 3e 35 67 4a 3d
       0.024883687 0.30456692 0.38227957 0.049414832
000050 3e 33 be 3e 6b e5 b4 3e c9 70 10 3e 34 0a 28 3e
       0.3714847 0.35331282 0.14105524 0.16410142
000060 63 4c af 3e 62 49 9e 3e 01 a1 c2 be 85 67 0f be
       0.34237966 0.30915362 -0.3801346 -0.14004333
000070 57 c1 be be 23 95 1b 3e 88 1b bd 3d ae d8 7f 3e
       -0.37256882 0.1519361 0.09233767 0.24985
000080 cb f5 9f 3e 6e 05 81 be 40 2b ae 3e 4c 76 8b 3e
       0.31242213 -0.25199455 0.34017372 0.2723869
000090 5d 6c 8f be 54 f5 85 be e3 8e 80 3e e4 55 8b be
       -0.28012362 -0.26163733 0.25109014 -0.27213967
0000a0 0d 54 0f be ec b4 2e be 27 d3 0b 3e 45 5e 67 be
       -0.13996907 -0.17061204 0.13654767 -0.22594555
0000b0 40 80 7f 3e 7c 90 92 be ae 6e 93 3e 9b ae be bd
       0.24951267 -0.28625858 0.2879538 -0.09310647
0000c0 bf d6 9c bd 9b c6 b1 be b8 73 95 3e f0 68 c0 be
       -0.07658147 -0.34721836 0.2918985 -0.3758006
0000d0 f5 d8 c9 3e 4d 00 b8 be 71 17 c4 bd 8d 52 ad 3e
       0.39423338 -0.3593773 -0.095747836 0.33852044
0000e0 a4 fb 0d be b7 f0 5e 3c c4 c8 6c 3e f1 7f a8 3e
       -0.13865525 0.013607196 0.23123461 0.32910112
0000f0 21 c5 43 3d 45 ab bd 3e e6 ba 8b be 7e 75 31 3e
       0.04779542 0.3704473 -0.2729103 0.17329976
000100 0b 6c ac be 64 2a 76 3e 2c b1 63 3e 08 a9 96 3e
       -0.3367618 0.24039608 0.22235554 0.29425836
000110 80 8f 32 be 4e 47 b9 3e 80 66 62 3d c0 96 ad 3e
       -0.17437553 0.36187214 0.055273533 0.33904076
000120 1b a9 b2 3e 07 05 3e bb 0b 3a c1 3e 07 32 93 be
       0.34894642 -0.0028994696 0.37739596 -0.28749105
000130 eb df b0 be 9e d5 88 3d 97 88 a5 3e 95 53 53 3e
       -0.34545836 0.06681369 0.32330772 0.20637353
000140 e3 d3 dd 3c 93 22 57 be 4e ef ad be 9b 00 2a 3e
       0.027078575 -0.21009283 -0.33971637 0.16601793
000150 e2 c7 5e 3e d6 ff 1a be 67 47 9f be c2 dd 83 be
       0.21755937 -0.15136656 -0.31109163 -0.25755125
000160 70 a5 0a bc 2c 3e 05 3e 2c a3 2a bd f5 34 68 be
       -0.008462295 0.13011998 -0.04165952 -0.22676452
000170 3e 37 8e 3e 61 d5 5b 3d 38 9d 97 3e 92 2a 88 be
       0.2777652 0.05367029 0.29612136 -0.2659498
000180 f8 19 7f be 2e ba 0d 3e e8 df 59 be 79 50 63 be
       -0.2491225 0.13840553 -0.2127682 -0.22198667
000190 23 33 6e 3e 3c 2e 81 be 9f 34 2d be a9 25 7e 3e
       0.23261695 -0.25230587 -0.16914605 0.24819054
0001a0 61 ca f4 3d 8d a4 72 3e 34 38 cf bd 1d 5d 56 be
       0.11952663 0.23695584 -0.10118142 -0.20933957
0001b0 8f b3 9c be 31 8c 1a bd 14 b5 42 3e 84 50 61 3e
       -0.30605742 -0.037731353 0.19014388 0.2200337
0001c0 cf 95 a8 be 64 e9 5f bb 9d 6f be 3e 87 eb 83 bd
       -0.32926795 -0.0034166211 0.3719453 -0.06441408
0001d0 dc e4 bd be 9a da 78 bd bd 81 cb bc 3e 7c 81 be
       -0.37088668 -0.06075535 -0.024842137 -0.25290102
0001e0 d4 01 82 3d 23 e8 97 3e 64 62 00 3e 67 65 33 be
       0.06348005 0.29669294 0.12537533 -0.1751915
0001f0 19 92 cf be b7 0d 94 3e 9f ba ba bd e9 be 84 3e
       -0.4054115 0.28916714 -0.091176264 0.25926903
000200 4f 3e 18 bd c4 ee a0 be 43 7b 92 3e 86 f9 d3 be
       -0.037168797 -0.31432164 0.28609666 -0.4140131
000210 f5 51 42 3e ca 6f 7a 3d 49 51 07 3e c0 c8 a0 3d
       0.18976577 0.061141767 0.13214602 0.0785079
000220 06 b0 e2 bd ef c5 9d 3e 7d 6f 59 be 3a 79 5f be
       -0.1106873 0.30815074 -0.21233936 -0.21823588
000230 0d 0d bf 3b af 0b 16 3e 8d 50 51 3d b4 73 8f 3e
       0.005830413 0.14652894 0.05110221 0.28017962
000240 6d 1d 61 be 73 ae a9 be fe a9 93 be 6a 89 3f be
       -0.21983881 -0.33140907 -0.2884063 -0.18704763
000250 77 1e 96 be 3a d6 16 3e 0a b9 b3 3e 78 6f 9c bd
       -0.29320118 0.14730158 0.3510211 -0.076384485
000260 5e d5 3b 3e db bc 89 be 79 9f 2e 3e 5b d8 9c be
       0.18343112 -0.26901898 0.17053021 -0.30633816
000270 a3 b1 b3 3e c3 cc 04 3e 18 c4 96 3e d1 d9 6d bd
       0.35096464 0.12968735 0.29446483 -0.058069054
000280 1b dd b5 3e d4 f1 0c 3d dd 54 2c 3e 1b fd 5a be
       0.35520253 0.034410313 0.16829248 -0.21385615
000290 b7 c5 d4 3b ee 13 bc 3d b4 8c 9d 3e ba 8e d7 be
       0.006493296 0.09183489 0.3077141 -0.4210108
0002a0 9b ca 2d 3e c3 2a 9b 3e f7 06 36 be ac 36 4d 3e
       0.16971819 0.30306062 -0.17776094 0.20040387
0002b0 3e 9a 9c be 6a 12 17 3e a3 5b be be 7a 91 89 be
       -0.30586427 0.14753118 -0.37179288 -0.26868802
0002c0 96 d5 b7 be b4 5b 3a be 61 62 39 3e c5 40 fc bd
       -0.3590514 -0.18199044 0.18103935 -0.12317041
0002d0 18 b6 93 be 2a 80 b3 3c aa 0f 50 3e d1 8a d1 3e
       -0.28849864 0.0219117 0.20318475 0.4092622
0002e0 48 b1 8c bc d5 b6 e6 bd c4 a1 40 3e 88 39 14 3d
       -0.017174378 -0.11265341 0.18811709 0.03618768
0002f0 93 a6 43 3d 56 ad a3 3e 77 79 9a 3d 56 ee ce 3d
       0.04776628 0.31968182 0.07542699 0.10104053
000300 5d 1f 2d bd ee 9b e3 be d7 60 7c 3e ef ae 90 3e
       -0.04226624 -0.44454902 0.24646316 0.28258464
000310 1c d2 74 3d ac 1d eb bd f9 99 c0 be 4a 75 7b bc
       0.05977069 -0.11480269 -0.37617472 -0.015347788
000320 01 9d 5d be ba 7a ca 3e c6 0c 55 be fd 77 aa be
       -0.21641923 0.39546758 -0.20805654 -0.3329467
000330 ac a4 af be b5 19 b8 be c7 d5 0a 3c 31 ac b2 be
       -0.34305322 -0.35957113 0.00847382 -0.34896997
000340 d1 97 5d bc 68 23 4e 3e 45 c0 ba 3d f4 a3 9c bd
       -0.013524965 0.20130694 0.09118704 -0.07648459
000350 cd b0 85 be ac 57 81 be 33 0f 87 3e a9 13 ca 3e
       -0.2611145 -0.252622 0.26378784 0.39468125
000360 11 85 98 be b3 81 3a 3e 37 a5 5c bd b5 cd 1b be
       -0.29789022 0.18213539 -0.0538685 -0.1521519
000370 5a 68 e2 bd 8d 49 9c 3d 70 62 d5 3d 67 ab 2b be
       -0.1105506 0.07631216 0.10419166 -0.16764604
000380 aa a4 95 be 58 91 bb be 21 28 5e 3d 95 39 64 be
       -0.2922719 -0.36634326 0.05423749 -0.22287591
000390 d4 d0 a7 be 71 dd 96 be 3f 6a 62 3e 21 b0 ab be
       -0.3277651 -0.2946582 0.22110842 -0.33532813
0003a0 9c 95 d1 3d 6d c8 bb 3e 1d 78 85 3e 25 08 bf be
       0.10233614 0.3667635 0.26068202 -0.373109
0003b0 48 5c c3 bd ae 62 2c 3e e0 3c ba bd 6b 20 84 bd
       -0.095390856 0.16834518 -0.09093642 -0.06451496
0003c0 8f a6 aa 3e a7 ed 25 3e f9 a5 e9 bd d0 74 b5 be
       0.333302 0.16203938 -0.1140861 -0.35440683
0003d0 9f fc 54 3e bc 8c 22 be 88 b0 87 3e eb 8b 3f 3d
       0.20799492 -0.15873998 0.2650187 0.046764296
0003e0 3a 35 af be 59 67 bb be 52 32 d0 bc dc 22 34 3e
       -0.34220296 -0.36602286 -0.02541462 0.17591423
0003f0 f0 76 99 3e bd c8 52 3e e1 8b 91 bd 6b 2f be be
       0.29973555 0.20584388 -0.07106758 -0.37145552

hnn.fc.0.bias f4 [128]
000000 cf 3f ac be 7c 80 c5 3d 30 bc 77 be 3f 50 20 be
       -0.33642432 0.09643647 -0.24192882 -0.15655611
000010 1f 6b ae 3e 37 1a 25 be bd 9c 18 3e fb b9 85 be
       0.34066102 -0.16123281 0.14903541 -0.26118454
000020 00 5a 4a bc 2d 0d 96 be e2 70 40 3e 1a 2a af be
       -0.012350559 -0.29306927 0.18793061 -0.34211808
000030 7d f0 97 bd 23 03 89 3e 13 f4 79 3e 18 47 be 3e
       -0.074189164 0.26760206 0.24409513 0.37163615
000040 b4 90 f4 bd 6e c5 e1 3d 26 98 c0 bd 15 21 b1 3d
       -0.119416624 0.11023985 -0.0940402 0.08648888
000050 ad 9f a1 3e c0 26 21 3e a2 d2 8c be 45 e8 ba be
       0.31567135 0.15737438 -0.2750445 -0.36505333
000060 f5 da a0 3e 8b 6d a9 be 17 84 89 3e d6 d6 99 bd
       0.3141705 -0.33091387 0.2685859 -0.0751168
000070 00 df de 3d 68 ca ab 3e bb 5c c2 3e 9d 84 98 3d
       0.108823776 0.3355286 0.37961373 0.07447169
000080 8f 27 80 be c4 47 90 bd 0b d1 74 3e 35 f7 3e 3e
       -0.2503018 -0.07044938 0.23907869 0.1864899
000090 42 b8 b5 3e 80 1d 89 3e 01 7f bd be 2a f2 98 3e
       0.3549214 0.2678032 -0.3701096 0.29872257
0000a0 e6 a5 65 bd 23 7b 70 3e 52 f2 65 be 78 2d 9b be
       -0.056066416 0.23484473 -0.22455719 -0.30308127
0000b0 bc 5e 6a be ad 65 d4 bd ed f7 a9 3e 4f 88 2c be
       -0.22887701 -0.103709556 0.33196965 -0.16848873
0000c0 1c fd b5 3e ac 11 a4 3e 43 c6 6d be 91 d0 46 be
       0.3554467 0.32044733 -0.23220162 -0.194155
0000d0 93 7d 31 ba b1 95 84 3e a9 d0 0e 3e 25 47 95 3d
       -0.0006770726 0.25895455 0.13946785 0.0728896
0000e0 48 aa 90 be 3e bc 16 be 2f 0d fe 3d 3b 03 48 bd
       -0.28254914 -0.14720246 0.12404858 -0.048831206
0000f0 d0 d6 a0 3e 9f ea e2 3c a3 4e 76 3e ea 26 c3 3c
       0.3141389 0.027699767 0.24053435 0.023822267
000100 dc cd 38 3e 24 9e a2 be 49 51 87 3e 2d 14 da be
       0.18047279 -0.31761277 0.26429203 -0.42593518
000110 8c fe 88 be 50 89 ad be eb 95 fb bd 90 f4 a8 bd
       -0.26756704 -0.33893824 -0.12284454 -0.082497716
000120 13 3f b4 3e f4 48 cf be 1c 7e 03 be 46 79 d4 be
       0.35204372 -0.40485346 -0.12841076 -0.41498774
000130 b5 8b c6 be c0 26 c1 3e 57 e1 8b be f4 b0 68 be
       -0.38778463 0.37724876 -0.27320358 -0.22723752
000140 02 3d 80 be ee bb dd bd d6 97 a6 3e 8b 3a 48 be
       -0.25046545 -0.1082686 0.32537717 -0.19553582
000150 fb 29 a0 3e a0 e3 ff bd 12 6a 64 3e 30 06 61 3c
       0.3128203 -0.12494588 0.22306088 0.013734385
000160 db 0f 59 be 29 83 cd bc 9f c5 a3 be 6c ab 7c 3e
       -0.21197455 -0.025086956 -0.3198671 0.24674767
000170 8b b7 53 be 6d 01 f2 bc 77 1d ab 3e 5d 98 b4 bd
       -0.20675485 -0.029541695 0.33420917 -0.088181235
000180 9e ed c9 3e 60 bf 1a 3e 24 f3 ae be ef 03 c4 3e
       0.394391 0.15112066 -0.34169877 0.3828425
000190 08 21 88 3e 15 b2 9d 3e 93 ec 63 be 21 3c 8c 3d
       0.265877 0.30799928 -0.22258215 0.06847406
0001a0 9e f2 95 3d cb e9 dc be 3b 2a 23 3e 44 35 3b bd
       0.07321666 -0.4314712 0.15934078 -0.045705095
0001b0 e9 16 ae 3e 0b 68 a1 be 1b f8 6c be 04 e4 9f bd
       0.34001854 -0.3152469 -0.2314152 -0.078071624
0001c0 b0 6d 80 bd fc 9d 8b be 69 7e 6c 3d c7 7d ab 3e
       -0.06270921 -0.2726897 0.05773774 0.33494398
0001d0 56 10 a0 3c cc 18 46 be a6 d3 54 be 11 e2 60 3e
       0.01953904 -0.19345397 -0.20783862 0.21961237
0001e0 55 00 1d 3c 67 a1 8f 3e a3 14 98 3e ff e0 56 3e
       0.009582599 0.28052828 0.29703245 0.20984267
0001f0 d0 95 92 be fb c0 33 bd 9c a5 84 be 39 75 b3 be
       -0.28629923 -0.043885212 -0.259076 -0.3505037

hnn.fc.3.weight f4 [64, 128]
000000 b0 09 1a bd 45 2b b7 bd 16 e1 a2 bd 1c 04 9e bd
       -0.037606895 -0.089438 -0.07953088 -0.077156276
000010 c3 3b 22 bd 16 ad fc 3c 73 48 24 bc 79 9b d6 3c
       -0.039607774 0.030844253 -0.010027039 0.026197182
000020 98 47 16 bd c6 6e 24 bd 7f 17 af bd 12 35 72 3d
       -0.03668937 -0.040144704 -0.085494034 0.059132643
000030 1d 45 8e bc 99 8d 0f 3d 57 c8 86 3d db 59 2a 3d
       -0.01736694 0.035047147 0.065811805 0.0415896
000040 16 55 73 bc 7d c7 e2 bd c2 95 89 bd b5 d8 89 3d
       -0.014851829 -0.110732056 -0.06718017 0.06730787
000050 bf e5 f2 bc b8 be 12 bd 26 d2 61 3d 50 ac 6a bc
       -0.029650567 -0.035826415 0.055132054 -0.014323309
000060 75 24 74 bc e8 90 33 3c 74 d3 ae 3c 70 23 f2 3c
       -0.01490127 0.010959841 0.021341063 0.029557914
000070 25 68 87 3d b9 97 86 bd db e4 8f 3c f1 88 87 bd
       0.06611661 -0.065719076 0.017565181 -0.066179164
000080 92 b2 da bd 78 a8 55 bc 3d 64 bb bd f5 ff 67 bd
       -0.10678591 -0.013040654 -0.09149978 -0.056640584
000090 92 5d 15 bd 8f 50 5a bd 2d f6 5a 3d 13 f9 b4 bd
       -0.03646619 -0.053299483 0.053457428 -0.0883657
0000a0 01 62 e5 bc dc 82 7b 3c 76 20 b4 bd 36 89 8f bd
       -0.028000833 0.0153510235 -0.08795254 -0.07008593
0000b0 43 8c 98 3d 92 41 95 3b 73 bf c8 bd 25 18 1f 3d
       0.07448628 0.0045549357 -0.09802141 0.038841385
0000c0 43 3a 49 3d 1e 68 05 3d 5e 37 9b bd 5a 3f 6e bb
       0.04912783 0.032569997 -0.0757892 -0.0036353678
0000d0 da 9f 1c 3d 1a ba 59 bd 75 95 2c bd bc 9a 5b bd
       0.038238384 -0.053155996 -0.04213472 -0.053614363
0000e0 27 c7 1d 3d de f7 6d bc 55 ed 18 3d 77 61 8e bd
       0.038520005 -0.014524428 0.037335712 -0.06952184
0000f0 31 13 7c bd a3 c8 51 3c 27 2b 97 3d e8 18 ab bd
       -0.06154174 0.012804183 0.073812775 -0.0835436
000100 ab 41 b0 3c 06 ff 61 3c 3a 6f d9 bc 63 76 af bd
       0.021515688 0.0137937125 -0.026542295 -0.08567502
000110 c0 9a c2 bc 26 39 79 3d fe cb ec bc 58 0f 81 bd
       -0.023755431 0.060845517 -0.028905865 -0.06301755
000120 1f db 86 bd 02 f2 b9 3b d7 ab 12 3d e3 92 87 bd
       -0.06584763 0.0056746015 0.03580841 -0.06619813
000130 ad 57 06 3d 36 ed 0f bd de 9d e0 3c 44 b8 8e bd
       0.032798458 -0.03513833 0.027419027 -0.0696874
000140 40 82 d4 bb 41 49 01 bd f3 15 ad bd cf 91 f6 3c
       -0.0064852536 -0.031564 -0.08451452 0.030098824
000150 71 07 44 bd de ca 3e 3d 22 f8 b7 bd df 98 8b 3c
       -0.04785866 0.046580188 -0.089828745 0.017040668
000160 f1 d8 28 bc 14 ad 2c bd 9b 4a 9e 3d 09 c8 29 3d
       -0.010305629 -0.042157248 0.077290736 0.041450534
000170 cf 09 7f bd e1 d9 8d 3d aa 40 90 3d 0a 96 60 3d
       -0.062265214 0.06926323 0.07043584 0.05483059
000180 22 d7 8c 3d 38 95 5a 3d fc 94 82 bd f3 b8 6b bd
       0.06876971 0.053364962 -0.06376073 -0.05754943
000190 77 13 07 3b dc fc 27 3c 54 76 86 bd d0 4d 7a 3d
       0.0020610967 0.0102531575 -0.06565538 0.061109364
0001a0 36 9a 46 3c 8f d7 3a bd b5 4f ac bd af 2a a1 bd
       0.012121728 -0.04561573 -0.084136404 -0.078694694
0001b0 c7 37 e7 bc 07 41 51 3d d6 9a c6 3c b5 85 29 bd
       -0.028224839 0.051087406 0.024243753 -0.04138728
0001c0 8a 12 39 3d ef d9 b3 bd 7f ff ad bd db e0 2a 3d
       0.045183696 -0.08781802 -0.08495998 0.041718345
0001d0 ce 4a 91 bd 86 aa 65 3d 8a 6d 58 3d b8 34 84 bd
       -0.07094346 0.056070827 0.05283884 -0.06455368
0001e0 08 71 05 bd ff 4c b2 3c 8b ca 94 3c 69 54 86 bc
       -0.032578498 0.02176523 0.018162986 -0.016397672
0001f0 8c 24 bd 3c 40 da db 3b b0 a7 8a 3d d4 75 74 3d
       0.023088716 0.006709367 0.06770265 0.059682682
000200 70 fd a3 bd 80 14 00 ba 54 4a 60 bd b2 b3 45 bd
       -0.08007324 -0.0004885867 -0.054758385 -0.048267074
000210 db f7 db 3d f9 fc 36 bd e4 a6 e0 bc 55 4a f1 bc
       0.10740634 -0.044674847 -0.02742333 -0.02945439
000220 11 46 ab bd 96 13 c6 3c 9f 4e 8c bd c4 74 45 bd
       -0.083629735 0.024179261 -0.06850933 -0.04820706
000230 4b 62 e4 bc 44 07 2d bd 58 8b 51 3c b5 68 8b bd
       -0.027878901 -0.042243257 0.01278957 -0.06807081
000240 f6 a4 e4 bc a4 13 03 bd 14 3c 91 3c 6a 8c 34 3d
       -0.02791069 -0.032001153 0.017728843 0.04407922
000250 64 db 8b bd 1b ea 5a 3b 7e ea 21 3c b8 b7 50 bc
       -0.06828955 0.0033403698 0.009882567 -0.012739114
000260 3e f1 5a bc 13 f3 8d 3c 6c f4 a7 3d 27 25 a5 bd
       -0.013363181 0.01732782 0.08200917 -0.08063727
000270 89 bd b6 bc 81 a0 a2 bd d6 24 88 bd 4e 7e 3b 3c
       -0.022307174 -0.0794077 -0.06647651 0.011443688
000280 2c 44 a1 bd 0a 05 3e 3d e4 58 07 3d 86 7f 9a 3d
       -0.07874331 0.046391524 0.033043757 0.075438544
000290 07 ef 56 3c a3 1a e7 3c 6b 72 83 3b 8f bd 82 bb
       0.013118512 0.028210944 0.0040114424 -0.0039898823
0002a0 e2 2c 7f 3d 6a b2 08 bd c8 97 34 3c 59 52 ef 3c
       0.062298663 -0.033373274 0.011022516 0.029214071
0002b0 b0 d2 9a bb ab 20 52 bd 4e 0a cb 3c 85 27 87 bd
       -0.004724823 -0.051300686 0.024785187 -0.065993346
0002c0 1f 9f c7 3d 5e df 0a bd d1 b7 05 bd 8a bc 60 3c
       0.09747147 -0.033904426 -0.032646004 0.013716826
0002d0 47 8d 59 bd fe fb 1f bd 4a fe 3c 3d 6b 03 8b bd
       -0.05311325 -0.039058678 0.046140946 -0.06787761
0002e0 22 85 9c 3d fd 4f 0b 3c d8 27 71 bd d8 64 13 bc
       0.076425806 0.008502957 -0.05887589 -0.008996211
0002f0 5e f6 6b 3d 5f 00 dc bd b0 b6 70 3d cc 2e 0d 3d
       0.057608 -0.10742258 0.058767974 0.034468457
000300 b3 5e 2b bb aa 35 02 bd ae 90 be bd 5b 54 50 bd
       -0.0026148974 -0.03178946 -0.09304939 -0.050861698
000310 e4 fe 91 bd db 17 f7 bb 05 d3 87 bc 9f d7 a3 bd
       -0.07128695 -0.0075406856 -0.016580114 -0.08000111
000320 8f 2d 49 b8 32 6b 76 3d 7d 52 6f 3d a4 7d 4b bc
       -4.7964564e-05 0.060160823 0.058428276 -0.012420092
000330 91 d9 9c bb 4d f0 84 3d 93 4e 91 3d bf 20 7f bd
       -0.004786678 0.06491146 0.07095065 -0.06228709
000340 2c a5 d7 3c 46 a4 50 bb d1 6f b0 3d b8 74 06 3d
       0.026323877 -0.0031836196 0.08615077 0.032826155
000350 40 cf c8 bb 9b 2c ac bd 22 b4 9c 3d 6c e1 87 bd
       -0.0061282218 -0.08406945 0.07651545 -0.06634793
000360 e5 df c1 bd fe 94 94 bd b6 55 a9 bd 3e a1 3f 3d
       -0.094665326 -0.072549805 -0.08268301 0.046784632
000370 c8 cc 44 bc ba b5 84 3d e9 43 c9 bc d1 65 32 3d
       -0.012011714 0.06479974 -0.024568515 0.04355413
000380 6e 1b 84 bd 8a e3 8b bd 82 8d 2c 3d 81 8e ca b9
       -0.06450544 -0.06830509 0.04212714 -0.00038634616
000390 ef f2 aa 3d fd 05 b7 3c 1a 8e 9d 3d bd 7a 71 bc
       0.08347117 0.022341723 0.07693119 -0.014738736
0003a0 40 f1 8c 3d 68 9f ee bc 4a cc 59 bd a8 cc 69 bd
       0.06881952 -0.029128745 -0.05317334 -0.05707994
0003b0 77 b2 aa 3d 82 94 7b 3d 1f b9 a5 bd a4 fd d4 bc
       0.08334821 0.061420925 -0.0809195 -0.025999852
0003c0 27 d4 82 3d 8f 02 5e 3d ac 1c 41 bb 65 60 63 bd
       0.06388121 0.05420166 -0.0029466553 -0.05551185
0003d0 91 2c 89 3d 1b ad 09 bd a1 93 0b 3d 79 f5 81 bd
       0.066979535 -0.033612352 0.034076337 -0.06345648
0003e0 37 03 b2 3d d0 bb 8d bd 28 26 79 bd 6b 1b 9e 3d
       0.086920194 -0.06920588 -0.060827404 0.07720073
0003f0 5b c2 a2 3d 57 31 59 3d 7e 78 6c bd 51 1c c1 3d
       0.079472266 0.05302557 -0.057732098 0.09429229

hnn.fc.3.bias f4 [64]
000000 6b 57 54 bd 5c e9 ac bd de 52 26 3d 57 da c6 3c
       -0.05184118 -0.08442947 0.040606372 0.024274034
000010 40 e0 6c bd 51 9f c5 bc c3 23 01 ba 16 8b 06 bc
       -0.05783105 -0.02412382 -0.00049262884 -0.008211872
000020 8a f7 e3 3b 89 9e 98 bb 30 0a c4 3b 3b a5 55 3d
       0.006956999 -0.0046575707 0.0059826598 0.05215953
000030 fe c0 5a 3c 5a 94 6f bd e8 31 cd bb bf 95 2d bd
       0.013351677 -0.05849109 -0.006262053 -0.042379137
000040 7f 8d c2 bd 03 9e 82 3d 3f 50 af 3d 53 7f ce 3c
       -0.094996445 0.063777946 0.085602276 0.025207197
000050 a4 52 9c 3c 68 d0 80 bd 60 35 5c 3d d9 1e 50 bd
       0.019082375 -0.0628975 0.05376184 -0.05081067
000060 49 ff 47 bc d7 0c aa 3c f8 a9 91 3d 52 d6 4b bd
       -0.012206861 0.020758076 0.07112497 -0.04976494
000070 c7 3a b4 bd af ca 9c bc 2a bb 6c 3d 3e 82 9e 3d
       -0.088002734 -0.019139616 0.05779568 0.077396855
000080 a1 9d 8b 3c 23 25 e2 bd ee 85 9c bd cb 00 4b 3c
       0.017042937 -0.110422395 -0.076427326 0.012390326
000090 27 8c ae 3c d7 22 63 bd e7 ef 52 bd ec be df 3c
       0.021307064 -0.055453148 -0.05149832 0.027312718
0000a0 6a c0 19 3c 7a 10 37 bd 2b bd e6 bd b9 ad 69 bc
       0.009384254 -0.044693448 -0.1126655 -0.01426261
0000b0 f4 51 c7 bd 41 5e b3 bd 69 82 2f 3c c1 0f 46 bd
       -0.09732428 -0.08758212 0.010712245 -0.048354868
0000c0 6c 3a 84 bd 3a 6d 62 bd 08 85 93 bd 82 b5 96 bd
       -0.064564556 -0.055279948 -0.07203108 -0.073588386
0000d0 57 5b ad 3c d4 f0 8b bc 9e eb ab 3d 0f 6c 81 3d
       0.021161718 -0.01708261 0.0839455 0.06319439
0000e0 09 07 83 3d 85 08 8f 3c d0 29 c0 bd d7 ac 90 3d
       0.06397826 0.017460117 -0.09382975 0.070642166
0000f0 47 96 29 bd dd 67 82 3d 66 d6 48 3d 22 03 91 3d
       -0.04140308 0.063674666 0.04903259 0.07080676
