Proposed/BestModel/DoublePendulum.pth (torch, 212730 bytes, 17 tensors)

q_mlp.0.weight f4 [128, 240]
0	0xb9fd6000	-0.00048327446
1	0x3d0dd556	0.03462728
2	0xbd599c0c	-0.053127334
3	0xbd42943f	-0.04750466
4	0xbc881719	-0.016612576
5	0x3c0c8bec	0.008578282
6	0x3b54d0cb	0.0032473083
7	0x3d3bc92d	0.045846153
8	0x3b20d738	0.0024542343
9	0x3c18b322	0.009320052
10	0xbcb434d1	-0.021997841
11	0xbc589349	-0.013218709
12	0xbd5b5f07	-0.053557422
13	0xbd4efe8a	-0.050535716
14	0xbd076298	-0.03305301
15	0x3bfead34	0.0077721123
16	0x3d089cb4	0.03335257
17	0x3cfc0aec	0.030766927
18	0xbd55d284	-0.052202716
19	0xbc9fb2d3	-0.01949445
20	0x3cfef291	0.031121524
21	0x3d3ada8e	0.045618586
22	0xbcc03d61	-0.023466768
23	0x3d42003a	0.047363497
24	0xbb203047	-0.0024442838
25	0xbadcdc5f	-0.0016850344
26	0x3d4ac314	0.049502447
27	0xbd7521ea	-0.059846796
28	0xbd05c1db	-0.032655578
29	0xbccbaf95	-0.024863997
30	0xbd10353a	-0.03520701
31	0x3d6f4ab3	0.058420848
32	0xbd0c72c5	-0.03428914
33	0xbd17c6b6	-0.03705474
34	0xbd5f0c10	-0.054454863
35	0xbd733f4e	-0.059386544
36	0xbcf98f3e	-0.030463811
37	0x3d47f73f	0.048819777
38	0x3cc058dd	0.023479873
39	0x3cf71eed	0.030166114
40	0x3c222d98	0.009898566
41	0xbd1ff37c	-0.039050564
42	0x3bba0a64	0.005677508
43	0xbd762535	-0.060094077
44	0xbd2a2cce	-0.041546635
45	0xbd1babe4	-0.038005725
46	0x3d0b5153	0.034013104
47	0x3d1f5908	0.038903266
48	0xbcd5520e	-0.026040103
49	0xbbba8498	-0.005692076
50	0x3d0d7359	0.034533832
51	0x3d65b7dc	0.056083545
52	0x3cc7e278	0.02439998
53	0x3be86aed	0.0070928247
54	0x3d179a58	0.037012428
55	0xbd332e4a	-0.043745317
56	0x3c0e0687	0.008668548
57	0xbd4cb3a8	-0.04997602
58	0xbd5458ab	-0.051842373
59	0xbcf808ab	-0.03027757
60	0x3ccc0a20	0.024907172
61	0x3cd5934c	0.026071213
62	0xbd3f47fa	-0.0466995
63	0x3ce65f3d	0.028121585
64	0x3cef0f9d	0.02918225
65	0xbc13f01f	-0.009029417
66	0xbbbfe40f	-0.005856044
67	0x3cc4aef9	0.024009215
68	0x3d021ced	0.031765867
69	0x3d76c7c3	0.0602491
70	0xbd6bc901	-0.05756474
71	0xbc732a06	-0.014841562
72	0x3c86cdcf	0.016455559
73	0x3d511c5f	0.051052447
74	0x3d488fd0	0.048965275
75	0x3d84b294	0.064793736
76	0x3b803f29	0.0039137793
77	0xbd6d9e7e	-0.058012478
78	0xba289ebf	-0.00064323464
79	0xbd098976	-0.03357836
80	0xbd8c6646	-0.068554446
81	0x3d5e0b85	0.054210205
82	0x3d30690f	0.04306894
83	0xbd6f1b9e	-0.058375947
84	0x3b91a008	0.004444126
85	0xbc759a66	-0.014990425
86	0xbc847ef6	-0.016173821
87	0xbcc4ae15	-0.02400879
88	0x3c92459f	0.017855464
89	0xbd2a5d66	-0.041592978
90	0x3c971c9e	0.018446263
91	0x3d1baefe	0.038008682
92	0x3d22c5e8	0.03973952
93	0x3cb0bfbf	0.021575807
94	0xbd8d0467	-0.06885605
95	0xbd153e31	-0.036436263
96	0x3cd5e33c	0.02610933
97	0x3c37c3dd	0.011216131
98	0xbd617b76	-0.055049382
99	0xbd00ddbd	-0.031461466
100	0x3d60a40d	0.05484395
101	0x3d290964	0.04126872
102	0xbd03ff1d	-0.032225717
103	0xbc24ac00	-0.010050774
104	0xbd89a464	-0.06720808
105	0xbb4f1ac6	-0.0031601652
106	0xbd4d2aee	-0.05008977
107	0xbd2f5940	-0.042809725
108	0xbc1643a1	-0.009171397
109	0x3c055539	0.008137994
110	0xbcba2be4	-0.022726007
111	0x3d3b845b	0.04578052
112	0xbd37af65	-0.044845004
113	0x3d69ab52	0.05704815
114	0x3d4957e4	0.049156085
115	0xbd446f13	-0.04795749
116	0xbcb1451b	-0.021639397
117	0x3b22135d	0.002473078
118	0x3c6d3b05	0.014479403
119	0x3cc69e8e	0.024245527
120	0x3ca0f167	0.01964636
121	0x3b66a788	0.0035195071
122	0xbcd274e3	-0.025690502
123	0x3d20e3a5	0.0392796
124	0xbd8afedc	-0.06786892
125	0xbd1feb9e	-0.03904306
126	0xbc242fb6	-0.010021141
127	0xbcb11b34	-0.021619417
128	0xbced27b0	-0.028949589
129	0xbd5bc346	-0.053653024
130	0xbbf512de	-0.007479056
131	0x3cc2511e	0.02372032
132	0xbd481db0	-0.048856437
133	0xbae2ad42	-0.0017294066
134	0x3d57a29e	0.05264532
135	0x3ae6504f	0.0017571541
136	0xbbaef427	-0.005339164
137	0xbafe2afc	-0.0019391472
138	0x3ca205e2	0.019778196
139	0x3d4c120b	0.049821895
140	0x3d5aa7bc	0.05338262
141	0x3d3a4a17	0.045480814
142	0x3d8d613e	0.06903313
143	0x3b2e6719	0.0026611744
144	0xbd8856f6	-0.066572115
145	0xbcc2aa2a	-0.023762781
146	0x3d5bb9dc	0.053644046
147	0x3b84f21a	0.004057181
148	0xbd257806	-0.040397666
149	0xbd29cbd5	-0.041454155
150	0xbd4fb3b2	-0.05070848
151	0xbd592ff5	-0.05302425
152	0xbcab3f12	-0.020904098
153	0x3d3473ad	0.04405563
154	0x3d339dfc	0.043851838
155	0xbd83617b	-0.06415077
156	0x3d06a485	0.03287174
157	0xbd2b40b3	-0.04180975
158	0xbbbe88d4	-0.005814651
159	0xbccf20b2	-0.025284145
160	0xbc9ed7aa	-0.019389946
161	0xbb806719	-0.00391854
162	0xbd539142	-0.0516522
163	0xbd569361	-0.052386645
164	0xbc74683a	-0.014917428
165	0x3c1f42e5	0.009720539
166	0xbcb90815	-0.022586862
167	0x3cc1b93f	0.023647903
168	0xbd5f5b19	-0.054530237
169	0x3b97850d	0.004624015
170	0x3d835624	0.064129144
171	0xbcfa0e36	-0.030524354
172	0x3d86e330	0.06586301
173	0x3d05c589	0.032659087
174	0xbd4ed48f	-0.05049568
175	0x3d096cfb	0.033551197
176	0x3a1d482a	0.0005999828
177	0xbc99d6a9	-0.018779116
178	0x3d7427b9	0.059608195
179	0xbd768ddd	-0.060193885
180	0x3c785764	0.015157554
181	0xbb8f8ca5	-0.00438078
182	0x3d5df95f	0.054192897
183	0x3c1e12d7	0.009648046
184	0x3d215168	0.039384276
185	0x3cee82d0	0.02911511
186	0xbbf3cbb8	-0.0074400567
187	0xbcb500cb	-0.022095105
188	0xbd372298	-0.044710726
189	0x3d17af2d	0.037032295
190	0x3d7298a6	0.05922761
191	0x3d11aef5	0.035567243
192	0xbd176035	-0.036956985
193	0x3b0eebf0	0.002180811
194	0xbd196599	-0.037450407
195	0xbd35d267	-0.04439011
196	0xbced77c1	-0.028987767
197	0x3ca23c22	0.019804064
198	0xbcf3d691	-0.0297654
199	0xbc2f69c5	-0.01070637
200	0x3c3979ac	0.011320513
201	0x3d1a6b4b	0.03769998
202	0xbd21531b	-0.039385896
203	0xbd5d2542	-0.05399061
204	0xbced8ea9	-0.02899869
205	0x3d222966	0.039590262
206	0xbcb575a8	-0.02215083
207	0x3d3af218	0.045641035
208	0x3d016b0e	0.031596236
209	0x3a12a5a9	0.00055941433
210	0xbbf6f405	-0.0075364136
211	0xbc850596	-0.016238015
212	0x3c8364bb	0.016039243
213	0xbcb72b9d	-0.022359664
214	0xbc05c699	-0.008165025
215	0x3c35f57f	0.011105894
216	0xbd2f8c1d	-0.04285823
217	0xbd27ac07	-0.040935542
218	0x3d340192	0.04394681
219	0xbd426c7e	-0.047466747
220	0x3b3ddb14	0.0028969692
221	0x3d688eeb	0.056776922
222	0x3c6f8e84	0.014621381
223	0xbb515495	-0.0031941284
224	0xbd45b8e6	-0.048272036
225	0x3cc262d0	0.023728758
226	0xbd525161	-0.05134714
227	0xbcd79c6c	-0.026319705
228	0xbc6324c4	-0.013863746
229	0xbc97ef60	-0.01854676
230	0xbbd46a8a	-0.006482427
231	0x3d37e564	0.0448965
232	0x3c821d58	0.015883133
233	0x3d476545	0.048680563
234	0x3cfe61bb	0.03105246
235	0xbd48a23e	-0.04898285
236	0x3d16569b	0.036703687
237	0xbd608718	-0.054816335
238	0xbd13090a	-0.035897292
239	0x3c417626	0.011807954
240	0x3d80647c	0.06269166
241	0x3d28a224	0.041170254
242	0xbd8f1afc	-0.06987569
243	0x3cd01405	0.025400171
244	0xbc6311bb	-0.013859208
245	0xbcb420fa	-0.02198838
246	0x3d82ea4c	0.06392345
247	0xbd91122c	-0.07083544
248	0xbcc1500c	-0.02359774
249	0xbab32596	-0.0013667818
250	0xbca57d83	-0.02020145
251	0xbbaa6b54	-0.005200783
252	0x3d3572aa	0.044298805
253	0xbcb48e40	-0.022040486
254	0xbcd20e46	-0.025641572
255	0xbd1c682a	-0.038185276

q_mlp.0.bias f4 [128]
0	0xbd5c4c1e	-0.05378353
1	0x3c036609	0.008019933
2	0xbd8630a2	-0.06552245
3	0xbd69e8bc	-0.05710672
4	0xbc5f621e	-0.013634233
5	0x3c207f15	0.009795924
6	0x3c3d0853	0.011537629
7	0xbcb0eadd	-0.021596367
8	0xbd404bc1	-0.046947245
9	0xbc8faaab	-0.017537436
10	0xb9ebb848	-0.00044959993
11	0xbc89ea63	-0.016835397
12	0x3ca56b3d	0.020192737
13	0x3c8fe644	0.017565854
14	0x3b4e0f4f	0.003144223
15	0x3c024c15	0.00795271
16	0xbd473a5e	-0.048639648
17	0xbc88cd3d	-0.016699428
18	0xbd7e8bdd	-0.062145103
19	0xbc29d718	-0.010366224
20	0xbcb7e3c6	-0.022447478
21	0xbd171921	-0.0368892
22	0x3c8a774d	0.01690259
23	0xbcd7b1fd	-0.026329989
24	0xbd55233e	-0.052035563
25	0x3cb4c3d6	0.022066038
26	0xbcaf0abd	-0.021367425
27	0xbc2e506c	-0.010639291
28	0xbd8faa2a	-0.07014878
29	0x3caa1d13	0.020765817
30	0x3b987757	0.0046528983
31	0x3ccafcb2	0.024778698
32	0xbb0f68b4	-0.0021882476
33	0xbd6f0240	-0.058351755
34	0xbce1523e	-0.027505036
35	0xbb93cc39	-0.004510429
36	0xbce02551	-0.027361544
37	0x3c0e44c4	0.008683387
38	0xbb868640	-0.0041053593
39	0xbc0d1868	-0.008611776
40	0x3ce13b5c	0.027494125
41	0xbc3dfc74	-0.011595834
42	0x39c78b03	0.0003805981
43	0xbc1bea39	-0.009516292
44	0x3bdc6d0c	0.0067268666
45	0xbbdbf1ae	-0.00671216
46	0xbd72f45a	-0.059315063
47	0xbb31329c	-0.0027038222
48	0xbcf49401	-0.02985573
49	0x3c473902	0.012159588
50	0xbe15cf89	-0.1462995
51	0xbd86c38f	-0.065802686
52	0x3c9f34c6	0.019434344
53	0x3c2c272c	0.010507386
54	0x39e10382	0.00042917958
55	0x3ca1019b	0.019654086
56	0x3c9ceb4f	0.019155173
57	0x3cb70ab7	0.022343976
58	0xbe0a376d	-0.13497706
59	0xbcf8591e	-0.030315932
60	0x3c3c9958	0.011511169
61	0x3b02d449	0.0019962958
62	0xbd5b19f6	-0.053491555
63	0x3b9c9b50	0.004779257
64	0x3c9da3b6	0.019243103
65	0xbbad0c9d	-0.0052810446
66	0xbdfa11a8	-0.12210399
67	0xbd98f265	-0.07468108
68	0xbe1700b0	-0.14746356
69	0xbdd0157d	-0.101603486
70	0xbd8ee283	-0.069767974
71	0x3cb6d3ca	0.022317786
72	0x3c146a2a	0.009058515
73	0x3c12faed	0.008970958
74	0x3d02666f	0.03183597
75	0xbd1189e5	-0.035531897
76	0xbbe09109	-0.006853227
77	0xbb7b6dc1	-0.003836498
78	0x3d093d55	0.033505756
79	0xbcba16c8	-0.022715941
80	0x3bf9405f	0.0076065506
81	0xbd85fa89	-0.065419264
82	0xbd2352c9	-0.039873872
83	0xbcf44051	-0.029815825
84	0xbd45b85c	-0.048271522
85	0x3d187317	0.037219133
86	0x3c52dc57	0.012869916
87	0xbc6814a2	-0.0141650755
88	0xbd5d8ce6	-0.05408945
89	0xbcb51f8b	-0.022109767
90	0xbb3ae7a1	-0.002851941
91	0x3af65841	0.0018794612
92	0xbd1487f8	-0.036262482
93	0xbd177940	-0.036980867
94	0x3cbc7a56	0.023007553
95	0x3cf89a95	0.030347148
96	0x3d477e75	0.048704583
97	0x3c18aae9	0.009318092
98	0xbd99d5df	-0.07511496
99	0x3c52a436	0.012856534
100	0x3bf44f11	0.0074557145
101	0xbc9367b8	-0.017993793
102	0xbd896464	-0.06708601
103	0xbd81a34d	-0.06329975
104	0x3c265f4b	0.010154556
105	0x3c7dd099	0.015491628
106	0x3c208065	0.009796237
107	0xbbc09cb3	-0.005878055
108	0xbcaad1e3	-0.020852035
109	0xbd2ce7e9	-0.042213354
110	0x3c14219e	0.009041218
111	0xbd196b08	-0.03745559
112	0x3c74424a	0.014908383
113	0xbd8894d4	-0.06669012
114	0x3ce9c950	0.028538376
115	0x3cc9e6d7	0.024646206
116	0x3b079ea5	0.0020693925
117	0xbc22cff1	-0.009937272
118	0xbc676512	-0.014123218
119	0xb9ca83a3	-0.0003862652
120	0xbd62a0f1	-0.055329267
121	0xbde7acc2	-0.11312248
122	0x3ca72d25	0.020407269
123	0xbd59a1e0	-0.05313289
124	0xbc0bbdb7	-0.008529118
125	0x3c86092f	0.016361801
126	0xbcc4e6c7	-0.024035824
127	0xbb2f33a8	-0.002673367

q_mlp.3.weight f4 [64, 128]
0	0x3d2e3f72	0.042540975
1	0xbd775114	-0.060380057
2	0x3d81dac1	0.06340552
3	0x3d1a8dd7	0.037732925
4	0x3d19042e	0.0373575
5	0xbd1874dc	-0.03722082
6	0x3d22e982	0.03977347
7	0x3cbca5fd	0.023028368
8	0xbda511c0	-0.08060026
9	0xbd83ff4c	-0.064451784
10	0x3ddccf54	0.10781732
11	0xbd6e0e1e	-0.058118932
12	0x3cc519fe	0.024060246
13	0xbd5a4cbe	-0.053295843
14	0xbc465d1c	-0.01210716
15	0x3c9a1110	0.018806964
16	0xbbe2deb8	-0.006923523
17	0xbcfd17ff	-0.030895231
18	0xbe012f50	-0.12615705
19	0x3d0ba952	0.034097023
20	0xbd5fa448	-0.05460003
21	0x3d28440c	0.04108052
22	0x3d4c96b8	0.049948424
23	0x3b93ddaf	0.0045125107
24	0x3d0c47ee	0.034248285
25	0xbc0f7bcf	-0.008757546
26	0xbd7072dc	-0.05870329
27	0xbc0fcd10	-0.008776918
28	0x3cc330b3	0.023826933
29	0xbc521576	-0.0128224995
30	0x3d630886	0.05542805
31	0xbcff0511	-0.031130346
32	0x3b8ef087	0.004362169
33	0x35c079f3	1.4340607e-06
34	0x39537dbd	0.00020169369
35	0x3d76a3be	0.06021475
36	0x3daf6909	0.08564956
37	0x3ba85461	0.005137012
38	0xbc67e5eb	-0.014153938
39	0xbcfefc25	-0.031126091
40	0x3cc65a2c	0.02421292
41	0x3d97af1e	0.07406448
42	0xbd13d471	-0.03609127
43	0xbcf4ab5f	-0.029866872
44	0xbd34e4fb	-0.044163685
45	0xbd810bd4	-0.06301084
46	0x3dc1f726	0.09470968
47	0x3d86c522	0.06580569
48	0x3c6395ef	0.013890727
49	0x3d4f7d04	0.050656334
50	0xbdd99a73	-0.10625162
51	0xbafd4f78	-0.0019326052
52	0x3c96bac5	0.018399606
53	0xbe033e9c	-0.12816852
54	0x3c2f8122	0.01071194
55	0x3dc514c4	0.09623101
56	0xbc9b74e9	-0.018976646
57	0xbda65fda	-0.08123751
58	0xbd3d40ff	-0.046204563
59	0xbd0a6395	-0.033786375
60	0x3d93bf86	0.072142646
61	0x3dca340a	0.09873207
62	0x3c2ff137	0.010738662
63	0xbd876a47	-0.06612068
64	0xbba65809	-0.0050764126
65	0xbd8a66ab	-0.067578636
66	0x3d761c6b	0.060085695
67	0xbdde2ff9	-0.10848994
68	0xbd944b60	-0.07240939
69	0x3e90c56e	0.28275627
70	0xbd52ace1	-0.0514344
71	0x3cf24666	0.029574584
72	0x3cee95b9	0.029124128
73	0x3c0a5ba8	0.008444704
74	0x3c821e2c	0.015883528
75	0x3dbd05d5	0.09229628
76	0xbd2a4449	-0.041569028
77	0x3d80247f	0.06256961
78	0x3d3bcae7	0.0458478
79	0x3ccd905b	0.025093248
80	0x3d92aa34	0.0716137
81	0x3cc4fe9d	0.02404719
82	0xbcc8c3db	-0.024507454
83	0xba351176	-0.0006907204
84	0x3cc7a4f9	0.024370657
85	0xba11e07c	-0.0005564762
86	0x3d56fe6a	0.052488722
87	0x3cf8f225	0.030388901
88	0x3daf44a8	0.08558017
89	0x3cbea961	0.023274126
90	0xbdc0352c	-0.09385142
91	0x3d7a6a8c	0.061136767
92	0x3c6819b2	0.0141662825
93	0x3c91b68f	0.017787246
94	0x3d672d9d	0.056439985
95	0xbc7d58ea	-0.015463093
96	0xbc91a6fb	-0.017779818
97	0x3dc01ba3	0.09380271
98	0xbd3f6323	-0.046725404
99	0x3d604f3d	0.054763068
100	0xbcdb9d82	-0.026808504
101	0xbc38434d	-0.0112465145
102	0xbd7532d0	-0.05986291
103	0x3d1ae950	0.03782016
104	0xbb3770c4	-0.0027990798
105	0x3d3aa353	0.045565914
106	0x3d9df65f	0.07713007
107	0xbd4ba31b	-0.049716096
108	0xbd020c43	-0.031749975
109	0xbd58a289	-0.05288938
110	0x3c0f4343	0.008744064
111	0x3d84b1ad	0.064792015
112	0x3d727b6a	0.059199728
113	0x3d818caa	0.06325658
114	0xbd9a16f4	-0.07523909
115	0x3c9fcf8c	0.019508146
116	0xbd93be15	-0.0721399
117	0xbb16f619	-0.002303487
118	0x3dbd414f	0.09240972
119	0xbcd2374a	-0.02566113
120	0x3d45bbf0	0.048274934
121	0x3d02a860	0.031898856
122	0x3d4d473a	0.050116755
123	0xbcca6744	-0.024707444
124	0xbb83a55c	-0.004017515
125	0xbd6494f3	-0.05580611
126	0xbd751b96	-0.05984076
127	0xbd267e5f	-0.04064786
128	0xbd82df58	-0.06390256
129	0xbd93b5f0	-0.07212436
130	0x3cbbcfb7	0.022926195
131	0xbbc66c5b	-0.0060553974
132	0xbc8ad47f	-0.01694703
133	0x3d519b1b	0.05117331
134	0xbdc01703	-0.09379389
135	0xbc027bca	-0.007964084
136	0x3ca4e2f9	0.02012776
137	0x3d15dadc	0.036585674
138	0xbe06653b	-0.13124554
139	0x3c95db71	0.018293114
140	0x3cf165c2	0.029467467
141	0x3ce994e9	0.028513389
142	0x3d7b2873	0.061317872
143	0xbc0311fe	-0.007999895
144	0xbdcab36f	-0.098975055
145	0xbc833741	-0.016017558
146	0x3d505efa	0.050871827
147	0xbc2936d7	-0.010328016
148	0xbd162c46	-0.036663316
149	0xbd806de8	-0.06270963
150	0xbc696c94	-0.014247078
151	0x3df3c5c9	0.11902959
152	0x3d37cb5f	0.044871684
153	0x3d238174	0.039918378
154	0xbd9f0d65	-0.07766227
155	0xbba378c3	-0.004988761
156	0xbd45aeb7	-0.048262324
157	0x3d827e4c	0.063717455
158	0x3d70cb79	0.058787797
159	0xbcce2cd4	-0.02516786
160	0x3c774d06	0.015094047
161	0xbda36981	-0.07979108
162	0xbcb7e53c	-0.022448175
163	0x3d62051e	0.05518066
164	0xbd39ffde	-0.04541003
165	0xbb25b675	-0.0025285755
166	0xbd363086	-0.04447987
167	0x3c4601cb	0.012085388
168	0xbdbfc312	-0.093633786
169	0x3c6dbbb4	0.014510084
170	0x3d842330	0.06452024
171	0x3d7a882e	0.061165027
172	0xbdc8b0a4	-0.097993165
173	0xbd6c7bd3	-0.057735275
174	0xbd9643f6	-0.07337181
175	0x3d21cde7	0.039503004
176	0x3d357b80	0.044307232
177	0xbdc98bc0	-0.09841108
178	0xbd30990e	-0.043114714
179	0x3cd2d119	0.025734471
180	0x3b849da6	0.0040471135
181	0x3ca839df	0.020535408
182	0xbbf39145	-0.007433089
183	0x3bfae244	0.0076563675
184	0x3da56276	0.080754206
185	0xbc107f6b	-0.008819441
186	0xbacd4173	-0.0015659764
187	0x3d5e84c7	0.054325845
188	0x3d6cb8f9	0.05779359
189	0xbc9f88e4	-0.019474454
190	0x3cd3558c	0.025797628
191	0x3d81ca28	0.06337386
192	0x3c39eb28	0.0113475695
193	0xbcfe4a8b	-0.031041404
194	0xbc9c68df	-0.019092975
195	0xbad71dfc	-0.0016412134
196	0x3db870a5	0.0900586
197	0xbe6cc1b9	-0.23120774
198	0xbd45026e	-0.04809802
199	0xbddbbec2	-0.107297435
200	0xbe13df25	-0.14440592
201	0x3cec0c2e	0.028814401
202	0x3d16a88c	0.036781833
203	0xbd8c3613	-0.06846251
204	0xbd5983e9	-0.053104315
205	0x3c70262c	0.014657538
206	0xbcff0655	-0.031130949
207	0x3d5dfdb8	0.054197043
208	0x3dc1b95a	0.09459181
209	0xbda41df0	-0.080135226
210	0xbdf21137	-0.1181969
211	0x3db50113	0.088380955
212	0xbc866488	-0.016405359
213	0xbcdb6b5a	-0.026784588
214	0x3c839a74	0.01606486
215	0x3dd7fd06	0.10546307
216	0xbcdbf6a6	-0.02685101
217	0x3d9e5274	0.077305704
218	0xbdbf3cfa	-0.09337802
219	0xbd677b66	-0.056514166
220	0xbca9aa7e	-0.02071118
221	0x3d6ae747	0.05734947
222	0xbd78b95a	-0.06072364
223	0xbd8b058d	-0.06788168
224	0x3d469db8	0.048490256
225	0xbd733bbe	-0.059383146
226	0x3d773aa0	0.060358644
227	0x3b56b06c	0.0032758964
228	0x3df10479	0.11768431
229	0x3c313435	0.01081567
230	0x3d8fcb9d	0.07021258
231	0x3daf363f	0.085552685
232	0xbda403b7	-0.08008521
233	0xbdb75705	-0.089521445
234	0xbdab4c51	-0.083641656
235	0xbdaa7361	-0.08322788
236	0x3d132f65	0.03593387
237	0x3d962bd8	0.07332581
238	0x3da28267	0.079350285
239	0xbd4fceeb	-0.05073444
240	0x3d27c85b	0.04096256
241	0xbd0dcac5	-0.034617204
242	0xbd5198bd	-0.051171053
243	0xbcfc014c	-0.030762337
244	0x3cdcb8ca	0.026943583
245	0x3d25fa6b	0.04052202
246	0x3d2c7c0a	0.04211048
247	0xbcb41fed	-0.02198788
248	0xbdb98989	-0.09059436
249	0xbcea2a7b	-0.02858471
250	0xbbfca418	-0.007709991
251	0xbce75b5e	-0.02824181
252	0x3d26b537	0.040700164
253	0x3d6c8139	0.057740424
254	0xbc5f54aa	-0.013631025
255	0xbd6266ae	-0.055273704

q_mlp.3.bias f4 [64]
0	0xbdfcfc8b	-0.12352856
1	0x3dcf7155	0.10129038
2	0xbe09dc98	-0.13463056
3	0xbe60e1ae	-0.2196109
4	0xbe4cb15a	-0.19989529
5	0xbd194406	-0.037418388
6	0xbe554731	-0.20827939
7	0xbd8255c1	-0.063640125
8	0xbd40a0a0	-0.047028184
9	0xbe0a22a3	-0.13489775
10	0xbe1e6aa1	-0.15470363
11	0xbe37515f	-0.17902134
12	0x3e197da6	0.14989337
13	0x3c1125e5	0.008859132
14	0x3c9e5814	0.019329108
15	0x3d5acc4a	0.05341748
16	0x3df0c51d	0.117563464
17	0xbdfd04cc	-0.123544306
18	0x3d1745b3	0.036931705
19	0xbd8fdc0e	-0.07024394
20	0xbd88036b	-0.06641277
21	0x3e0da788	0.1383344
22	0x3db174ea	0.08664878
23	0xbdae7023	-0.08517482
24	0x3d4a18bd	0.04934
25	0xbd18e779	-0.037330125
26	0xbe3e4413	-0.18580656
27	0xbd73a7d4	-0.059486225
28	0xbd2c2388	-0.042026073
29	0x3e21d5f7	0.15804277
30	0x3d28a07b	0.04116867
31	0x3da98bf8	0.0827865
32	0xbd192b59	-0.037394855
33	0x3c9db997	0.019253535
34	0xbdd9b60c	-0.10630426
35	0xbd277f6a	-0.040892996
36	0xbe12352e	-0.14278099
37	0x3e13e416	0.14442477
38	0xbcfd7c11	-0.030942949
39	0x3dd6938c	0.10477361
40	0x3e0cb02d	0.1373908
41	0xbdbfbaf2	-0.09361829
42	0xbd163f4f	-0.03668147
43	0x3e3d6184	0.1849423
44	0xbc3d0fb0	-0.011539385
45	0xbd9ad523	-0.07560184
46	0xbe3d4369	-0.18482746
47	0xbe59626b	-0.2122895
48	0x3e2f4eca	0.171199
49	0x3db6893f	0.08912896
50	0xbdd6defd	-0.104917504
51	0x3cb87ee3	0.022521442
52	0x3e0c6d28	0.13713515
53	0xbdfdf71f	-0.1240065
54	0xbd2dc633	-0.042425346
55	0x3dae92de	0.085241064
56	0x3e09a4d2	0.1344178
57	0xbdc38c98	-0.095483005
58	0xbe1a4b6e	-0.15067837
59	0x3e29d599	0.16585387
60	0x3da5ead8	0.081014335
61	0x3de6b20a	0.11264427
62	0x3dfb9789	0.122847624
63	0x3e413575	0.18868048

hamiltonian_mlp.mlp.0.weight f4 [1, 128]
0	0x3c1a6890	0.009424344
1	0xbc9c9fa0	-0.019119084
2	0xbd49f2dd	-0.049303878
3	0x3d8999c1	0.06718779
4	0xbda448a9	-0.08021671
5	0xbcd1b770	-0.025600165
6	0x3d84d137	0.06485217
7	0xbd5b5d81	-0.05355597
8	0xbc4f5040	-0.01265341
9	0x3cc39168	0.023873046
10	0x3d84adcd	0.06478462
11	0x3d822e29	0.063564606
12	0xbc2f30b0	-0.01069276
13	0x3d0ff2a6	0.035143517
14	0x3d7e58ee	0.06209653
15	0xbc8f00b0	-0.017456383
16	0xbd479088	-0.04872182
17	0x3d8c4927	0.0684989
18	0x3da71923	0.08159091
19	0x3c44a570	0.012002334
20	0x3d9b4cb9	0.07582993
21	0xbcce77c4	-0.025203593
22	0x3d9999bf	0.07500028
23	0x3c5d1ae0	0.013495177
24	0x3daa2669	0.083081074
25	0xbd96c430	-0.073616385
26	0x3c4faa50	0.012674883
27	0xbd659725	-0.056052346
28	0xbc6d4cd0	-0.014483646
29	0x3c98b904	0.01864291
30	0x3d97e271	0.07416237
31	0x3aab9400	0.0013090372
32	0x3c742430	0.014901206
33	0x3d8debb5	0.06929723
34	0x3da09113	0.07840171
35	0x3d93ae69	0.072110005
36	0x3da15d71	0.07879151
37	0xbd974351	-0.073858865
38	0x3d73b0aa	0.05949465
39	0x3d19cd5e	0.03754937
40	0xbcb921a0	-0.022599041
41	0x3be909e0	0.007111773
42	0xbcce3660	-0.025172412
43	0xbd7bff08	-0.061522514
44	0x3d01ccfa	0.03168962
45	0x3d4ce65a	0.050024368
46	0xbd061951	-0.032738987
47	0x3d29816e	0.0413832
48	0x3cd0b344	0.025476106
49	0xbd97a900	-0.07405281
50	0x3d3c44aa	0.04596392
51	0xbaeb4e80	-0.0017952472
52	0x3d1d764e	0.038442902
53	0xbda7ce80	-0.081936836
54	0x3d9cef5f	0.07662844
55	0x3d2f470e	0.042792372
56	0xbab1ed00	-0.001357466
57	0x3d6aa8d6	0.05728992
58	0x3c2ce940	0.010553658
59	0x3c32b0f0	0.010906443
60	0x3da49cef	0.08037745
61	0xbd64a33a	-0.055819727
62	0x3d5c3abe	0.05376696
63	0x3ac98300	0.0015374124
64	0x3db15a5d	0.086598136
65	0x3cd0ccf8	0.025488362
66	0xbd676058	-0.056488365
67	0x3bc36100	0.005962491
68	0x3c9d1890	0.019176751
69	0x3c9210fc	0.017830364
70	0x3ca44dc4	0.020056613
71	0xbdaa6c6f	-0.08321463
72	0x3ca43810	0.020046264
73	0x3d963eb1	0.07336176
74	0x3d5c7202	0.053819664
75	0x3d6895b6	0.0567834
76	0xbd6138f5	-0.05498596
77	0xbd206904	-0.03916265
78	0xbd50df7b	-0.050994378
79	0xbb3404a0	-0.0027468577
80	0xbda2ccc9	-0.07949216
81	0x3c9f4bb4	0.019445278
82	0xbd60aaaf	-0.054850277
83	0xbcd91f3c	-0.026504152
84	0xbd40cba8	-0.04706922
85	0xbbc13920	-0.0058967024
86	0x3cab835c	0.02093666
87	0x3cb83860	0.02248782
88	0x3d977337	0.07395022
89	0xbb05a1e0	-0.0020390674
90	0xbdac20bc	-0.08404681
91	0x3d09c258	0.033632606
92	0x3cb2f660	0.021845996
93	0xbd629795	-0.05532034
94	0x3cb448f8	0.02200745
95	0x3ceed910	0.029156238
96	0xbda217a9	-0.07914669
97	0xbd42402b	-0.047424477
98	0xbdac4c86	-0.08413033
99	0xbcd68e7c	-0.026190989
100	0x3d7deec6	0.06199529
101	0x3cda1b90	0.026624471
102	0x3c6d4a20	0.014483005
103	0xbd9d8495	-0.07691304
104	0x3d0c99ee	0.034326486
105	0x3da73f55	0.081663765
106	0x3c939cd4	0.018019117
107	0x3d57e216	0.052705847
108	0x3d4423ea	0.047885813
109	0xbcda8a44	-0.026677258
110	0xbd7c9060	-0.061661124
111	0x3d821f4b	0.06353625
112	0xbd32f534	-0.043690875
113	0xbd680292	-0.056643076
114	0xbd8c4d76	-0.06850712
115	0xbce6ccac	-0.028173767
116	0xbd31448b	-0.04327826
117	0x3ce971d0	0.028496653
118	0xbcfda81c	-0.03096395
119	0x3db401a5	0.08789376
120	0xb7dde000	-2.6449561e-05
121	0x3d7f801a	0.062378027
122	0xbc8232f4	-0.015893437
123	0x3d918141	0.07104731
124	0xbc426c18	-0.011866592
125	0xbd1fb42f	-0.038990196
126	0xbd5e6d1c	-0.054303274
127	0x3d2d6992	0.042337008

fusion.weight f4 [8, 128]
0	0x3d3793c4	0.044818655
1	0xbd2f39f8	-0.042779893
2	0xbd6ef157	-0.05833563
3	0xbd8878e7	-0.06663685
4	0x3ce71cff	0.028212069
5	0x3d522186	0.0513015
6	0xbd119e47	-0.035551336
7	0x3c87cf17	0.01657824
8	0x3c1f88b9	0.009737187
9	0x3c0efaa5	0.0087267505
10	0x3b9f6e6f	0.0048654596
11	0xbd41e721	-0.047339562
12	0x3d0fe60b	0.035131495
13	0xbd03ff4c	-0.032225892
14	0x3be219ed	0.0069000633
15	0xb95e9cb4	-0.00021229946
16	0x3bfbca83	0.0076840534
17	0xbbb18f57	-0.005418699
18	0xbbd699e2	-0.006549106
19	0x3ac7e142	0.0015249627
20	0xbc11523f	-0.008869707
21	0xbca51be5	-0.020154903
22	0xbdbd572d	-0.09245143
23	0x3bc24ffb	0.0059299446
24	0xbd50d59e	-0.05098497
25	0x3d2a6756	0.041602455
26	0x3d822502	0.06354715
27	0x3bea2540	0.007145554
28	0x3b308530	0.0026934855
29	0x3c60403d	0.013687191
30	0x3c32f34c	0.010922264
31	0x3d92d04e	0.07168637
32	0x3d0116ee	0.031516008
33	0x3d3b776f	0.045768198
34	0xbcc4ac50	-0.024007946
35	0x3d5440a3	0.051819455
36	0x3d2335cc	0.039846227
37	0xbc51c5dd	-0.012803522
38	0x3d1abdf9	0.03777883
39	0xbd974d40	-0.07387781
40	0xbcfcc1bf	-0.030854104
41	0xbd1b66ca	-0.037939824
42	0x3c96ec5a	0.018423248
43	0xbc1154ec	-0.008870345
44	0x3d5b77db	0.0535811
45	0xbd649a64	-0.0558113
46	0xbd66af96	-0.056319796
47	0x3c54c758	0.01298698
48	0x3d9747e8	0.07386762
49	0x3d273cb9	0.040829394
50	0x3b674cd6	0.00352936
51	0xbcb2515f	-0.021767316
52	0xbca00408	-0.019533172
53	0x3c0eeb14	0.008723039
54	0xbd1098e2	-0.03530205
55	0x3d646b9f	0.055766698
56	0x3ddaefb0	0.10690248
57	0x3cc3eacc	0.02391567
58	0xbcd185c6	-0.025576483
59	0xbc7c4284	-0.015396718
60	0x3cf11532	0.029429052
61	0x3d96abbf	0.07356977
62	0x3c91a45a	0.017778564
63	0x3d98bb88	0.07457644
64	0xbd2d6eaf	-0.042341884
65	0xbd044990	-0.032296717
66	0xbde42177	-0.111391954
67	0xbdad18b8	-0.0845198
68	0x3d609243	0.054826986
69	0xbe012121	-0.12610294
70	0x3cf422da	0.029801775
71	0xbe56260a	-0.20912948
72	0x3bf0239b	0.0073284633
73	0x3c914c7f	0.017736671
74	0x3db487bd	0.088149525
75	0xbcc5be67	-0.024138642
76	0x3e1634c5	0.14668567
77	0x3dff6440	0.12470293
78	0xbe084c94	-0.13310462
79	0xbeb11951	-0.34589627
80	0x3db0e9fb	0.08638378
81	0x3d6da884	0.058022037
82	0x3d7837c1	0.060600046
83	0xbe1a66db	-0.15078299
84	0x3e6ef0ba	0.23334017
85	0xbde40ed6	-0.11135642
86	0xbd380d77	-0.044934716
87	0x3de5e403	0.112251304
88	0xbe04a6a1	-0.12954189
89	0xbd8f90bc	-0.07010028
90	0xbda3a102	-0.07989694
91	0x3de4a1da	0.11163683
92	0x3dab0414	0.08350387
93	0x3a1fa57b	0.0006090027
94	0x3de250fd	0.110506035
95	0xbe9288fd	-0.2862014
96	0xbc906e74	-0.017630793
97	0x3e660916	0.22464404
98	0xbcadb7ed	-0.021205867
99	0x3d8d6c0d	0.06905375
100	0xbc3e251e	-0.011605529
101	0x3d0173db	0.03160463
102	0x3d8f50f1	0.0699786
103	0x3bba6fb8	0.0056895874
104	0x3bc25e19	0.0059316275
105	0x3d9e3f4d	0.077269174
106	0x3eb37056	0.35046643
107	0xbd92b4f3	-0.071634196
108	0x3e6c5723	0.23080115
109	0xbdce8d98	-0.100856006
110	0xbd833cc4	-0.064080745
111	0xbe0a4890	-0.13504243
112	0xbc016544	-0.007897679
113	0x3d492fbb	0.049117785
114	0xbc01a05c	-0.007911768
115	0xbdbef6d7	-0.09324425
116	0xbd5dcedb	-0.05415235
117	0x3e58b969	0.21164478
118	0xbe9959dd	-0.29951373
119	0xbd8323d2	-0.064033166
120	0x3db92110	0.09039509
121	0x3df427f7	0.11921685
122	0xbd57768b	-0.052603286
123	0x3cdec025	0.027191231
124	0x3da8e6ea	0.08247168
125	0xbe32b2e1	-0.1745105
126	0x3c0a0de6	0.008426165
127	0x3bf13eb4	0.007362211
128	0x3d4b591c	0.04964553
129	0xbc8f8810	-0.017520934
130	0x3da53fcf	0.08068811
131	0xbd8b567e	-0.068036065
132	0xbdb682cd	-0.08911667
133	0x3bcbe725	0.006222623
134	0xbd0eb06c	-0.034836218
135	0xbd8388b7	-0.06422561
136	0x3dc6ea69	0.09712679
137	0xbcf26819	-0.029590653
138	0x3d4919f3	0.049097013
139	0xbd58d23a	-0.052934863
140	0x3b84f6fb	0.0040577627
141	0x3a134c42	0.0005618968
142	0xbcf95cdd	-0.030439788
143	0x3d1ccfd3	0.038284134
144	0x3d5edb62	0.05440844
145	0xba8b4ea0	-0.001062829
146	0xbc86e2cb	-0.016465565
147	0x3cfdebef	0.030996291
148	0xbd8848d7	-0.06654518
149	0x3c8cfa79	0.017209278
150	0x3bf7f463	0.007566975
151	0xbb0cecc7	-0.0021503435
152	0xbc525826	-0.012838399
153	0xbd9190a1	-0.07107664
154	0xb9d4d0c9	-0.00040591348
155	0xbcf2e494	-0.02965001
156	0xbd807d96	-0.062739536
157	0x3cd9174a	0.026500363
158	0x3bec2483	0.007206501
159	0x3d881194	0.06643978
160	0xbd6431c5	-0.055711526
161	0xbd7be65a	-0.061498977
162	0x3c2a984b	0.010412286
163	0x3be8730d	0.0070937932
164	0x3daad697	0.08341711
165	0x3cf8a3e1	0.030351581
166	0x3da5228a	0.080632284
167	0xbcd4b182	-0.025963549
168	0x3cd0ec49	0.025503295
169	0x3d91277c	0.07087609
170	0xbc3173f5	-0.010830869
171	0x3beea025	0.0072822743
172	0x3cc2ef81	0.023795845
173	0x3d6575ca	0.056020536
174	0xbc1bd9db	-0.00951239
175	0xbd7f7513	-0.06236751
176	0x3d25b457	0.04045519
177	0xbc004633	-0.007829237
178	0x3d0ac735	0.033881385
179	0xbd462a6a	-0.048380293
180	0x3c9dc6b6	0.019259792
181	0xbd8dd8d8	-0.06926125
182	0x3d26d958	0.04073462
183	0x3d1a509f	0.037674543
184	0x3c4e7d42	0.012603106
185	0xbd860955	-0.06544749
186	0xbd12e83b	-0.035866003
187	0x3d06b868	0.032890707
188	0xbd867480	-0.06565189
189	0x3d78d7db	0.06075273
190	0xba654403	-0.0008745791
191	0x3d84d029	0.06485016
192	0x3dd69b03	0.10478785
193	0xbd58483a	-0.052803256
194	0xbe233e53	-0.15941744
195	0xbe22cfcb	-0.15899579
196	0xbe378aa5	-0.17923982
197	0x3e8b2bff	0.27182004
198	0xbde811f7	-0.113315515
199	0xbdf0ee7e	-0.11764239
200	0xbe5a1aab	-0.21299236
201	0xbc03fe05	-0.008056168
202	0xbe32a0d3	-0.17444162
203	0x3d0fcc2a	0.035106815
204	0x3cabb23b	0.02095901
205	0xbcf95388	-0.030435339
206	0xbe87eedb	-0.2654942
207	0xbd3870c6	-0.045029424
208	0x3e779092	0.24176243
209	0xbd55e129	-0.052216683
210	0x3e35aaf2	0.17740992
211	0x3daab258	0.083347976
212	0x3d35e9bd	0.044412363
213	0x3e121af0	0.14268088
214	0xbe870718	-0.263726
215	0xbcbd8a72	-0.023137305
216	0xbe3b3628	-0.18282378
217	0xbd36cc91	-0.044628683
218	0xbda18b71	-0.078879245
219	0xbcb34097	-0.021881385
220	0xbdea379f	-0.1143639
221	0x3d9ccac1	0.0765586
222	0xbd1d57fe	-0.038413994
223	0xbde17ea2	-0.110104814
224	0x3e0c7fc5	0.13720615
225	0x3e36e88d	0.17862149
226	0x3db6052e	0.08887707
227	0xbe1df913	-0.15427046
228	0xbde6c73c	-0.1126847
229	0x3e0ffe78	0.14061916
230	0x3dbe8a28	0.09303695
231	0xbe1b12dc	-0.15143913
232	0x3cf3fb35	0.02978287
233	0xbb6fabbf	-0.0036570875
234	0x3dbc18db	0.09184428
235	0x3ddd0192	0.10791315
236	0xbe3ae372	-0.18250826
237	0xbe599e8e	-0.2125189
238	0xbe11c1c0	-0.14234066
239	0xbd7cd267	-0.061724093
240	0x3d3181de	0.04333674
241	0x3e28effe	0.164978
242	0x3d143b49	0.03618935
243	0xbdc2d2b2	-0.09512843
244	0xbd2ba5a3	-0.04190601
245	0x3d6c177b	0.05763958
246	0xbe82bf4f	-0.25536582
247	0x3e788e19	0.24272956
248	0xbc99f104	-0.018791683
249	0x3d785348	0.0606263
250	0xbe46a77f	-0.19399832
251	0x3d85e27a	0.065373376
252	0xbe0e7dc3	-0.13915162
253	0xbd8ffac7	-0.07030254
254	0x3dda8b9e	0.10671161
255	0x3de1559f	0.11002659

fusion.bias f4 [8]
0	0xbdb9b4ab	-0.09067663
1	0x3c67a35f	0.014138072
2	0xbe184737	-0.14870916
3	0x3beb6f79	0.0071849194
4	0xbd4e49b8	-0.050363272
5	0xbd8e2670	-0.06940925
6	0xbbd3b912	-0.006461271
7	0x3ddbe3bc	0.10736796

hnn.fc.0.weight f4 [128, 8]
0	0x3e0ba90b	0.13638704
1	0x3e9ff5a1	0.31242087
2	0xbe451b9e	-0.19248816
3	0xbe2efae4	-0.17087895
4	0x3e48c917	0.1960796
5	0x3e490533	0.1963089
6	0x3e1f9475	0.15583976
7	0x3e28addf	0.16472577
8	0xbe4adfe2	-0.19811967
9	0x3d4e37f8	0.050346345
10	0x3ebed44c	0.37271345
11	0x3e85b218	0.26112437
12	0x3e66e53d	0.22548385
13	0x3efa9818	0.48944163
14	0x3e20dbf9	0.15708913
15	0xbe96801b	-0.29394612
16	0xbe6c7acd	-0.2309372
17	0xbe736a40	-0.23771
18	0xbd8395e7	-0.06425076
19	0x3df07ba2	0.11742331
20	0xbe53b526	-0.20674571
21	0x3e7fc454	0.24977237
22	0x3e3645d9	0.17800082
23	0x3d8bbc51	0.06823028
24	0xbe682ebe	-0.2267408
25	0xbe40c198	-0.1882385
26	0x3e657813	0.22409086
27	0xbe81dd25	-0.25364032
28	0x3e88ce0f	0.2671971
29	0x3e9dce77	0.30821583
30	0xbdb2c292	-0.087285176
31	0xbe110ef9	-0.14165868
32	0xbe4ff261	-0.20307304
33	0xbd5e15b4	-0.054219916
34	0x3d9a534b	0.07535418
35	0xbe8cc91f	-0.27497193
36	0xbdcd4087	-0.10022073
37	0x3ddd7036	0.10812418
38	0x3e257aa1	0.1616006
39	0xbed62270	-0.4182315
40	0x3e9a7142	0.30164534
41	0x3decde1c	0.115658015
42	0xbe0d2ab1	-0.13785817
43	0xbd8b106c	-0.067902416
44	0xbe882116	-0.26587743
45	0x3e9bf545	0.30460563
46	0x3e2d419e	0.16919562
47	0xbba8b04a	-0.0051479684
48	0x3d26bcf6	0.04070755
49	0xbe8ebc2e	-0.27877945
50	0xbe41c059	-0.18921031
51	0x3d50670a	0.050879516
52	0xbc58f0e0	-0.013241023
53	0x3f085ae2	0.53263676
54	0x3eaaeae4	0.33382332
55	0xbe8c0a84	-0.27351773
56	0x3cac0998	0.021000668
57	0xbe628dfa	-0.22124472
58	0xbe1cd21a	-0.15314522
59	0xbcd88a42	-0.026433114
60	0xbdc31bea	-0.095268086
61	0x3e738faa	0.23785272
62	0xbddbe2c3	-0.10736611
63	0xbebed1f9	-0.3726957
64	0xbd7d4229	-0.061830673
65	0xbdd56b89	-0.10420901
66	0x3e93557a	0.2877615
67	0x3e10e4a1	0.14149715
68	0xbe87fed2	-0.265616
69	0x3d89b1fa	0.067233995
70	0x3e07dbf7	0.13267504
71	0x3e371d4a	0.17882267
72	0xbd938aff	-0.07204246
73	0x3eabd9e8	0.33564687
74	0x3b353b43	0.002765373
75	0xbe0e23e6	-0.13880882
76	0xbd88ce83	-0.06680014
77	0xbe4cb620	-0.1999135
78	0x3db29ad5	0.08720938
79	0x3d868174	0.0656766
80	0x3d82a1ae	0.06378494
81	0xbcdde72a	-0.027087767
82	0x3e7727f3	0.24136333
83	0xbe2f6d9d	-0.17131658
84	0x3ede2e03	0.4339448
85	0x3ef43c70	0.4770236
86	0xbe9dceab	-0.30821738
87	0xbcf73666	-0.030177306
88	0x3e1a4273	0.15064411
89	0x3cde1167	0.027107907
90	0x3ed4fa0c	0.4159702
91	0x3f05745f	0.52130693
92	0xbe7b1889	-0.24521078
93	0x3e83a013	0.25708064
94	0xbe18cf41	-0.14922811
95	0xbe3466a6	-0.17617282
96	0xbe4678f8	-0.19382083
97	0xbe6abf4b	-0.22924535
98	0x3d6b62ed	0.05746739
99	0xbda0e86e	-0.078568324
100	0x3c9befc0	0.01903522
101	0x3debc955	0.115130104
102	0xbe0d6ff9	-0.13812245
103	0x3e26c3a9	0.16285576
104	0x3deb3a0b	0.1148568
105	0x3e3f6835	0.18692096
106	0xbd877b0c	-0.06615266
107	0xbe8993ee	-0.26870674
108	0xbe58e208	-0.21179974
109	0x3c95153c	0.018198602
110	0xbdd2fe56	-0.10302417
111	0x3e3aa2c2	0.1822615
112	0xbc755b88	-0.014975436
113	0xbe958f53	-0.2921091
114	0xbe5fba22	-0.21848348
115	0xbdcede1f	-0.1010096
116	0xbe422463	-0.18959193
117	0xbe048063	-0.129396
118	0x3b9ba21c	0.0047495496
119	0xbc9bcc4e	-0.019018319
120	0xbd95ca3a	-0.07313962
121	0xbe390e77	-0.18071924
122	0x3dbdaa7b	0.09261032
123	0xbd938f2f	-0.072050445
124	0x3d80f681	0.06297017
125	0x3eee58b7	0.4655206
126	0xbceaf42b	-0.028680881
127	0x3e23bf55	0.15990956
128	0x3e540a12	0.20706967
129	0x3e97677f	0.2957115
130	0x3e9fa5ff	0.31181332
131	0x3e9a5d5d	0.30149356
132	0x3df2f038	0.11862224
133	0x3da3fddc	0.08007404
134	0x3ed096be	0.40740007
135	0xbd8ec162	-0.069704786
136	0x3d8eea12	0.06978239
137	0xbe029bc0	-0.12754726
138	0x3bca41eb	0.006172409
139	0x3b095065	0.002095246
140	0xbe13bb1a	-0.14426842
141	0xbd85a5df	-0.06525778
142	0xbe41e2a8	-0.18934119
143	0xbd834af5	-0.06410781
144	0x3ea21f05	0.3166429
145	0xbd8a623b	-0.06757017
146	0x3e652482	0.22377208
147	0x3e6bbca1	0.23021175
148	0xbe26631e	-0.16248748
149	0x3d579876	0.052635632
150	0x3d40b801	0.04705048
151	0xbdd0cd01	-0.101953514
152	0x3ea41d04	0.32053387
153	0xbd2520d9	-0.04031453
154	0xbe1ee7a4	-0.15518051
155	0x3e5b03c5	0.21388157
156	0x3e889079	0.26672724
157	0x3ee70462	0.4512053
158	0x3db678e4	0.08909777
159	0x3d0c5705	0.034262676
160	0x3e0a34aa	0.13496652
161	0x3e4b3d68	0.19847643
162	0x3eaac6db	0.3335484
163	0x3e58a771	0.21157624
164	0xbd6f8a29	-0.05848137
165	0xbd3c28db	-0.0459374
166	0xbda0c428	-0.07849914
167	0xbe1b7b04	-0.15183645
168	0x3dc55bb5	0.09636632
169	0xbe9d08ff	-0.30670926
170	0xbe73ec16	-0.23820528
171	0x3e12dde2	0.14342454
172	0x3b471ba6	0.003038147
173	0xbdd21bff	-0.10259246
174	0xbe2b2551	-0.16713454
175	0x3cb76955	0.022389093
176	0x3e75ec8f	0.24016021
177	0xbe54737e	-0.20747182
178	0x3e7f4d9b	0.24931948
179	0x3e9b91d1	0.30384687
180	0x3ea05118	0.3131187
181	0x3e40f85c	0.18844742
182	0x3eb8f14a	0.3612159
183	0xbc6f5bb3	-0.014609265
184	0x3e2aa943	0.1666613
185	0x3daa9d89	0.08330829
186	0xbe3dc7c3	-0.18533234
187	0xbd8b93e2	-0.06815316
188	0x3e258c94	0.16166908
189	0xbe28f857	-0.16500984
190	0xbe969e0e	-0.2941746
191	0x3ec74177	0.38917133
192	0x3c984f84	0.018592604
193	0xbedacc98	-0.42734218
194	0x3f133b4a	0.5751234
195	0xbe049428	-0.12947142
196	0x3e9aa14d	0.30201188
197	0x3e58ecc7	0.21184073
198	0xbcdaddcb	-0.026717087
199	0xbb4fae0d	-0.0031689436
200	0xbde3927d	-0.11111925
201	0x3e7b16e7	0.24520455
202	0x3eaca23f	0.33717534
203	0x3eb8dc33	0.361055
204	0xbc9341c2	-0.017975692
205	0x3ec1af28	0.37828946
206	0x3e1aedf0	0.15129828
207	0x3c8e49b0	0.017369121
208	0x3dce03a5	0.10059289
209	0x3e0a3e6f	0.13500379
210	0x3e8f3417	0.2796943
211	0xbde9a50c	-0.11408433
212	0xbdf9a392	-0.12189402
213	0xbe27b847	-0.1637889
214	0xbe3df0c1	-0.18548872
215	0x3e045685	0.1292363
216	0x3e2d4c75	0.16923697
217	0xbc787132	-0.015163707
218	0xbd8b75b8	-0.068095624
219	0x3d964f8f	0.07339393
220	0xbe3894b2	-0.18025473
221	0x3d05a4e6	0.032627963
222	0x3e78074d	0.24221535
223	0x3e69be2a	0.22826448
224	0xbd1992d1	-0.03749353
225	0x3e24c844	0.1609202
226	0x3e24a175	0.16077216
227	0x3efce318	0.4939201
228	0xbec4c7ed	-0.3843378
229	0x3eaaaeee	0.33336586
230	0xbe302aad	-0.1720378
231	0xbe8a864e	-0.2705559
232	0xbe7291d6	-0.23688444
233	0xbe91fbb2	-0.2851234
234	0xbbab8937	-0.005234863
235	0x3e02fbf4	0.12791425
236	0xbd554e45	-0.052076597
237	0x3e122098	0.14270246
238	0x3dd9ae7f	0.106289856
239	0xbe7e6ab5	-0.24845393
240	0x3e2bae0c	0.16765612
241	0xbde390cc	-0.11111602
242	0x3e4985ad	0.196799
243	0x3ee95ead	0.45580044
244	0x3e685f94	0.2269271
245	0xbe4bd516	-0.19905505
246	0xbc8db70f	-0.017299203
247	0x3e2a12fd	0.16608806
248	0x3e7830da	0.24237385
249	0x3e69017c	0.22754472
250	0xbe9c97eb	-0.30584654
251	0xbe3d29a0	-0.1847291
252	0x3ab4fcd3	0.0013808258
253	0xbe7929f4	-0.2433241
254	0xbca89694	-0.020579614
255	0x3e5ce552	0.21571854

hnn.fc.0.bias f4 [128]
0	0xbd29c701	-0.04144955
1	0x3e8d686d	0.27618733
2	0xbe6f117a	-0.2334651
3	0x3ccb1808	0.024791732
4	0xbe02f391	-0.12788226
5	0xbedba653	-0.42900333
6	0xbef25a1d	-0.47334376
7	0xbcf72d85	-0.030173073
8	0xbf017229	-0.5056482
9	0xbe802776	-0.25030106
10	0xbd7ff4ac	-0.062489197
11	0xbde7e310	-0.113226056
12	0xbe40eec7	-0.18841086
13	0xbee462cc	-0.44606626
14	0xbeb8fb5b	-0.3612927
15	0xbdb6d762	-0.089278
16	0xbd69ebe6	-0.057109736
17	0xbe95d605	-0.29264846
18	0x3c894133	0.016754722
19	0xbeb13da2	-0.34617335
20	0x3e2e245c	0.17006058
21	0xbebae0eb	-0.36499724
22	0x3e77c0af	0.24194597
23	0xbf0504c9	-0.51960427
24	0x3d1515fc	0.03639792
25	0x3d27799e	0.040887468
26	0xbd05584b	-0.032554906
27	0xbefb8329	-0.49123505
28	0xbeabb2fc	-0.33534992
29	0x3e6048ca	0.21902767
30	0x3d0904e6	0.033451937
31	0xbf049b46	-0.5179943
32	0xbeb17aa8	-0.34663892
33	0xbe976e9e	-0.29576582
34	0xbe99c1a8	-0.3003056
35	0xbaec71e9	-0.0018039319
36	0x3e1091f8	0.14118183
37	0xbe1df715	-0.15426286
38	0xbcff76f9	-0.03118466
39	0x3d7fa3be	0.062412016
40	0xbd66349a	-0.05620251
41	0xbe1bc2f8	-0.15211093
42	0x3e938e3f	0.28819463
43	0xbe7703c8	-0.24122536
44	0xbe7527a0	-0.23940897
45	0xbd58b5d6	-0.052907787
46	0xbe0ba2ca	-0.13636318
47	0x3e12237e	0.14271352
48	0xbe32dfc2	-0.1746817
49	0x3e8d36b6	0.27580804
50	0x3ec210d0	0.37903452
51	0xbf018e55	-0.50607806
52	0xbe8f8fe4	-0.28039467
53	0xbee04c80	-0.43808365
54	0xbe1c42bc	-0.15259832
55	0x3da2ae3b	0.07943388
56	0x3ea6ebe3	0.32601842
57	0xbee48159	-0.44629934
58	0x3cd95b4f	0.026532797
59	0xbd7a9cd5	-0.061184723
60	0x3d98f75d	0.07469056
61	0xbe9d5878	-0.3073156
62	0x3ea58af3	0.32332572
63	0xbe85a1e6	-0.2610008
64	0xbee1d4cd	-0.44107667
65	0xbeb28994	-0.3487059
66	0xbd07292a	-0.03299824
67	0x3e229030	0.15875316
68	0xbee2a8ca	-0.442694
69	0xbea9c3fd	-0.3315734
70	0xbda6cc31	-0.08144415
71	0x3ee74c04	0.45175183
72	0xbe5041be	-0.20337579
73	0x3e54f218	0.20795476
74	0xbea6bd3b	-0.32566246
75	0xbe7cc720	-0.24685335
76	0xbefc57df	-0.4928579
77	0xbea74ca6	-0.32675666
78	0xbeab6fe4	-0.33483803
79	0xbe609be3	-0.21934466
80	0xbf04e094	-0.5190518
81	0x3d23034c	0.039798066
82	0xbed886ea	-0.4229043
83	0x3bb0fd85	0.0054013156
84	0xbe8ebaa5	-0.27876773
85	0x3d220f66	0.039565466
86	0xbe418409	-0.18898024
87	0xbe8d7bb4	-0.2763344
88	0xbec8072e	-0.39067978
89	0x3eb3712e	0.35047287
90	0x3e4d9121	0.20074894
91	0xbec5fd55	-0.3866984
92	0xbdc2a82b	-0.09504732
93	0x3ea54679	0.3228033
94	0x3c0c23b5	0.008553435
95	0xbe02fe83	-0.12792401
96	0x3e952cc7	0.29135725
97	0x3d83a5bc	0.06428096
98	0xbe8cbee1	-0.2748938
99	0xbe94a4c1	-0.29031947
100	0xbecef6c4	-0.40422642
101	0xbdde035a	-0.10840483
102	0x3cff74b7	0.031183584
103	0xbec26bf9	-0.37973002
104	0xbe277cd7	-0.16356216
105	0xbf10fd62	-0.5663663
106	0x3c37c6c4	0.011216823
107	0x3c5efa71	0.013609515
108	0xbe66d9cb	-0.22544019
109	0x3e411d01	0.1885872
110	0x3e8d6415	0.2761542
111	0x3de819a4	0.113330156
112	0x3cac1e12	0.021010432
113	0xbec1bf18	-0.37841105
114	0xbe83154a	-0.2560218
115	0xbee5ce84	-0.4488412
116	0xbdbb1a5a	-0.091358855
117	0x3e57e8bb	0.21084873
118	0xbf14c1ae	-0.5810803
119	0x3e69b3a2	0.2282243
120	0xbea69093	-0.32532176
121	0x3ec3ce69	0.38243416
122	0xbf14efd8	-0.5817847
123	0xbea17e19	-0.31541517
124	0x3e1a9a94	0.1509803
125	0x3e80552b	0.25064978
126	0xbe82f527	-0.2557766
127	0xbd988795	-0.07447735

hnn.fc.3.weight f4 [64, 128]
0	0x3d7c8bd7	0.0616568
1	0xbd06b8be	-0.032891028
2	0x3d274e5f	0.040846225
3	0xbd969b40	-0.0735383
4	0xbd30324d	-0.04301672
5	0xbe03ec37	-0.12883078
6	0xbc537570	-0.012906417
7	0x3b009cea	0.0019624778
8	0x3d380552	0.04492695
9	0x3d0fda43	0.03512026
10	0x3c6d03c9	0.0144662345
11	0x3ca95525	0.020670483
12	0xbd420680	-0.04736948
13	0xbc424af2	-0.011858689
14	0x3cf0dde6	0.029402684
15	0xbd52bb94	-0.05144842
16	0x3d53061b	0.051519495
17	0x3c01d9b4	0.00792544
18	0xbd911239	-0.07083554
19	0x3d495c1f	0.04916012
20	0x399664a1	0.00028685204
21	0xbd8fd054	-0.07022157
22	0x3d0c5ef2	0.034270234
23	0xbd8fa254	-0.070133835
24	0xbd32bdaf	-0.043637928
25	0xbb82f2ad	-0.0039962144
26	0xbdcc7a7f	-0.09984302
27	0xbdc3901e	-0.095489725
28	0xbd683a29	-0.05669609
29	0x3d5186c5	0.051153917
30	0x3c81f5df	0.01586431
31	0xbd57ac68	-0.052654654
32	0xbdaad4b2	-0.0834135
33	0xbe0257f3	-0.12728862
34	0xbdad0805	-0.08448795
35	0xbd5a0254	-0.053224877
36	0x3d1b0887	0.03784993
37	0x3d25492b	0.04035298
38	0xbdc00ad9	-0.09377069
39	0xbd3df37d	-0.046374787
40	0xbd87695c	-0.066118926
41	0x3d2a9a8c	0.041651294
42	0xbd39432a	-0.04523007
43	0x3cb70e72	0.022345755
44	0xbd60515a	-0.054765083
45	0xbc1385ab	-0.009004037
46	0x3d84856d	0.064707614
47	0xbd710a72	-0.058847852
48	0xbe050a17	-0.1299213
49	0xbc87f146	-0.01659454
50	0x3d18f2e0	0.037341
51	0x3d740725	0.059577126
52	0xb87c6e94	-6.0184466e-05
53	0x3b87876a	0.0041360157
54	0xbd86cb54	-0.065817505
55	0x3b4da59e	0.0031379233
56	0xbd593a0a	-0.053033866
57	0xbc1bef68	-0.009517528
58	0xbd48b7eb	-0.049003523
59	0xbd93ebb0	-0.07222688
60	0x3d16c0c9	0.036804948
61	0xbd547acf	-0.051874932
62	0xbd45cc51	-0.048290554
63	0xbc29e3b5	-0.010369231
64	0xbd21010b	-0.039307635
65	0x3d218e42	0.03944231
66	0xbd92ded2	-0.07171406
67	0xbd9f3c9b	-0.077752315
68	0xb9179648	-0.00014456466
69	0xbcd775a6	-0.026301216
70	0x3d45301a	0.048141576
71	0xbcd1b491	-0.025598796
72	0x3d1b2ae7	0.03788271
73	0xbd873431	-0.066017516
74	0xbd4f1a6f	-0.05056232
75	0x3b47af89	0.0030469617
76	0xbca9eeeb	-0.020743808
77	0xbdadc141	-0.08484126
78	0x3d05028c	0.032473132
79	0xbd9081d1	-0.070560105
80	0xbd1ea4d2	-0.038731404
81	0xbdc79df9	-0.09746928
82	0xbcb47c26	-0.022031855
83	0xbd107559	-0.03526816
84	0xbc984217	-0.018586202
85	0xbdb964ec	-0.090524524
86	0xbd1cf521	-0.03831971
87	0xbdf750ce	-0.12075959
88	0xbd5cdc41	-0.053920988
89	0xbdb2fb64	-0.08739355
90	0xbc90c3d4	-0.017671503
91	0xbd505a2d	-0.05086725
92	0xbd21a161	-0.039460544
93	0xbd678666	-0.056524657
94	0xbdc0e491	-0.094185956
95	0x3d81e09d	0.0634167
96	0xbd25d278	-0.04048392
97	0x3a6950c6	0.0008900281
98	0xbdb9477e	-0.09046839
99	0xbd0364e4	-0.03207864
100	0x3d4fd591	0.050740782
101	0xbb9e8256	-0.0048373146
102	0xbd769af3	-0.060206365
103	0xbcdf1f87	-0.027236713
104	0x3d0a4f0c	0.03376679
105	0xbce71679	-0.028208958
106	0xbcba93af	-0.0227755
107	0xbd10b8bd	-0.03533243
108	0xbd2f8b44	-0.042857423
109	0xbd4e71c9	-0.050401483
110	0x3c9ee801	0.019397737
111	0x3ce7314b	0.028221747
112	0xbc9322d1	-0.017960938
113	0xbcac89c1	-0.02106178
114	0x3c90c92a	0.017674047
115	0xbd2be0a7	-0.041962292
116	0xba8710ae	-0.0010304654
117	0xbc103b80	-0.008803248
118	0x3d6b1174	0.05738969
119	0xbdb6e2b1	-0.08929957
120	0x3d677d0f	0.05651575
121	0xbc65ab4d	-0.014017892
122	0xbc80a5f6	-0.015704136
123	0xbba299de	-0.00496219
124	0xbb58b389	-0.0033065996
125	0xbc67aa4d	-0.014139724
126	0x3d5d9b0a	0.054102935
127	0xbc325c21	-0.010886223
128	0xbd26d97f	-0.040734764
129	0xbc33e230	-0.01097922
130	0x3d022c1e	0.031780355
131	0xbda77a72	-0.081776515
132	0x3d86e0c5	0.0658584
133	0xbc874b5e	-0.01651543
134	0x3d087c2d	0.03332155
135	0xbda15115	-0.07876793
136	0xbc60cf10	-0.013721243
137	0x3d18aace	0.037272267
138	0x3cb3c8d4	0.021946348
139	0xbd79140d	-0.060810138
140	0xbdb33974	-0.08751193
141	0xbb8f474d	-0.0043725134
142	0x3d310898	0.043221086
143	0x3db904f0	0.09034145
144	0xbe17b6fa	-0.14815894
145	0x3d4e8a14	0.05042465
146	0x3a93d6c7	0.0011279219
147	0xbd579391	-0.052630965
148	0xb9e01138	-0.00042737438
149	0xbd8c46be	-0.068494305
150	0x3b52f89d	0.0032191642
151	0xbd877f47	-0.06616073
152	0x3be03dc4	0.0068433005
153	0x3c5e123a	0.01355415
154	0xbda2cf46	-0.079496905
155	0xbdc0d617	-0.094158344
156	0x3d360984	0.04444267
157	0x3c612946	0.0137427505
158	0xbdb3a76d	-0.08772168
159	0x3d317b23	0.043330323
160	0xbb8e8a10	-0.0043499544
161	0xbe092456	-0.13392767
162	0x3daed2fe	0.08536337
163	0x3cdea4e7	0.027178241
164	0xbdb5155e	-0.08841966
165	0xbcf7894e	-0.03021684
166	0xbe081319	-0.13288535
167	0x3d834efb	0.06411549
168	0xbe550e4c	-0.20806235
169	0x3d70a99b	0.0587555
170	0xbc9b2e41	-0.018942954
171	0x3d472677	0.048620667
172	0x3caa1215	0.020760575
173	0x3d995483	0.074868225
174	0xbb9cbfe9	-0.0047836197
175	0xbd65404d	-0.055969525
176	0x3c91a10c	0.017776988
177	0xbcc682ba	-0.024232257
178	0x3d911f84	0.07086089
179	0xbdf3233a	-0.11871953
180	0x3c873974	0.016506888
181	0xbd83eb39	-0.064413495
182	0xbd9af23f	-0.07565736
183	0x3bd61b6f	0.006534032
184	0xbcc46e2c	-0.023978315
185	0x3d12fdcf	0.035886582
186	0x3da327e0	0.0796659
187	0x3ca36c9c	0.01994925
188	0x3d761c6b	0.060085695
189	0xbdcb7451	-0.09934295
190	0x3a33e10d	0.0006861843
191	0xbd953459	-0.07285375
192	0xbc827dc1	-0.015929105
193	0x3d662de5	0.056196112
194	0xbdcd7cf1	-0.10033596
195	0xbd7e827b	-0.062136155
196	0xbcce4e80	-0.025183916
197	0x3c9f40d5	0.019440094
198	0xbd7c57bc	-0.061607108
199	0xbd7b04f4	-0.06128402
200	0xbd796423	-0.060886513
201	0xbc248a53	-0.010042745
202	0xbc32982d	-0.010900539
203	0x3cab92bc	0.020943992
204	0xbd925d21	-0.07146669
205	0xbd31f44e	-0.043445878
206	0xbd85d8cd	-0.06535492
207	0xbd8cbde7	-0.068721585
208	0xbd51e9bc	-0.051248297
209	0xbdb3fefa	-0.08788867
210	0xbdc50e55	-0.09621874
211	0x3d638d18	0.05555448
212	0x3d683df5	0.05669971
213	0xbdf83e98	-0.12121314
214	0x3c8c2db8	0.017111644
215	0xbe241616	-0.1602405
216	0x3d9215c9	0.071330614
217	0x3d3a80dc	0.045533046
218	0xbcfe39a2	-0.03103334
219	0xbd975345	-0.07388929
220	0x3c5d29df	0.013498752
221	0xbd70068d	-0.058599997
222	0x3d8083a5	0.06275109
223	0xbb1248e1	-0.0022321271
224	0x3c5c3a54	0.013441641
225	0xbda85b0f	-0.08220493
226	0xbde1e9d8	-0.1103093
227	0xbd24ddd6	-0.04025062
228	0x3c46b0ee	0.012127144
229	0x3d1ba45c	0.037998542
230	0x3d372b52	0.044719048
231	0x3d65085f	0.055916186
232	0x3d2b00d2	0.04174883
233	0x3c4edf08	0.012626417
234	0x3d158b48	0.036509782
235	0xbd2f418e	-0.042787127
236	0xbdab3632	-0.08359946
237	0x3d36356b	0.044484537
238	0xbc30af34	-0.010783959
239	0xbd017756	-0.03160795
240	0xbb83e679	-0.004025277
241	0xbd4a2e09	-0.04936031
242	0xbd6691a7	-0.05629125
243	0xbd43df67	-0.047820475
244	0x39a9077a	0.00032239762
245	0x3c9948fc	0.01871156
246	0x3c56684f	0.013086393
247	0xbd75d0bd	-0.06001352
248	0x3d6331c5	0.055467386
249	0xbbf1f966	-0.007384467
250	0xbd91dafb	-0.07121845
251	0xbad5dd42	-0.001631655
252	0x3d2316f5	0.039816815
253	0xbdc28142	-0.0949731
254	0x3c911404	0.01770974
255	0x3cd103a2	0.025514428

hnn.fc.3.bias f4 [64]
0	0x3c381b42	0.0112369675
1	0xbdc7cfbe	-0.097564206
2	0xbd82e1a0	-0.06390691
3	0x3d7aff98	0.06127891
4	0xbdae96a9	-0.0852483
5	0xbd1797fa	-0.03701017
6	0xbdba4547	-0.09095245
7	0xbe16a035	-0.14709552
8	0xbd940758	-0.07227963
9	0xbc299c0b	-0.010352145
10	0xbe42368d	-0.18966122
11	0xbd9f0624	-0.07764843
12	0xbe603d4a	-0.2189838
13	0xbdc8e7c0	-0.09809828
14	0x3a34d5a2	0.0006898289
15	0x3d513439	0.051075194
16	0x3b99f079	0.004697856
17	0x3d86c3e4	0.06580332
18	0xbd854c48	-0.0650869
19	0x3d73fb4b	0.059565824
20	0xbe429540	-0.19002247
21	0xbc62b318	-0.013836645
22	0x3da78e28	0.08181411
23	0xbd52def5	-0.05148216
24	0xbd68f5a6	-0.056874894
25	0x3c99d434	0.018777944
26	0xbca64f7a	-0.02030157
27	0x3d913ecd	0.070920564
28	0xbce3f0d2	-0.027824793
29	0xbd173877	-0.036919083
30	0xbdd4362b	-0.10361894
31	0xbd789a62	-0.060694106
32	0x3c7ece00	0.015552044
33	0xbde79616	-0.113079235
34	0x3b85894b	0.0040752045
35	0xbd6280a1	-0.05529845
36	0xbd46ab28	-0.04850307
37	0x3c3cbe9a	0.011520052
38	0x3b1c580a	0.0023856186
39	0xbc8e86ea	-0.017398316
40	0xbda57f7f	-0.080809586
41	0x3dcc3432	0.09970893
42	0x3c451450	0.012028769
43	0x3d454a39	0.048166487
44	0xbe936d1d	-0.28794184
45	0xbd9cb887	-0.07652383
46	0x3cc3a4bb	0.02388226
47	0xbde79bfc	-0.113090485
48	0x3d6d0231	0.057863418
49	0x3d1daf1d	0.03849708
50	0x3e0db519	0.13838615
51	0xbcc20806	-0.023685466
52	0x3d70ae75	0.058760125
53	0x3d036a8a	0.032084025
54	0xbd35c0ee	-0.044373445
55	0xbd354f86	-0.044265293
56	0x3c87b133	0.016563987
57	0x3dbb8b5d	0.09157441
58	0x3c286e07	0.010280139
59	0xbd6070ac	-0.054794952
60	0xbb930b51	-0.004487433
61	0xbd978c3f	-0.07399797
62	0x3d16e953	0.03684361
63	0x3d74e741	0.059790853
