Proposed/BestModel/HyperLorenz.pth (torch, 212664 bytes, 17 tensors)

q_mlp.0.weight f4 [128, 240]
-0.04675123 0.018766759 0.032161288 -0.024914062 0.060862347 -0.0586787 -0.00028233157 0.024144134
-0.018685076 -0.013467766 -0.072145425 -0.0061009806 -0.020878926 -0.008018965 0.033453375 0.026084343
-0.059207246 -0.03091678 0.033062648 0.0054029473 -0.019096628 0.043223552 0.043625582 -0.03972432
0.07155335 -0.01167697 -0.0064106323 -0.047021203 -0.0470002 -0.044715375 -0.06026781 -0.058539566
-0.01304839 0.008279462 0.034101732 0.03150884 -0.048755765 0.049004726 -0.024547221 -0.060931128
0.06567738 -0.05093699 0.046141285 0.043170493 -0.055606533 -0.030221907 0.034997933 0.0053334776
0.010531366 -0.04118829 -0.06460219 -0.047409024 0.0220473 -0.063393354 -0.06281932 0.044711877
-0.008121239 0.053418957 -0.02710767 -0.00362203 0.002070125 0.03901763 0.041338056 -0.0045238193
0.021035692 0.013446726 -0.026176183 -0.036797363 0.0009553544 0.04938615 0.030660918 -0.040689155
-0.034519807 -0.044678956 0.008284433 0.015935969 -0.012069785 -0.059630964 0.048693996 0.027916836
-0.007839123 0.016821954 0.04915137 -0.024861995 0.029808212 -0.06512697 0.05563453 0.046642445
-0.039908938 -0.055895485 -0.009921655 -0.012340701 0.042255227 0.0055342847 -0.00096532376 -0.00079114473
-0.058685012 -0.014728786 -0.044641383 0.013033677 -0.037680946 0.011176122 0.029157681 -0.0413298
0.04682266 -0.048224658 0.065511376 0.025969435 -0.06421075 -0.04386724 0.01253301 0.046734136
0.0003638119 -0.055516925 0.012990818 0.056985162 0.038106807 0.027801191 -0.01254019 0.0014710354
-0.039501835 0.049331747 -0.03730288 -0.06026085 -0.0430032 0.03781599 0.015978508 -0.008967595
0.052421357 -0.03650728 0.057338845 0.058278874 -0.054301888 -0.045442477 -0.051025383 -0.0024085864
0.022365374 0.023114115 0.017057182 0.055130605 0.04040698 0.031771496 0.06722486 -0.057393517
0.01058927 -0.036092553 0.04773437 -0.040957224 0.033289507 -0.02538859 -0.022281729 -0.052840956
0.022970129 0.014943514 -0.025046978 0.018180013 -0.04332699 0.027293423 0.023102488 -0.060501058
0.0335363 -0.042216904 -0.0018367212 -0.03270294 0.010766899 0.011976857 0.007662455 0.015404176
6.0685037e-05 0.037481684 -0.051433794 0.036366247 0.052390035 -0.012359509 -0.044337768 0.032933895
-0.0011865718 0.03950167 -0.045665905 -0.008888182 -0.0053668316 -0.014830449 -0.048529968 -0.022429714
-0.027458813 -0.00896691 -0.031642262 -0.02360541 0.0037009004 0.06993056 -0.020828683 -0.05012323
-0.04075203 -0.0071282666 0.008766152 0.02731817 0.050532304 -0.015408243 -0.0021644526 0.05382067
0.06485614 0.081828445 0.025192965 0.014577238 0.058039952 0.047547013 -0.048584554 0.042031653
-0.03729236 -0.00012231176 0.0018483422 -0.038060308 0.021509426 0.028123667 -0.055137172 -0.059686597
0.008874419 0.14288063 -0.029237384 0.022882545 -0.011195352 0.08691772 -0.046192683 -0.041511808
0.060386766 0.14270757 0.002575563 -0.009120135 0.054216865 0.1526125 -0.062763445 0.0067819566
0.016997227 0.19355999 -0.11866651 -0.01817532 0.026816329 0.17417556 -0.056785464 0.04272721
-0.11030747 -0.13499482 -0.064040355 0.07689548 -0.047950935 -0.01689745 -0.032972164 0.07048899
-0.042927947 -0.038338844 -0.031685654 0.068781056 -0.04568303 -0.036623668 0.015548999 0.0811737
00000000: 387e 3fbd bfbc 993c 8ebb 033d 9318 ccbc
00000010: cc4a 793d 1459 70bd e705 94b9 ebc9 c53c
00000020: 7211 99bc e8a7 5cbc fbc0 93bd bcea c7bb
00000030: 480a abbc fa61 03bc 6806 093d d5ae d53c
00000040: 4c83 72bd 3045 fdbc b36c 073d 350b b13b
00000050: 8870 9cbc 2e0b 313d bdb0 323d f8b5 22bd
00000060: 908a 923d c350 3fbc 4810 d2bb 4e99 40bd
00000070: 4883 40bd 7827 37bd 61db 76bd 2fc7 6fbd
00000080: eac8 55bc 95a6 073c 42ae 0b3d 6a0f 013d
00000090: 20b4 47bd 2eb9 483d 4117 c9bc eb92 79bd
000000a0: dd81 863d 4ea3 50bd a5fe 3c3d 8bd3 303d
000000b0: adc3 63bd ef93 f7bc fe59 0f3d 74c4 ae3b
000000c0: c08b 2c3c 0db5 28bd 274e 84bd f72f 42bd
000000d0: 8a9c b43c 60d4 81bd 6aa7 80bd cd23 373d
000000e0: f20e 05bc d6cd 5a3d e810 debc 945f 6dbb
000000f0: efaa 073b f3d0 1f3d 1852 293d 8c3c 94bb
00000100: 0b53 ac3c a84f 5c3c 6f6f d6bc d5b8 16bd
00000110: c070 7a3a 2249 4a3d 9b2c fb3c aca9 26bd
00000120: a464 0dbd 4801 37bd 6ebb 073c 268c 823c
00000130: 59c0 45bc 993f 74bd 5b73 473d d9b1 e43c
00000140: aa6f 00bc 32ce 893c f252 493d 62ab cbbc
00000150: 5a30 f43c 4a61 85bd 08e1 633d 260c 3f3d
00000160: 8e77 23bd aaf2 64bd 708e 22bc a730 4abc
00000170: d113 2d3d f258 b53b c80d 7dba d364 4fba
00000180: b25f 70bd 0251 71bc e2d9 36bd 348b 553c
00000190: 5657 1abd 0e1c 373c 17dc ee3c 7049 29bd
000001a0: 1ec9 3f3d 3887 45bd d42a 863d dabd d43c
000001b0: ed80 83bd 23ae 33bd 4157 4d3c 4b6c 3f3d
000001c0: 02be be39 b765 63bd 71d7 543c 4669 693d
000001d0: e215 1c3d 53bf e33c 5e75 4dbc c2cf c03a
000001e0: adcc 21bd 1610 4a3d e8ca 18bd 15d4 76bd
000001f0: 2024 30bd f1e4 1a3d 5ce5 823c d2ec 12bc
00000200: c7b7 563d a888 15bd 23dc 6a3d d4b5 6e3d
00000210: a86b 5ebd e421 3abd feff 50bd 60d9 1dbb
00000220: 9737 b73c d059 bd3c 81bb 8b3c a1d0 613d
00000230: ca81 253d d422 023d 30ad 893d 7715 6bbd
00000240: 9e7e 2d3c c9d5 13bd 1d85 433d c3c2 27bd
00000250: 945a 083d bbfb cfbc 2c88 b6bc c26f 58bd
00000260: da2b bc3c a4d5 743c 522f cdbc 40ee 943c
00000270: a477 31bd 7596 df3c 6e41 bd3c f5cf 77bd
00000280: 5c5d 093d a2eb 2cbd 23be f0ba 85f3 05bd
00000290: a667 303c 943a 443c 5515 fb3b cc61 7c3c
000002a0: 1088 7e38 6586 193d 3eac 52bd c6f4 143d
000002b0: ef96 563d 8a7f 4abc 859b 35bd b1e5 063d
000002c0: be86 9bba 81cc 213d 2c0c 3bbd bd9f 11bc
000002d0: 3fdc afbb 69fb 72bc 5cc7 46bd 85be b7bc
000002e0: 4ef1 e0bc f2e9 12bc 519b 01bd 2260 c1bc
000002f0: ce8a 723b c137 8f3d eaa0 aabc 044e 4dbd
00000300: 9aeb 26bd 3c94 e9bb e89f 0f3c 5bca df3c
00000310: f6fa 4e3d db72 7cbc 7dd9 0dbb 1073 5c3d
00000320: 4cd3 843d ac95 a73d 7a61 ce3c 5ed5 6e3c
00000330: 4dbb 6d3d a8c0 423d 9900 47bd 6229 2c3d
00000340: e0bf 18bd d040 00b9 1344 f23a 20e5 1bbd
00000350: 8934 b03c 9b63 e63c 84d7 61bd ef79 74bd
00000360: 0366 113c 4d4f 123e 3d83 efbc 2d74 bb3c
00000370: b66c 37bc eb01 b23d 8a34 3dbd 4908 2abd
00000380: 1d58 773d ef21 123e c7ca 283b 9e6c 15bc
00000390: 8112 5e3d 7446 1c3e 1f8a 80bd 2d3b de3b
000003a0: c53d 8b3c 9734 463e 6d07 f3bd 69e4 94bc
000003b0: ebad db3c 145b 323e e097 68bd ba02 2f3d
000003c0: e2e8 e1bd 153c 0abe 9727 83bd 617b 9d3d
000003d0: 3368 44bd 856c 8abc d20d 07bd 885c 903d
000003e0: 37d5 2fbd 3109 1dbd d1c8 01bd 15dd 8c3d
000003f0: 211e 3bbd b302 16bd 3bc1 7e3c 663e a63d

q_mlp.0.bias f4 [128]
-0.050612446 0.009246413 0.018891487 0.017879644 0.029728848 0.026776835 -0.07394352 0.035399
0.010518047 -0.020975387 -0.0018002943 0.0049810004 -0.001296214 0.022958769 0.003555792 0.0146248285
0.021781003 0.004975877 -0.028216058 0.031938706 0.019281218 0.019256512 0.004079089 -0.008436421
0.017141072 -0.061812792 -0.009990539 0.016045364 0.010209741 0.03171401 -0.03260629 -0.04046091
-0.06297765 -0.05830199 -0.061759584 -0.0022649723 -0.03500606 -0.07804383 -0.020326078 -0.04019807
0.024361242 -0.040224995 0.029506477 0.005525011 0.03336636 -0.097971804 -0.050840512 0.034935303
-0.04809357 0.0012486966 -0.052955024 0.019081075 0.027432417 -0.028071089 0.010658534 0.021235479
-0.04188707 0.02279291 -0.0557489 0.017379727 0.023744026 -0.008210335 -0.08944019 -0.011545125
0.020553017 -0.051783167 0.011822859 0.021060644 0.017302953 -0.02427943 -0.06744578 -0.009802585
-0.041617405 0.009670578 0.015122293 0.003488558 0.027273964 0.0004645991 -0.085234486 0.020617202
-0.06373567 0.011990664 0.02110326 -0.023685513 0.032332055 0.032605387 0.034811936 0.030023087
0.029565116 0.014185358 0.018063575 0.028565498 0.019793868 -0.007419261 0.02010969 0.024140729
-0.022151286 0.026321022 0.022216616 -0.0073597752 -0.0020604706 -0.010417857 0.010237738 0.025975337
-0.036629595 0.006422396 0.0033573885 0.008251426 -0.09652593 0.026030038 0.0013997895 0.0058329427
0.0026576866 0.04540647 -0.02821246 -0.018032962 0.014774781 0.016354179 0.024200765 0.009489473
-0.02769999 0.016254729 0.014481701 -0.05013326 0.014776445 0.024913998 0.009175313 -0.0031646637
00000000: ff4e 4fbd 447e 173c 52c2 9a3c 5578 923c
00000010: ea89 f33c 185b db3c b36f 97bd 8bfe 103d
00000020: e353 2c3c 93d4 abbc daf7 ebba a937 a33b
00000030: b9e5 a9ba 0714 bc3c 4a08 693b fa9c 6f3c
00000040: 136e b23c ae0c a33b 5d25 e7bc 29d2 023d
00000050: a5f3 9d3c d5bf 9d3c e1a9 853b ea38 0abc
00000060: 6f6b 8c3c 692f 7dbd 5caf 23bc 9171 833c
00000070: c246 273c 8de6 013d 2c8e 05bd 57ba 25bd
00000080: 6dfa 80bd 11ce 6ebd 9ef7 7cbd ee6f 14bb
00000090: 8462 0fbd 72d5 9fbd e082 a6bc bba6 24bd
000000a0: 3a91 c73c f7c2 24bd 91b7 f13c 270b b53b
000000b0: 2aab 083d 71a5 c8bd 243e 50bd 5218 0f3d
000000c0: c3fd 44bd 4eab a33a 5ee7 58bd ea4f 9c3c
000000d0: f3b9 e03c 57f5 e5bc 22a1 2e3c 07f6 ad3c
000000e0: c791 2bbd 32b8 ba3c f558 64bd ee5f 8e3c
000000f0: d582 c23c a484 06bc 6b2c b7bd c427 3dbc
00000100: cd5e a83c 961a 54bd aab4 413c 5f87 ac3c
00000110: ecbe 8d3c a8e5 c6bc 0321 8abd 059b 20bc
00000120: 0377 2abd 5871 1e3c 7ec3 773c 4ba0 643b
00000130: a66d df3c 7095 f339 6b8f aebd 68e5 a83c
00000140: d987 82bd 7d74 443c bee0 ac3c 1f08 c2bc
00000150: 9e6e 043d 3a8d 053d f696 0e3d faf2 f53c
00000160: 8b32 f23c b469 683c 10fa 933c 3102 ea3c
00000170: c026 a23c 461d f3bb 14bd a43c c7c2 c53c
00000180: 9d76 b5bc 2f9f d73c 9fff b53c 452a f1bb
00000190: f608 07bb a9af 2abc 2fbc 273c 3bca d43c
000001a0: ea08 16bd f672 d23b a207 5c3b fd30 073c
000001b0: 63af c5bd f23c d53c 2479 b73a 4522 bf3b
000001c0: 952c 2e3b 22fc 393d d11d e7bc ddb9 93bc
000001d0: ec11 723c 33f9 853c af40 c63c bc79 1b3c
000001e0: 17eb e2bc a328 853c a844 6d3c 8958 4dbd
000001f0: e718 723c 7118 cc3c 0d54 163c 3f66 4fbb

q_mlp.3.weight f4 [64, 128]
0.07948885 0.12808113 -0.005420447 0.0068112696 0.022699356 0.038060334 0.00026344432 0.05479136
0.03994662 -0.14702933 -0.07196227 0.02748127 -0.05839929 0.017837906 0.038008254 0.044608787
0.08297556 0.028897248 0.12953174 -0.088609144 0.06791087 -0.033661816 -0.07062208 -0.11894817
-0.008216732 0.02270284 -0.06848571 0.050843578 -0.007690015 -0.01061626 -0.052155487 0.07510957
-0.043903932 -0.033213478 -0.04980977 0.002464739 0.08663385 0.10026007 -0.056356095 0.008284738
-0.0071598934 -0.06629653 0.063893765 0.10376186 0.06433275 -0.05018719 -0.0822453 -0.045011446
0.0045409156 0.17349663 0.025863994 0.060415998 0.0043805316 0.20043209 0.020517034 0.10793046
0.043498117 -0.034599558 0.042096045 0.10923389 0.026849627 0.017404353 0.02221694 0.10070844
-0.08722567 0.018285938 -0.033873305 0.007762649 0.02844778 -0.08771841 -0.06595971 -0.055132024
-0.022200307 -0.047520977 -0.17571473 -0.04630626 0.09739511 -0.031074204 0.028624956 -0.027048575
-0.03295994 -0.0055429596 0.029672826 0.15555675 -0.028176732 -0.023681924 -0.13207981 0.01407912
0.03354269 -0.07595477 0.019855365 0.044075985 0.07416978 -0.0058452394 -0.03913602 0.10332114
0.055511966 0.015818726 0.052397706 0.1251491 0.066740885 0.10763678 0.06102269 -0.03261121
0.062946245 -0.06105203 -0.15602554 0.053464014 0.032160796 0.027758606 0.15182126 -0.015153168
-0.033291817 -0.0059425174 0.0058395606 0.17784601 -0.13797009 -0.0066886265 -0.05062744 0.016649896
-0.033758726 -0.06367195 0.044800013 -0.017203907 -0.0027402088 0.07340328 -0.08619733 0.06352396
0.05933781 -0.07854698 0.029624775 -0.041796707 -0.0625471 0.04591954 0.025098763 -0.04852075
-0.02751912 0.1741949 0.1636784 0.06481285 -0.05608804 0.052176017 0.029247764 -0.07495711
-0.030850256 -0.003949565 0.00753835 0.01785442 0.072647594 0.08415778 -0.001976176 0.091473974
0.002276818 0.068602875 -0.01043539 0.05830413 0.09374391 -0.057110325 0.041717887 -0.0048276563
-0.07877523 -0.027747232 0.0046111266 -0.008875234 0.04146442 0.009009327 -0.026944531 0.057585537
0.029438116 0.02322409 0.058217976 -0.09796624 -0.041107047 -0.018640287 -0.07601538 0.06997564
-0.0605415 -0.09417716 -0.032081008 0.040556755 0.041024707 -0.17843938 -0.055987895 0.072291486
-0.041730013 -0.022211151 -0.06440471 -0.121143915 0.0720917 -0.16465165 -0.08681081 0.097938076
-0.009394217 -0.03917245 0.0299972 -0.0013915241 -0.08261247 0.07805938 0.049771447 0.087890044
-0.010760935 -0.035718877 0.09781639 0.09764475 0.048014536 0.10507436 -0.058588512 -0.07755533
0.06909034 -0.016207065 0.058065224 0.020097014 0.06120526 -0.09116387 0.041185904 0.02438353
-0.08398313 0.18833806 -0.05021987 -0.07882803 -0.0949767 -0.0299304 -0.14038855 -0.065692216
-0.03327625 -0.030218273 -0.027308425 -0.19198558 0.016064294 -0.19691426 0.017789427 0.06670287
-0.078463204 0.085264914 0.13085745 -0.055222284 -0.059698578 0.08352736 -0.08888773 -0.013949304
3.6089292e-05 -0.014022016 -0.059828438 -0.0332358 -0.007348329 -0.017276235 0.013836737 -0.066937976
0.008868623 -0.0235865 -0.06016371 0.011347697 -0.16963045 -0.029653147 0.003124462 0.037288763
00000000: 0dcb a23d b327 033e 019e b1bb 1231 df3b
00000010: 00f4 b93c 27e5 1b3d e61e 8a39 e86c 603d
00000020: 119f 233d db8e 16be f460 93bd 6620 e13c
00000030: 1834 6fbd cd20 923c 8bae 1b3d b4b7 363d
00000040: 17ef a93d ecb9 ec3c f8a3 043e b678 b5bd
00000050: db14 8b3d f9e0 09bd 4fa2 90bd 199b f3bd
00000060: 799f 06bc 4efb b93c 3c42 8cbd 5b41 503d
00000070: 85fc fbbb d2ef 2dbc fea0 55bd 0cd3 993d
00000080: 9cd4 33bd db0a 08bd 5405 4cbd 7587 213b
00000090: 176d b13d 2755 cd3d a6d5 66bd b6bc 073c
000000a0: 8a9d eabb 7ac6 87bd bcda 823d 1981 d43d
000000b0: e4c0 833d 1591 4dbd 3970 a8bd ec5d 38bd
000000c0: f6cb 943b 1aa9 313e bae0 d33c c476 773d
000000d0: 908a 8f3b 123e 4d3e 5713 a83c a50a dd3d
000000e0: 152b 323d 44b8 0dbd e76c 2c3d 05b6 df3d
000000f0: c0f3 db3c 9393 8e3c 4d00 b63c 3a40 ce3d
00000100: 5fa3 b2bd 64cc 953c bcbe 0abd d25d fe3b
00000110: 520b e93c b6a5 b3bd e215 87bd 1ed2 61bd
00000120: 6bdd b5bc 5ba5 42bd 90ee 33be a2ab 3dbd
00000130: 1677 c73d 548f febc e27e ea3c f994 ddbc
00000140: 0101 07bd b7a1 b5bb 6d14 f33c 454a 1f3e
00000150: e4d2 e6bc 9800 c2bc ee3f 07be 1cac 663c
00000160: 0f64 093d 2d8e 9bbd b8a7 a23c 0589 343d
00000170: 53e6 973d 6c89 bfbb 174d 20bd 099a d33d
00000180: 8460 633d 4696 813c fa9e 563d 1627 003e
00000190: 72af 883d ac70 dc3d eef2 793d 5593 05bd
000001a0: f6e9 803d b211 7abd 29c5 1fbe 15fd 5a3d
000001b0: 0abb 033d 0466 e33c 0877 1b3e fe44 78bc
000001c0: 005d 08bd 73b9 c2bb c959 bf3b 441d 363e
000001d0: 0848 0dbe 442c dbbb b85e 4fbd 5d65 883c
000001e0: 9746 0abd 7066 82bd 3880 373d 35ef 8cbc
000001f0: 1395 33bb 7554 963d 3a88 b0bd da18 823d
00000200: 340c 733d 3ddd a0bd a8af f23c 0633 2bbd
00000210: b218 80bd 2116 3c3d ec9b cd3c b2bd 46bd
00000220: c76f e1bc 2660 323e 4f9b 273e 99bc 843d
00000230: 93bc 65bd 85b6 553d 0299 ef3c 1d83 99bd
00000240: adb9 fcbc 5a6b 81bb 4304 f73b 6f43 923c
00000250: 43c8 943d ea5a ac3d bb82 01bb b556 bb3d
00000260: ab36 153b aa7f 8c3d 33f9 2abc 50d0 6e3d
00000270: cffc bf3d 84ec 69bd 60e0 2a3d 5131 9ebb
00000280: e854 a1bd 2a4e e3bc ef18 973b 6e69 11bc
00000290: 98d6 293d db9b 133c c7ba dcbc d0de 6b3d
000002a0: 3428 f13c 7240 be3c f975 6e3d 86a2 c8bd
000002b0: dd5f 28bd 84b3 98bc f4ad 9bbd 634f 8f3d
000002c0: 5dfa 77bd f4df c0bd 6067 03bd d71e 263d
000002d0: 8609 283d d0b8 36be 9053 65bd 8f0d 943d
000002e0: 17ed 2abd 29f4 b5bc 9ee6 83bd 4d1a f8bd
000002f0: d0a4 933d 719a 28be dec9 b1bd c293 c83d
00000300: 34ea 19bc 4a73 20bd b0bc f53c cd63 b6ba
00000310: ba30 a9bd 99dd 9f3d 25dd 4b3d b2ff b33d
00000320: a24e 30bc f54d 12bd f653 c83d f8f9 c73d
00000330: e4aa 443d 3a31 d73d 82fa 6fbd 54d5 9ebd
00000340: 3c7f 8d3d aec4 84bc cdd5 6d3d 7ea2 a43c
00000350: 5eb2 7a3d 20b4 babd 8db2 283d f8bf c73c
00000360: 59ff abbd b1db 403e 5ab3 4dbd 9770 a1bd
00000370: 2583 c2bd 9930 f5bc 04c2 0fbe a489 86bd
00000380: ad4c 08bd 508c f7bc ebb5 dfbc de97 44be
00000390: 4499 833c e4a3 49be 22bb 913c 849b 883d
000003a0: 51b1 a0bd 5f9f ae3d 7fff 053e c330 62bd
000003b0: 7f86 74bd 6410 ab3d c50a b6bd 9f8b 64bc
000003c0: 955e 1738 99bc 65bc aa0e 75bd 4322 08bd
000003d0: 40ca f0bb e486 8dbc 7bb3 623c c716 89bd
000003e0: b34d 113c 7a38 c1bc 396e 76bd b1eb 393c
000003f0: 9bb3 2dbe 28eb f2bc c6c3 4c3b 1abc 183d

q_mlp.3.bias f4 [64]
-0.030979423 -0.054267548 -0.09662844 0.06873236 0.037581086 -0.029098356 -0.028351322 -0.018032473
-0.030741278 -0.015828652 0.09240037 -0.07384455 -0.1240312 -0.11416255 -0.11946998 -0.08151432
-0.00026742704 -0.10451109 0.02948045 -0.08830732 -0.07491018 0.05242985 0.076757245 -0.11510967
-0.07673404 0.017127413 -0.038493954 -0.09129606 -0.06610235 0.08111247 0.06762254 0.08602336
0.029585874 0.025304822 -0.026996337 0.03396124 -0.039919686 0.1295759 -0.12329267 -0.053918064
-0.010765389 0.0860244 0.048548605 0.050980177 0.009019405 -0.08348052 -0.06497032 -0.090230495
-0.067734264 0.14323673 -0.06981533 -0.1351838 -0.12289041 -0.073353834 -0.07957632 -0.117111094
-0.1219864 -0.09554622 -0.07152524 -0.09561485 0.048843335 -0.016379306 -0.11273175 -0.05308996
00000000: 8fc8 fdbc a647 5ebd 22e5 c5bd 8dc3 8c3d
00000010: a0ee 193d ad5f eebc 0841 e8bc d6b8 93bc
00000020: 22d5 fbbc 17ab 81bc 683c bd3d d03b 97bd
00000030: 1204 febd 0ece e9bd adac f4bd fbf0 a6bd
00000040: 7335 8cb9 e909 d6bd fc80 f13c 78da b4bd
00000050: 826a 99bd afc0 563d e732 9d3d 9ebe ebbd
00000060: bd26 9dbd ca4e 8c3c d6ab 1dbd 6ef9 babd
00000070: ab60 87bd 4b1e a63d b07d 8a3d 042d b03d
00000080: 135e f23c 0f4c cf3c 6c27 ddbc f11a 0b3d
00000090: d382 23bd 8baf 043e de80 fcbd 30d9 5cbd
000000a0: 5061 30bc 902d b03d e7da 463d 97d0 503d
000000b0: 20c6 133c d6f7 aabd 290f 85bd c4ca b8bd
000000c0: 43b8 8abd a6ac 123e 57fb 8ebd 9f6d 0abe
000000d0: f8ad fbbd 893a 96bd e9f8 a2bd f1d7 efbd
000000e0: 01d4 f9bd bdad c3bd d37b 92bd b8d1 c3bd
000000f0: f30f 483d e52d 86bc e7df e6bd dc74 59bd

hamiltonian_mlp.mlp.0.weight f4 [1, 128]
-0.07290721 0.06596381 0.011051059 0.06904105 -0.023228094 -0.087015666 -0.025128186 -0.052959908
0.038260408 -0.0062281564 0.060273387 -0.06443782 -0.07906674 0.06354716 -0.013151385 -0.06764707
0.075523905 -0.042383343 -0.06175531 0.076021604 0.06580377 -0.084882006 0.08065098 0.038951702
-0.033906434 -0.0010855049 -0.08820847 -0.07314558 0.009948924 0.08165502 0.05135926 -0.010965131
0.043037333 0.08508056 0.0531409 -0.027301978 -0.061253585 0.05755397 0.022164404 -0.035632905
0.021631867 -0.013546407 0.0064207464 -0.07152832 -0.039800026 0.086180545 -0.052373927 0.078792654
0.0574406 0.08714969 -0.052717384 0.018117279 -0.051317833 0.06498747 -0.0005291626 0.0493866
-0.06494494 0.08214343 -0.004192367 -0.06299522 0.08763962 -0.063127846 -0.05739449 -0.08731487
-0.06393863 -0.028140314 0.04913298 0.048813157 -0.04866288 0.056082852 -0.013599649 0.027671978
0.057903893 0.06126436 -0.06571448 0.05520547 0.05682128 0.061478876 0.043012373 0.028509632
0.07553355 0.0062887967 0.00451459 -0.07992471 -0.057378836 -0.07491927 0.0025607347 -0.02643799
0.06040945 0.009129852 -0.018601827 0.08121022 0.016734637 0.0068091378 0.0377587 0.07052929
0.080861114 -0.081703976 -0.070177674 0.07605421 0.01344654 -0.008084998 0.071846925 0.068541
-0.04275389 0.039862387 0.047113396 -0.046547834 -0.0030357987 0.071454965 -0.086842515 -0.06018492
-0.06824051 0.08466684 -0.020349696 -0.06197673 0.046190716 -0.048941836 -0.059299286 0.07426425
0.071141906 0.0085859 0.012701973 -0.019775093 -0.07467402 0.031899482 -0.04063464 -0.022099078
00000000: 6050 95bd 0918 873d 800f 353c 6565 8d3d
00000010: d848 bebc 4535 b2bd a0d9 cdbc 7dec 58bd
00000020: f2b6 1c3d 9015 ccbb 3ae1 763d faf7 83bd
00000030: beed a1bd 0325 823d e878 57bc 8c8a 8abd
00000040: 47ac 9a3d 289a 2dbd 23f3 7cbd 37b1 9b3d
00000050: 21c4 863d 9ed6 adbd 572c a53d d28b 1f3d
00000060: 79e1 0abd 8047 8eba a4a6 b4bd 5acd 95bd
00000070: d000 233c bf3a a73d 165e 523d 18a7 33bc
00000080: ea47 303d b73e ae3d 46aa 593d 66a8 dfbc
00000090: 0ae5 7abd b6bd 6b3d 2092 b53c cff3 11bd
000000a0: 5035 b13c c0f1 5dbc 2065 d23b 717d 92bd
000000b0: 5a05 23bd 6d7f b03d 0b86 56bd 0b5e a13d
000000c0: d646 6b3d 897b b23d 2fee 57bd b06a 943c
000000d0: a632 52bd 2718 853d 80b7 0aba 9a49 4a3d
000000e0: da01 85bd d13a a83d 2060 89bb a303 81bd
000000f0: 677c b33d 2c49 81bd 7c16 6bbd 23d2 b2bd
00000100: 42f2 82bd 8486 e6bc aa3f 493d 4ef0 473d
00000110: ba52 47bd 22b7 653d 10d1 5ebc 58b0 e23c
00000120: a22c 6d3d 56f0 7a3d 5095 86bd 221f 623d
00000130: 6ebd 683d 46d1 7b3d be2d 303d 088d e93c
00000140: 55b1 9a3d 4012 ce3b 20ef 933b 91af a3bd
00000150: 1206 6bbd 466f 99bd 00d2 273b 7c94 d8bc
00000160: e66f 773d 6095 153c dc62 98bc 8b51 a63d
00000170: 1417 893c 301f df3b dea8 1a3d a971 903d
00000180: 839a a53d 6a54 a7bd 50b9 8fbd 4fc2 9b3d
00000190: e04e 5c3c f076 04bc 7b24 933d 395f 8c3d
000001a0: b41e 2fbd be46 233d faf9 403d f1a8 3ebd
000001b0: 40f4 46bb fb56 923d 7dda b1bd 7684 76bd
000001c0: aec1 8bbd cf65 ad3d 68b4 a6bc 50db 7dbd
000001d0: 7a32 3d3d 3c77 48bd cfe3 72bd db17 983d
000001e0: d9b2 913d e0ab 0c3c f01b 503c 60ff a1bc
000001f0: b1ee 98bd 08a9 023d 8270 26bd 2009 b5bc

fusion.weight f4 [8, 128]
-0.082912 0.019487193 -0.028475214 -0.0034748053 0.06415522 0.049693868 0.06967457 0.04535075
-0.03797501 0.053004682 0.053156998 0.033034712 -0.03972609 -0.058670785 0.06052042 0.029694773
-0.03217658 0.049216934 0.02733187 0.05003699 -0.077473626 -0.059388973 -3.827408e-05 -0.01778659
-0.018832708 -0.06038253 0.05479622 0.016861223 -0.054391015 0.013433822 -0.014023222 0.045340136
-0.088711865 -0.015701246 0.059377182 0.08566331 0.060681432 -0.027292809 0.07020074 0.01649541
0.10530105 -0.03771696 0.059315994 0.036625788 -0.039078433 0.08076472 -0.018212998 0.01448613
-0.08504896 0.008531248 -0.025862701 -0.021209355 0.023298588 -0.0067873304 -0.051252324 -0.03071455
-0.00442441 -0.02262829 -0.09422808 0.020760873 0.05507692 -0.055899408 -0.000925667 0.010893071
-0.080821626 -0.030681975 -0.08149247 -0.12231364 0.02381792 0.22760724 -0.0985253 0.092558295
-0.059501998 -0.0055112145 0.0055197817 0.03881549 -0.023708178 0.0018949917 0.025498249 0.06368083
0.09356049 0.01576125 0.00843726 -0.012760592 0.0022596985 -0.037950825 0.032021683 0.06661656
-0.005106909 0.046193648 -0.08225981 0.05766782 -0.001567266 0.10558526 -0.08102648 0.03994724
0.037404474 0.06565031 -0.055727854 0.11158584 -0.079087496 -0.06173482 -0.073038474 -0.095002875
0.13529761 -0.07729122 0.037530515 -0.0050331024 0.045981746 -0.046918653 -0.086068995 -0.08598904
-0.14696954 0.0013998282 -0.0051366426 -0.043482006 -0.0010976347 -0.091834225 -0.014285912 -0.08558681
-0.020781454 0.01275539 -0.036867682 -0.065721475 0.030285127 0.034297694 0.041519426 -0.0823938
0.056438237 -0.08300918 0.07652066 -0.044935778 -0.062394664 -0.021809967 -0.05697846 -0.01946017
0.037555818 0.053301256 -0.074914016 -0.04418816 0.005735402 -0.038736146 -0.08161995 0.034746002
-0.045413222 -0.024150262 -0.06937749 0.046829008 -0.06266465 -0.007325297 -0.056973435 0.037878763
-0.03731272 -0.0031446402 -0.06284816 -0.025803046 0.055647004 -0.036286518 0.048797242 -0.0633427
0.046957526 -0.043564375 0.020306861 0.012830949 0.022796886 -0.00859796 0.022418061 0.009965983
-0.05841517 0.032213863 0.08912725 -0.066780254 -0.02388053 -0.033122215 0.061364144 0.058528498
-0.07401896 0.01722467 -0.06262934 -0.0368907 -0.019106245 -0.0010198927 0.04038961 0.061044805
0.051211417 0.040390387 -0.07398988 0.028273415 -0.053599805 -0.07550935 0.07374375 0.07853613
0.10694642 -0.10906138 0.049400307 0.17470995 -0.10626342 -0.17744796 0.19273548 -0.07051441
0.018260382 0.17077383 -0.01809916 -0.0742018 -0.13167097 -0.13191028 -0.12041904 0.054496452
-0.11864623 -0.037989702 0.10735366 -0.012976714 -0.037838764 0.087846965 0.06682645 -0.068405315
-0.019116718 0.12320358 0.10251095 -0.024235085 0.18337135 0.037591193 0.0659004 0.06675186
0.18647224 -0.22314604 -0.09160467 -0.1374036 0.076968834 0.040029485 0.117450796 -0.05499961
-0.26360613 0.18300326 -0.111973695 0.20521319 0.16015616 -0.18811093 0.23715816 0.09881449
0.17239548 -0.042279422 0.08932915 0.030271826 0.031673398 0.14748646 0.08077681 -0.13709295
-0.04744098 -0.09302991 -0.12999326 -0.00024528758 -0.026391583 -0.02541226 0.06501731 -0.20011082
00000000: c4cd a9bd 9ba3 9f3c da44 e9bc 8fb9 63bb
00000010: d063 833d cc8b 4b3d 8ab1 8e3d b5c1 393d
00000020: af8b 1bbd 701b 593d 27bb 593d 684f 073d
00000030: d3b7 22bd c750 70bd 43e4 773d 7442 f33c
00000040: 97cb 03bd b297 493d 16e7 df3c 96f3 4c3d
00000050: 7eaa 9ebd da41 73bd 7b88 20b8 2fb5 91bc
00000060: 0d47 9abc ac53 77bd 0072 603d 8c20 8a3c
00000070: 1dc9 5ebd 8919 5c3c a8c1 65bc 94b6 393d
00000080: 91ae b5bd e69f 80bc 7d35 733d 3f70 af3d
00000090: 188d 783d 2b95 dfbc 68c5 8f3d 6221 873c
000000a0: 14a8 d73d 197d 1abd 54f5 723d ec04 163d
000000b0: b510 20bd f967 a53d 6d33 95bc 3c57 6d3c
000000c0: 262e aebd a6c6 0b3c 04de d3bc 3ebf adbc
000000d0: aedc be3c 4168 debb f5ed 51bd 149d fbbc
000000e0: a4fa 90bb f75e b9bc a7fa c0bd b512 aa3c
000000f0: 5698 613d c7f6 64bd 76a8 72ba da78 323c
00000100: cf85 a5bd c458 fbbc 86e5 a6bd 937f fabd
00000110: cc1d c33c df11 693e a2c7 c9bd 348f bd3d
00000120: 5eb8 73bd 6b97 b4bb 49df b43b fefc 1e3d
00000130: a737 c2bc 5f61 f83a b4e1 d03c 186b 823d
00000140: a49c bf3d bd1d 813c 6f3c 0a3c cd11 51bc
00000150: 7317 143b 5372 1bbd 2b29 033d 436e 883d
00000160: dc57 a7bb 8d35 3d3d d577 a8bd 1835 6c3d
00000170: b86c cdba 163d d83d 36f1 a5bd b89f 233d
00000180: 6f35 193d ab73 863d e442 64bd 1e87 e43d
00000190: a0f8 a1bd a7dd 7cbd 3295 95bd de90 c2bd
000001a0: 758b 0a3e dc4a 9ebd 99b9 193d b9ec a4bb
000001b0: 5b57 3c3d c62d 40bd f144 b0bd 061b b0bd
000001c0: 2f7f 16be 717a b73a 4851 a8bb 301a 32bd
000001d0: 82de 8fba 9513 bcbd 750f 6abc 2348 afbd
000001e0: de3d aabc fcfb 503c 9102 17bd fb98 86bd
000001f0: 8418 f83c bd7b 0c3d 4610 2a3d 15be a8bd
00000200: c82b 673d b800 aabd ddb6 9c3d 940e 38bd
00000210: 8c91 7fbd d1aa b2bc 3f62 69bd ef6a 9fbc
00000220: 21d4 193d 6b52 5a3d 856c 99bd a5fe 34bd
00000230: 0af0 bb3b cba9 1ebd 5c28 a7bd d351 0e3d
00000240: 3703 3abd c5d6 c5bc c915 8ebd c6cf 3f3d
00000250: 5356 80bd 0c09 f0bb fa5c 69bd c326 1b3d
00000260: 39d5 18bd 4f16 4ebb 89b6 80bd e960 d3bc
00000270: 1dee 633d 2ca1 14bd 9edf 473d d1b9 81bd
00000280: 8956 403d 8f70 32bd 935a a63c e738 523c
00000290: 89c0 ba3c 75de 0cbc 15a6 b73c 5d48 233c
000002a0: bf44 6fbd aff2 033d 5988 b63d 16c4 88bd
000002b0: 1aa1 c3bc 29ab 07bd f858 7b3d 94bb 6f3d
000002c0: 4197 97bd c01a 8d3c d043 80bd b41a 17bd
000002d0: b384 9cbc ecad 85ba 936f 253d 1e0a 7a3d
000002e0: 10c3 513d 6470 253d 0288 97bd a69d e73c
000002f0: 788b 5bbd a5a4 9abd f706 973d 8dd7 a03d
00000300: ba06 db3d 935b dfbd fa57 4a3d 2ae7 323e
00000310: a3a0 d9bd ebb4 35be 735c 453e dc69 90bd
00000320: cc96 953c 56df 2e3e b144 94bc 1df7 97bd
00000330: c1d4 06be 7d13 07be 429e f6bd ac37 5f3d
00000340: cbfc f2bd 179b 1bbd 3cdc db3d 499c 54bc
00000350: d2fc 1abd 1ce9 b33d 4edc 883d 1618 8cbd
00000360: aa9a 9cbc 2952 fc3d 43f1 d13d a888 c6bc
00000370: b3c5 3b3e 39f9 193d caf6 863d 33b5 883d
00000380: 94f2 3e3e 6580 64be 3b9b bbbd 88b3 0cbe
00000390: d6a1 9d3d f5f5 233d 0b8a f03d 4547 61bd
000003a0: 62f7 86be 3565 3b3e 7752 e5bd 6823 523e
000003b0: faff 233e 27a0 40be 97d9 723e 405f ca3d
000003c0: 7188 303e 302d 2dbd 34f2 b63d 9ffc f73c
000003d0: f7bb 013d b106 173e 506e a53d 1862 0cbe
000003e0: 7951 42bd 7786 bebd f41c 05be f199 80b9
000003f0: 2933 d8bc 5f2d d0bc cc27 853d dae9 4cbe

fusion.bias f4 [8]
0.100169554 -0.031175014 0.06802262 -0.026305176 -0.03678347 -0.0017923228 0.11189464 -0.1282778
00000000: b225 cd3d be62 ffbc 724f 8b3d f47d d7bc
00000010: 44aa 16bd 60ec eaba 0429 e53d 415b 03be

hnn.fc.0.weight f4 [128, 8]
0.25717628 -0.0794547 -0.18757915 0.20269115 -0.025657337 -0.24683946 -0.006363946 0.20509416
0.10676765 -0.051441852 0.13240159 0.15716745 0.103566796 -0.2109108 -0.13702293 0.009826614
0.19800314 -0.2104578 -0.35362267 0.18281184 -0.23131518 -0.07903425 0.23973414 -0.05121608
0.14981987 0.08382601 -0.26677206 0.11823327 -0.3103166 -0.24733414 -0.023679044 0.29079244
-0.016907185 0.27629524 0.01884926 0.15694009 0.17533639 -0.25320417 -0.31222278 0.39664197
0.106787086 -0.21982475 -0.3596069 -0.23967434 -0.048744027 -0.24086027 -0.060782377 -0.2518633
0.061133623 -7.3075294e-05 0.21233967 0.14284092 -0.05993274 0.33145276 -0.21376666 0.31358
-0.11899363 0.09587462 0.26544583 -0.17962831 -0.07238074 -0.17296958 -0.11676509 -0.018003082
0.35924137 -0.106811665 -0.03892166 0.11320132 -0.20345746 -0.019570794 -0.06629867 0.36031613
-0.3226663 -0.12236756 0.16670248 0.099514455 -0.21507849 0.19735087 -0.0076394975 -0.18228336
0.26072899 -0.06247127 0.046493124 -0.32225096 -0.043811485 0.043415654 0.291121 0.35547066
-0.24899453 0.03053631 0.10602818 0.3524723 0.026686624 0.13772422 0.011007819 0.04857801
0.13636461 -0.18297732 0.3238969 -0.23945276 0.0149750775 -0.16187985 0.29171738 0.08784373
0.04469955 0.16627167 0.14539208 0.024105363 -0.17107294 -0.2665338 0.28162 0.08066813
-0.26910806 0.23605801 0.29169747 0.054346837 0.23086765 0.34116706 -0.07055835 0.13627028
-0.32148427 -0.17256644 -0.22223416 0.26759148 0.35468426 0.11629388 -0.3279295 -0.24807295
-0.1048971 -0.35156956 -0.047751278 -0.32627368 -0.085671574 0.0023185313 0.09136346 0.21583089
0.05688739 0.1020329 -0.33380303 -0.18329413 0.3324411 -0.118030466 0.33385193 -0.16791737
-0.3318491 -0.07481423 -0.30008918 -0.31130403 0.2463077 0.029771745 0.2843733 0.12918067
0.20738494 0.03235929 0.28010052 0.23386602 -0.21623476 -0.25654885 -0.3110727 0.009423391
0.31316382 0.269919 -0.22659685 -0.37843654 -0.0102124745 -0.20954278 -0.21111913 0.122911185
0.09030784 -0.122014195 0.18757714 -0.09396611 0.18826896 0.12540919 0.27738792 -0.043560304
-0.25348708 -0.020536212 -0.02972853 -0.24778429 0.05774438 -0.18357238 -0.032923006 -0.35535932
-0.110918194 -0.17112434 0.2677604 0.08940357 0.36822903 -0.06042925 -0.27074423 0.25737262
0.24019402 -0.044583302 0.13150693 -0.3135911 -0.20458743 -0.110105164 -0.21198991 0.022053301
-0.3423717 -0.18638784 -0.07643666 0.16903551 -0.014826674 -0.18157 0.12416366 0.028774392
0.006635752 -0.056487665 0.06029447 0.32754505 -0.06446078 -0.076688476 -0.23769253 0.19887379
-0.1527039 0.019996557 0.02715962 -0.3343473 0.26175043 -0.2762223 0.035372373 0.032850478
0.27443534 -0.20787999 0.09828001 0.098840795 0.056342643 0.13197036 0.23622456 -0.28279036
-0.21500626 -0.21067569 -0.064275905 0.09165657 -0.044267274 -0.11542775 -0.056500975 -0.006708561
0.1481677 -0.009456528 0.12482724 0.0483398 0.19785134 -0.18698914 0.2841914 0.1313385
-0.18955846 0.18977633 0.014518733 0.045830917 -0.030982101 -0.008401101 0.3279442 -0.055478767
00000000: 9cac 833e 25b9 a2bd c014 40be 458e 4f3e
00000010: 562f d2bc 7cc3 7cbe a688 d0bb 3404 523e
00000020: ffa8 da3d b1b4 52bd 4894 073e 81f0 203e
00000030: d41a d43d 00f9 57be bd4f 0cbe ceff 203c
00000040: 56c1 4a3e 4082 57be 080e b5be 0733 3b3e
00000050: e3dd 6cbe b5dc a1bd de7c 753e f4c7 51bd
00000060: 616a 193e f9ac ab3d 5996 88be 4924 f23d
00000070: d1e1 9ebe 2945 7dbe 8efa c1bc bfe2 943e
00000080: f080 8abc 9276 8d3e c369 9a3c e7b4 203e
00000090: 628b 333e faa3 81be aadb 9fbe a814 cb3e
000000a0: 30b3 da3d bd19 61be 651e b8be 316d 75be
000000b0: d1a7 47bd 13a4 76be f1f6 78bd 3af4 80be
000000c0: 4067 7a3d 0040 99b8 926f 593e e444 123e
000000d0: 087c 75bd 2db4 a93e a6e5 5abe 8f8d a03e
000000e0: efb2 f3bd ea59 c43d 84e8 873e 7cf0 37be
000000f0: 5a3c 94bd f01e 31be 8922 efbd 337b 93bc
00000100: 7cee b73e 13c0 dabd 526c 1fbd 18d6 e73d
00000110: 2757 50be ee52 a0bc 99c7 87bd 5b7b b83e
00000120: 8434 a5be d89b fabd 0eb4 2a3e 3cce cb3d
00000130: 893d 5cbe 5916 4a3e c054 fabb 7da8 3abe
00000140: 457e 853e e0e1 7fbd 936f 3e3d 14fe a4be
00000150: ac73 33bd 9dd4 313d d00d 953e 4000 b63e
00000160: 6cf8 7ebe 4927 fa3c 4d25 d93d 4077 b43e
00000170: e89d da3c 9407 0d3e 245a 343c bcf9 463d
00000180: 2aa3 0b3e 685e 3bbe d1d5 a53e 1b33 75be
00000190: 075a 753c d5c3 25be fb5b 953e 6ae7 b33d
000001a0: e016 373d 1f43 2a3e a9e1 143e 9c78 c53c
000001b0: bf2d 2fbe 1e77 88be 7f30 903e 5535 a53d
000001c0: 88c8 89be 31b9 713e 5f59 953e ca9a 5e3d
000001d0: 9268 6c3e 73ad ae3e e580 90bd 708a 0b3e
000001e0: 9699 a4be 42b5 30be 5a91 63be c001 893e
000001f0: 2d99 b53e 7c2b ee3d 60e6 a7be d606 7ebe
00000200: 4ad4 d6bd ed00 b4be d896 43bd 580d a7be
00000210: 9474 afbd 80f2 173b c41c bb3d c602 5d3e
00000220: c002 693d a0f6 d03d 3be8 aabe 75b1 3bbe
00000230: b835 aa3e f5b9 f1bd a4ee aa3e 88f2 2bbe
00000240: 20e8 a9be 3438 99bd 4aa5 99be 3e63 9fbe
00000250: 1638 7c3e e0e3 f33c 6199 913e f047 043e
00000260: b85c 543e 2d8b 043d 5669 8f3e 937a 6f3e
00000270: a56c 5dbe 5f5a 83be ec44 9fbe 9164 1a3c
00000280: 0257 a03e d332 8a3e 0109 68be 6fc2 c1be
00000290: 3952 27bc 6292 56be 9d2f 58be dcb8 fb3d
000002a0: 51f3 b83d 94e2 f9bd 3914 403e 4e71 c0bd
000002b0: 94c9 403e 446b 003e ca05 8e3e 4a6c 32bd
000002c0: 0fc9 81be 8f3b a8bc 3f89 f3bc 2abb 7dbe
000002d0: 5f85 6c3d 66fa 3bbe 46da 06bd a8f1 b5be
000002e0: 1429 e3bd 383b 2fbe e417 893e 3819 b73d
000002f0: 8488 bc3e a984 77bd fd9e 8abe 58c6 833e
00000300: 6cf5 753e fb9c 36bd c1a9 063e 038f a0be
00000310: 5e7f 51be d17e e1bd e213 59be 20a9 b43c
00000320: 584b afbe 74dc 3ebe d38a 9cbd a517 2d3e
00000330: 94eb 72bc 7ced 39be 8449 fe3d 46b8 eb3c
00000340: b970 d93b 9c5f 67bd 56f7 763d fcb3 a73e
00000350: 0304 84bd d90e 9dbd ac65 73be 92a5 4b3e
00000360: 695e 1cbe d2cf a33c da7d de3c 922f abbe
00000370: 2704 863e 026d 8dbe 9fe2 103d 398e 063d
00000380: ca82 8c3e 7ede 54be 0847 c93d 0b6d ca3d
00000390: 8bc7 663d 3d23 073e dae4 713e e6c9 90be
000003a0: 9a2a 5cbe 5ebb 57be 16a3 83bd 71b6 bb3d
000003b0: 9a51 35bd 6265 ecbd 916d 67bd 7dd3 dbbb
000003c0: 46b9 173e 8eef 1abc 6da5 ff3d f4ff 453d
000003d0: 8b99 4a3e 157a 3fbe 8981 913e 9a7d 063e
000003e0: 9d1b 42be ba54 423e fbdf 6d3c 33b9 3b3d
000003f0: 2dce fdbc c6a4 09bc 4de8 a73e b43d 63bd

hnn.fc.0.bias f4 [128]
-0.29425356 -0.4071634 0.17968635 -0.023985324 -0.011863804 0.27376598 -0.0531452 0.052998193
0.26194724 -0.33168143 -0.2424096 -0.49103 0.22673057 -0.28205734 -0.1987535 0.17622015
-0.2102396 0.042532336 -0.21554181 -0.26395115 0.08998207 0.0031766957 -0.20867158 -0.12634476
0.1507881 0.085539185 -0.35706404 -0.18466374 -0.27542463 -0.2988754 -0.016027143 -0.26487052
0.11802307 -0.29623553 0.13149422 -0.25283995 0.15504776 0.07590213 -0.36715674 -0.12974289
0.113746375 0.22754635 0.18268555 0.1554128 -0.22181338 -0.35547733 0.06593664 -0.22834903
0.31619722 0.089071274 -0.37576216 -0.28792176 0.2954028 0.1015764 0.061318655 0.04795577
-0.19268787 0.27727053 -0.05582703 -0.18423222 -0.20239258 0.07934812 0.16802627 0.10721065
-0.4395386 0.045428514 0.0038347994 -0.07004434 0.13981341 -0.026150564 -0.0467128 0.16059299
-0.27175084 0.20477527 0.20062113 -0.050602578 -0.29823565 0.020806348 0.030970322 0.28339887
0.30987024 -0.07401346 0.19308032 -0.018791331 -0.29134107 0.2624828 0.1581272 0.21102995
0.2758983 0.13787831 -0.28733385 -0.3021344 -0.048755165 0.080736145 0.2613029 0.20732567
0.06765499 0.0047263503 0.20862627 -0.06761668 0.21557434 0.09024188 -0.14779782 -0.26934835
-0.24265338 -0.14695917 -0.20296092 0.2718743 0.0055504716 -0.26884085 -0.112642184 -0.002795546
-0.44998604 0.33924383 0.33413592 0.08206331 -0.2884545 0.054206997 0.21258344 0.29778597
0.22556825 -0.25237343 0.050916314 -0.20868601 0.14255275 0.21681447 -0.1531635 -0.04445108
00000000: 67a8 96be b977 d0be b3ff 373e df7c c4bc
00000010: 6760 42bc 0e2b 8c3e c8ae 59bd a214 593d
00000020: f31d 863e 26d2 a9be 393a 78be 4968 fbbe
00000030: 0f2c 683e d269 90be 0a86 4bbe 0e73 343e
00000040: 0d49 57be 6336 2e3d feb6 5cbe 9b24 87be
00000050: 8548 b83d 1c30 503b 01ae 55be 8560 01be
00000060: 3268 1a3e 2b2f af3d 19d1 b6be 7e18 3dbe
00000070: 7504 8dbe 3206 99be 5b4b 83bc 1c9d 87be
00000080: 14b6 f13d 2fac 97be 6ca6 063e 3d74 81be
00000090: d7c4 1e3e 9372 9b3d f8fb bbbe 52db 04be
000000a0: dcf3 e83d e901 693e ec11 3b3e 8824 1f3e
000000b0: 0c23 63be 2001 b6be ca09 873d 54d4 69be
000000c0: 9ae4 a13e 006b b63d e663 c0be 7b6a 93be
000000d0: 093f 973e 4a07 d03d 4529 7b3d 456d 443d
000000e0: f84f 45be 67f6 8d3e e2aa 64bd 5fa7 3cbe
000000f0: 0040 4fbe 4481 a23d 140f 2c3e 4291 db3d
00000100: 340b e1be 4013 3a3d 4251 7b3b 6873 8fbd
00000110: 3f2b 0f3e b539 d6bc ec55 3fbd 7d72 243e
00000120: ed22 8bbe 9cb0 513e a06f 4d3e a644 4fbd
00000130: 58b2 98be 1372 aa3c 79b5 fd3c a819 913e
00000140: 50a7 9e3e 5e94 97bd d9b6 453e 47f0 99bc
00000150: a82a 95be 2564 863e 19ec 213e 3c18 583e
00000160: 8b42 8d3e f92f 0d3e 6c1d 93be 5cb1 9abe
00000170: 7fb3 47bd fe58 a53d 7ec9 853e 2e4d 543e
00000180: b38e 8a3d 80df 9a3b 20a2 553e 9d7a 8abd
00000190: 85bf 5c3e bcd0 b83d 5058 17be 07e8 89be
000001a0: 217a 78be 777c 16be fdd4 4fbe 1c33 8b3e
000001b0: bbe0 b53b 82a5 89be f2b0 e6bd 7b35 37bb
000001c0: 9264 e6be 5eb1 ad3e dd13 ab3e cf10 a83d
000001d0: 4fb0 93be 2808 5e3d 79af 593e 6777 983e
000001e0: 5dfb 663e 1737 81be a08d 503d c9b1 55be
000001f0: 59f9 113e 9d04 5e3e e4d6 1cbe 5612 36bd

hnn.fc.3.weight f4 [64, 128]
-0.024333665 0.071885526 -0.054763973 0.024959693 -0.06411606 -0.052568465 0.04364518 -0.08339501
0.067324735 -0.028730946 -0.011269107 0.022340832 -0.053720437 0.03147449 -0.053499196 -0.02140194
-0.005746424 0.05258676 0.033087857 0.04489427 -0.06743829 -0.053030152 -0.092547655 -0.010311751
0.03786783 -0.08907545 -0.039503213 -0.03617925 0.015276946 0.0574799 -0.08392935 0.11666556
-0.060554106 0.04300245 -0.011014953 -0.0023557171 0.0012903627 -0.039119348 0.027628288 -0.0017880618
-0.049875785 -0.10234112 -0.085751 -0.018349636 0.09776567 -0.052053366 -0.057454396 -0.09689389
0.0049077994 -0.024191918 -0.0027311428 -0.014189612 -0.018941982 -0.09101616 0.042660773 -0.026250377
-0.047646217 -0.055682153 0.020673819 -0.021742843 0.01978726 -0.13682652 -0.09006529 0.021619717
0.0004338648 -0.021793753 -0.07341017 -0.049187515 -0.026556607 -0.003204065 -0.04242466 0.010201504
-0.049152292 -0.08001751 0.047509015 0.0081996815 0.07013223 0.009283402 -0.079491794 0.078812435
0.06990974 0.01913509 -0.026257364 0.052901525 0.010903977 0.008522018 -0.005907261 0.049354043
-0.017320456 0.007475883 -0.09154817 0.06608798 -0.06529165 -0.06747764 7.219047e-06 -0.007798133
-0.069912374 0.068509005 -0.007716555 0.03847212 0.07646953 0.049631223 -0.085629486 -0.0018194264
0.03351532 -0.027631354 0.07809711 -0.03252331 -0.055684313 -0.13467307 -0.0501044 0.033334777
0.082422554 -0.059255116 0.033222575 0.060493007 0.059354357 -0.005842863 0.06842732 -0.034745555
-0.010884544 0.08671986 0.05966504 0.034858692 -0.059957262 -0.0144707905 0.06794629 0.029414844
-0.017029487 0.035065673 -0.07560681 0.0762489 0.0056866617 0.033425514 0.059912615 -0.073464654
0.030611107 0.0038111762 0.032585196 -0.018544944 0.013469818 0.046716686 0.06297547 -0.003731885
0.074121304 -0.09015585 -0.08288713 -0.07878616 0.04194122 0.0011431979 -0.091543674 -0.09157635
0.024902407 0.058537953 -0.034703366 0.061607618 0.0189953 0.007558454 0.028443316 -0.040300068
-0.008878963 0.06716212 -0.018425982 -0.0045288503 -0.0022934019 -0.046972383 0.021372143 -0.018152293
0.0004305991 -0.083307974 -0.0806762 -0.076509915 -0.036499076 -0.034935012 -0.06052237 0.069569655
-0.090635166 -0.06327789 0.013752075 -0.029877072 -0.0072040875 0.060783997 0.03260311 0.061303493
-0.07589739 0.06551012 -0.08423624 0.00081650284 -0.041700702 -0.19104517 0.073504455 -0.08626812
-0.01452103 0.027470073 -0.036908533 -0.085771985 -0.036253482 -0.052658778 0.0743485 0.062263858
0.02943747 -0.053652063 0.051677823 -0.09645484 -0.059736986 0.05359865 0.014005278 0.06596354
0.06329532 0.028909227 -0.052808125 0.027456181 -0.013155706 0.013593924 0.063051485 0.02449807
0.009776441 -0.07500498 -0.058986712 0.07275906 -0.099076614 -0.05637676 0.02621575 -0.015672376
0.052063767 0.024920829 -0.04825526 0.01596774 0.024287473 0.048492588 0.045192234 0.023053344
0.053818356 0.055848736 0.002648823 0.036665898 -0.0070939614 -0.10394573 0.0038905719 0.025401222
0.0012065467 0.07976124 -0.049776413 0.035152916 -0.049120076 -0.056006458 -0.09026074 -0.033237256
-0.05315642 0.009145953 0.06816888 -0.09531035 0.04167266 -0.035624478 0.06474956 0.032630403
00000000: 6557 c7bc b838 933d 3050 60bd 4578 cc3c
00000010: 484f 83bd 0852 57bd 4ac5 323d 01cb aabd
00000020: 8de1 893d 295d ebbc 10a2 38bc 1f04 b73c
00000030: f609 5cbd 65eb 003d f921 5bbd 1f53 afbc
00000040: 804c bcbb 3765 573d 2287 073d 0ee3 373d
00000050: 161d 8abd 2536 59bd a089 bdbd 9ef2 28bc
00000060: 4c1b 1b3d 316d b6bd 1fce 21bd b130 14bd
00000070: 284c 7a3c 0b70 6b3d 27e3 abbd 5aee ee3d
00000080: 9507 78bd 5623 303d 1078 34bc 6062 1abb
00000090: 6321 a93a 9c3b 20bd b854 e23c 665d eaba
000000a0: 8d4a 4cbd 3998 d1bd 389e afbd fa51 96bc
000000b0: 5e39 c83d e935 55bd 4d55 6bbd 4e70 c6bd
000000c0: 9bd1 a03b 212e c6bc f9fc 32bb 8c7b 68bc
000000d0: 372c 9bbc ae66 babd 10bd 2e3d 080b d7bc
000000e0: ae28 43bd f812 64bd 245c a93c 0c1e b2bc
000000f0: e418 a23c 401c 0cbe 2774 b8bd d51b b13c
00000100: 5978 e339 d088 b2bc 1258 96bd d978 49bd
00000110: 3e8d d9bc 4afb 51bb 7bc5 2dbd 3624 273c
00000120: ea53 49bd 38e0 a3bd d098 423d f557 063c
00000130: 7da1 8f3d 6919 183c 98cc a2bd 6a68 a13d
00000140: d62c 8f3d 31c1 9c3c af19 d7bc 45af 583d
00000150: 98a6 323c ef9f 0b3c b291 c1bb 7727 4a3d
00000160: a1e3 8dbc 40f8 f43b 9b7d bbbd 2359 873d
00000170: a1b7 85bd b831 8abd 243b f236 7b87 ffbb
00000180: 382e 8fbd 734e 8c3d 28db fcbb f194 1d3d
00000190: 0f9c 9c3d 1c4a 4b3d 835e afbd d279 eeba
000001a0: 5c47 093d 265b e2bc 61f1 9f3d 2a37 05bd
000001b0: 3c15 64bd bde7 09be 453a 4dbd 0c8a 083d
000001c0: 28cd a83d 7eb5 72bd 6514 083d 84c7 773d
000001d0: 8e1d 733d 7d75 bfbb 9f23 8c3d 5b51 0ebd
000001e0: 1655 32bc 2f9a b13d 5463 743d fdc7 0e3d
000001f0: bf95 75bd e516 6dbc 6d27 8b3d 66f7 f03c
00000200: 6c81 8bbc 06a1 0f3d bed7 9abd 6228 9c3d
00000210: 2d57 ba3b 31e9 083d ee66 753d a374 96bd
00000220: 25c4 fa3c edc4 793b 0e78 053d 91eb 97bc
00000230: 83b0 5c3c ff59 3f3d 49f9 803d a492 74bb
00000240: e9cc 973d a1a3 b8bd bac0 a9bd a35a a1bd
00000250: 8fca 2b3d 5bd7 953a 407b bbbd 628c bbbd
00000260: 2200 cc3c 7ec5 6f3d 1e25 0ebd 4558 7c3d
00000270: 089c 9b3c e8ac f73b f501 e93c af11 25bd
00000280: 1279 11bc 4b8c 893d 16f2 96bc c066 94bb
00000290: e64c 16bb 1d66 40bd a214 af3c 1eb4 94bc
000002a0: 08c2 e139 5f9d aabd 9039 a5bd 3bb1 9cbd
000002b0: 0e80 15bd 0418 0fbd 4ee6 77bd 897a 8e3d
000002c0: ee9e b9bd d797 81bd 6250 613c c3c0 f4bc
000002d0: 4410 ecbb a4f8 783d d78a 053d 5f19 7b3d
000002e0: 1770 9bbd 2b2a 863d 0d84 acbd 940a 563a
000002f0: 5bce 2abd 58a1 43be 8189 963d 57ad b0bd
00000300: 9de9 6dbc eb08 e13c 672d 17bd 39a9 afbd
00000310: 887e 14bd bbb0 57bd 0744 983d 6308 7f3d
00000320: d926 f13c 44c2 5bbd 20ac 533d 1d8a c5bd
00000330: c5ae 74bd 428a 5b3d 6576 653c e417 873d
00000340: faa0 813d 0bd3 ec3c 554d 58bd c9eb e03c
00000350: 088b 57bc 0db9 5e3c 2321 813d 2db0 c83c
00000360: 5e2d 203c 369c 99bd 0d9c 71bd b402 953d
00000370: aee8 cabd 51eb 66bd 6ac2 d63c 5b63 80bc
00000380: d140 553d c426 cc3c 4fa7 45bd c7ce 823c
00000390: 86f6 c63c 2aa0 463d 7e1b 393d 5eda bc3c
000003a0: a370 5c3d a5c1 643d e097 2d3b fb2e 163d
000003b0: 7674 e8bb 80e1 d4bd f7f8 7e3b 3916 d03c
000003c0: fd24 9e3a dc59 a33d 5ae2 4bbd 81fc 0f3d
000003d0: 2232 49bd 0767 65bd 9fda b8bd ca23 08bd
000003e0: 8cba 59bd e8d8 153c 209c 8b3d 1332 c3bd
000003f0: f3b0 2a3d f9ea 11bd 6b9b 843d 75a7 053d

hnn.fc.3.bias f4 [64]
0.057760328 -0.0100951055 -0.022257095 -0.0372238 0.0075095827 0.031515878 -0.024046402 -0.06584719
-0.112575084 0.009517052 -0.08880211 0.02013134 -0.09249535 0.066541016 0.010266139 -0.053954393
6.919551e-05 0.065077595 0.070371866 -0.03928879 -6.108582e-05 0.019289019 -0.07476061 -0.054096807
-0.01108199 0.050471585 0.066199146 -0.033316545 -0.09942147 -0.045343924 0.05687158 -0.022386195
-0.06418327 -0.048039947 0.040826768 -0.038623527 -0.107415274 0.009250618 -0.08584058 -0.06500584
-0.018697264 -0.019927723 -0.009704334 -0.024929242 -0.001145331 0.037220933 -0.053665236 0.048444692
-0.01065641 0.036954273 -0.03820475 0.011801378 0.06455499 0.0418786 -0.004949097 -0.075749926
0.02713879 -0.031780314 -0.028681941 0.027157135 -0.035617456 0.025135651 -0.050449237 0.0170274
00000000: 1896 6c3d f165 25bc 8354 b6bc fc77 18bd
00000010: f212 f63b cb16 013d f6fc c4bc e4da 86bd
00000020: c48d e6bd 69ed 1b3c e1dd b5bd 7bea a43c
00000030: 346e bdbd a846 883d 4f33 283c 48ff 5cbd
00000040: 0e1d 9138 6747 853d 201f 903d 48ed 20bd
00000050: 331b 80b8 0104 9e3c 171c 99bd 9d94 5dbd
00000060: 3c91 35bc 4bbb 4e3d 6b93 873d ee76 08bd
00000070: 7c9d cbbd 8dba 39bd 2df2 683d 4163 b7bc
00000080: 8572 83bd 89c5 44bd f839 273d b433 1ebd
00000090: 8afc dbbd e78f 173c 30cd afbd c821 85bd
000000a0: 012b 99bc 773f a3bc edfe 1ebc 6938 ccbc
000000b0: ee1e 96ba fa74 183d 14d0 5bbd f16d 463d
000000c0: 3998 2ebc 5d5d 173d 957c 1cbd 915a 413c
000000d0: 6835 843d e588 2b3d 092c a2bb c722 9bbd
000000e0: 2b52 de3c 132c 02bd 64f6 eabc a478 de3c
000000f0: 9ce3 11bd 48e9 cd3c dca3 4ebd 0c7d 8b3c
