Proposed/BestModel/Lorenz.pth (torch, 177098 bytes, 17 tensors)

q_mlp.0.weight f4 [128, 180]
0	0xbb966ea5	-0.0045908266
1	0xbb969231	-0.004595064
2	0xbd97ec51	-0.07418121
3	0xbd6848c0	-0.056710005
4	0xbdb1e763	-0.08686712
5	0xbda7e60e	-0.08198176
6	0x3d75c010	0.05999762
7	0x3d4553ff	0.048175808
8	0x3b91ade3	0.0044457777
9	0x3d6a738f	0.05723911
10	0xbd2585a9	-0.04041067
11	0xbd643b25	-0.055720467
12	0x3d4d0f01	0.050063137
13	0xbc8e5aba	-0.017377246
14	0x3a7c3ffe	0.00096225727
15	0x3cfa8050	0.030578762
16	0x3cd39863	0.0258295
17	0xbd64ca51	-0.055857006
18	0xbd2d53e3	-0.04231633
19	0xbda877bd	-0.08225963
20	0xbc22047c	-0.0098887645
21	0xbd24c080	-0.040222645
22	0x3b2495ef	0.0025113781
23	0xbc1f10a5	-0.009708558
24	0x3d4ceda8	0.050031334
25	0xbbe8a0ff	-0.0070992704
26	0x3cc5f227	0.024163319
27	0x3c23b81f	0.009992628
28	0x3d576ad6	0.05259212
29	0xbd35085d	-0.04419743
30	0x3d477304	0.04869367
31	0x3d2377e8	0.039909273
32	0xbd301602	-0.04298974
33	0x3d039d6b	0.032132547
34	0x3d62b799	0.055350874
35	0xbd62fbb0	-0.05541581
36	0xbd2ea81b	-0.042640787
37	0x3d195590	0.037435114
38	0x3d3fb1de	0.046800487
39	0x3bc7673a	0.0060853036
40	0x3c1914b0	0.009343311
41	0x3d2b9294	0.041887835
42	0x3d53ec71	0.05173916
43	0xbd788159	-0.06067023
44	0xbd3429ef	-0.043985303
45	0x3d496926	0.049172543
46	0x3cdb1dff	0.026747702
47	0xbd45d00c	-0.048294112
48	0xbd1f38cc	-0.038872525
49	0x3d71059b	0.058843236
50	0xbd75b682	-0.059988506
51	0x3d0cc779	0.03436992
52	0x3cf3f6e0	0.029780805
53	0xbdad98d7	-0.084764175
54	0xbdb42c9d	-0.08797572
55	0x3c38f3d7	0.011288605
56	0x3cbf026f	0.02331659
57	0x3d570e7b	0.052504044
58	0xbb8b8c7d	-0.004258691
59	0x3d18eeb8	0.037337035
60	0xbd884026	-0.0665286
61	0x3cfe58da	0.031048227
62	0xbdae1c88	-0.08501536
63	0x3d0f5eb3	0.03500242
64	0xbbafe0f5	-0.005367393
65	0x3d067f93	0.032836508
66	0x3c8230f6	0.015892487
67	0xbd852b38	-0.06502384
68	0xbc4bbc37	-0.012435011
69	0xbb871788	-0.004122678
70	0xbb34e593	-0.0027602657
71	0xbda0bc7c	-0.078484505
72	0xbd51b97b	-0.05120228
73	0xbd4714d5	-0.04860385
74	0xbd5c35c4	-0.053762212
75	0x3d4c6c47	0.04990795
76	0x3ceab524	0.028650828
77	0x3c8ea9d2	0.017414961
78	0xbd131802	-0.035911568
79	0xbd978ee5	-0.07400302
80	0x3b278f80	0.002556771
81	0x3d627977	0.05529162
82	0x3ca0d1da	0.019631315
83	0xbd968a3c	-0.07350585
84	0xbca56cec	-0.02019354
85	0xbc2c67eb	-0.010522823
86	0x3d0b13ad	0.03395431
87	0x3c9293e6	0.01789279
88	0xbd8768de	-0.06611799
89	0xbdab52cd	-0.08365402
90	0x3c0bbcb1	0.008528874
91	0x3cbb0b3b	0.022832504
92	0x3cf0ac61	0.029379072
93	0x3d1a6b3d	0.037699927
94	0x3d56635b	0.052340847
95	0xbd363845	-0.044487257
96	0xbdb05b69	-0.08611185
97	0x3cbc27d0	0.022968203
98	0x3d6fb419	0.058521364
99	0xbd8b110c	-0.06790361
100	0xbd510933	-0.051034164
101	0x3d4e9db1	0.050443355
102	0x3d36b503	0.04460622
103	0xbca8e04f	-0.020614771
104	0xbd6508a9	-0.055916462
105	0x38865a51	6.406441e-05
106	0xbdb1111f	-0.08645844
107	0xbd2f5b72	-0.04281182
108	0xbcbe535a	-0.023233104
109	0xbcff7d07	-0.031187547
110	0x3c8e132d	0.017343128
111	0xbc44801f	-0.011993437
112	0xbd93b215	-0.07211701
113	0xbca96518	-0.020678088
114	0xbbd92113	-0.006626257
115	0x3d080581	0.033208374
116	0xbc162a73	-0.009165394
117	0xbd21df15	-0.03951939
118	0x3c8085f0	0.015688866
119	0x3cabf2eb	0.020989856
120	0x3a27e5a1	0.0006404762
121	0xbd5a8397	-0.05334815
122	0x3bdf698b	0.0068180016
123	0xbb39759a	-0.0028298856
124	0x3ce9ad96	0.028525155
125	0xbd0a0298	-0.03369388
126	0xbc95f8b7	-0.018307073
127	0x3cd18c49	0.025579588
128	0xbcbe1f57	-0.023208303
129	0x3cd0785e	0.02544802
130	0xbccf3525	-0.025293896
131	0x3d55c1df	0.052186843
132	0xbc6587e2	-0.014009448
133	0xbcedfbb2	-0.029050682
134	0x3c4e884e	0.01260574
135	0xbc8ce9e9	-0.01720138
136	0x3d3dbe91	0.046324316
137	0xbcc1c001	-0.023651125
138	0x3d1645d3	0.036687683
139	0xbd05a8e3	-0.032631766
140	0xbbd7f1c8	-0.006590102
141	0x3c302638	0.0107513
142	0xbdaaa924	-0.08333042
143	0x3aa69d8b	0.0012711746
144	0x3cde137d	0.027108902
145	0x3c8351df	0.01603025
146	0xbc37242b	-0.011178057
147	0xbcad131d	-0.021127278
148	0x3c248cf4	0.0100433715
149	0x3c1dd3ff	0.009633063
150	0xbd4a1b17	-0.04934224
151	0x3c804619	0.015658425
152	0xbd9d0e51	-0.07668746
153	0xbc2c4c20	-0.0105161965
154	0xbd2014ed	-0.039082456
155	0xbd341afa	-0.04397104
156	0xbd975d2a	-0.073908165
157	0x3d38c92d	0.04511373
158	0xbbbfa392	-0.0058483565
159	0xbc08bf8a	-0.008346448
160	0xbcca7b0a	-0.024716873
161	0xbd326bcf	-0.043559846
162	0xbd91a3da	-0.0711133
163	0x3a3237c0	0.00067984685
164	0xbd90de9b	-0.070737086
165	0xbd39f73e	-0.045401804
166	0x3cc40b0c	0.023931049
167	0x3d4c16a0	0.049826264
168	0xbd18f727	-0.037345078
169	0xbdb222c4	-0.08698037
170	0x3d7763ef	0.06039804
171	0x3cdb9eee	0.026809182
172	0x3d24bdb0	0.040219963
173	0xbcd5740f	-0.026056318
174	0xbcece1b1	-0.028916212
175	0xbbce4ae3	-0.0062955483
176	0x3bbe3215	0.00580431
177	0xbc3eda72	-0.011648761
178	0xbd5624b7	-0.052281108
179	0x3d5dd0c3	0.05415417
180	0x3cceb89f	0.025234519
181	0xbc8e1183	-0.017342335
182	0xbd9c8a40	-0.076435566
183	0xbd308c2c	-0.04310243
184	0xbd0cc8f6	-0.03437134
185	0xbc8c4205	-0.017121324
186	0x3c8661c4	0.01640404
187	0xbc9cd484	-0.019144304
188	0x3cc4e45e	0.024034675
189	0xbd4ee7be	-0.050513975
190	0xbcb33e49	-0.021880286
191	0x3d0ab096	0.03385981
192	0x3d95a9fd	0.07307813
193	0xbd8b474e	-0.0680071
194	0x3c12d324	0.008961473
195	0x3d27dfa2	0.040984757
196	0xbc55f5b7	-0.013059071
197	0x3c9aab20	0.018880427
198	0x3d4b4137	0.04962274
199	0xbda2a7fc	-0.07942197
200	0x3d39e6fd	0.045386303
201	0xbd7f7ca3	-0.062374722
202	0x3c0241ea	0.007950285
203	0x3d3b3f64	0.04571475
204	0xbceb53b0	-0.028726429
205	0xbbbdf678	-0.0057972036
206	0xbd93141f	-0.07181572
207	0x3aa0ffb2	0.0012283234
208	0x3d0f7ec7	0.035033014
209	0x3d1366ec	0.035986826
210	0x3cd6ceb6	0.026221614
211	0xbc5c6f43	-0.013454261
212	0xbd05263d	-0.03250717
213	0x3d89b705	0.06724361
214	0x3c6ca95f	0.014444678
215	0x3cc41532	0.023935888
216	0x3d31026a	0.043215193
217	0xbceba14f	-0.028763441
218	0xbc0e3594	-0.008679766
219	0x3d9ea291	0.07745851
220	0x3d716d9b	0.05894242
221	0xbd9e25cf	-0.07722055
222	0xbd66b539	-0.05632517
223	0xbcefd95b	-0.029278448
224	0x3c7c4290	0.015396729
225	0xbd017b06	-0.031611465
226	0x3ced0ad6	0.028935831
227	0xbd909425	-0.07059506
228	0xbacc937f	-0.0015607922
229	0x3d23314e	0.039841942
230	0xbcbe430a	-0.023225326
231	0xbc3e93d8	-0.011631928
232	0x3bfbd4cc	0.0076852795
233	0x3d5599ef	0.052148756
234	0x3cc579a4	0.024105854
235	0xbbe4b09a	-0.0069790604
236	0xbc00739e	-0.007840065
237	0xbd64fbcc	-0.055904195
238	0xbd1eac28	-0.0387384
239	0x3d890f3c	0.06692359
240	0xbd2f5be8	-0.042812258
241	0x3cd11f5f	0.025527654
242	0xbd0e418f	-0.03473049
243	0x3d035051	0.032059018
244	0x3cbca03d	0.023025626
245	0x3d2cd0e8	0.042191416
246	0xbd229e84	-0.039701954
247	0xbca2f991	-0.019894393
248	0xbd8127ab	-0.06306394
249	0x3caf98e2	0.021435205
250	0xbd3c5965	-0.04598369
251	0xbbd856c4	-0.00660214
252	0xbd62cd0d	-0.055371333
253	0xbce25604	-0.027628906
254	0xbd9f6b8c	-0.07784185
255	0xbd6afee0	-0.057371974

q_mlp.0.bias f4 [128]
0	0xbd76542f	-0.060138877
1	0x3c6acd9b	0.014331247
2	0x3d02c50e	0.031926207
3	0xbd945658	-0.07243031
4	0xbdeddefc	-0.116147965
5	0xbc8f7866	-0.017513465
6	0x3ba96bde	0.0051703295
7	0x3bd0b816	0.006369601
8	0x3c802713	0.015643632
9	0xbe0a2be6	-0.13493308
10	0x3d0978d8	0.03356251
11	0x3acbab11	0.0015538653
12	0x3c4b2a92	0.012400286
13	0xbdcef05d	-0.101044394
14	0xbdca1361	-0.098669775
15	0xbd9f522a	-0.077793434
16	0xbc83bb8b	-0.016080638
17	0xbc7eee29	-0.0155597115
18	0xbe0002ab	-0.12501018
19	0xba96c831	-0.0011503753
20	0xbdbd2b03	-0.092367195
21	0x3cf3f9e8	0.02978225
22	0x3cfb9054	0.03070847
23	0xbdb65d72	-0.08904542
24	0xbd648dbc	-0.05579923
25	0x3c6aaf39	0.014324003
26	0xbd3ae2c0	-0.045626402
27	0x3c0710fe	0.008243797
28	0xbe080988	-0.13284886
29	0xbd6e1281	-0.058123115
30	0xbd885ea6	-0.06658678
31	0xbddcf500	-0.107889175
32	0x3ce2732b	0.027642807
33	0x3c1115cf	0.008855297
34	0x3cc4a5f9	0.024004923
35	0xbd371443	-0.044697057
36	0x3d1fc294	0.039003924
37	0xbdcd1ca9	-0.10015232
38	0x3bfaebfb	0.0076575256
39	0xbcd5f27f	-0.026116608
40	0x3aaa854c	0.0013009696
41	0x3c851ea6	0.016249966
42	0xbd8314d0	-0.06400454
43	0x3c8f6f81	0.017509224
44	0x3c165461	0.009175391
45	0x3d108f29	0.03529278
46	0x3cb63cd9	0.022245811
47	0x3c8213a0	0.015878499
48	0xbd07cdad	-0.033155132
49	0xbd3744d4	-0.044743374
50	0xba919bed	-0.0011109092
51	0xbd31aa6c	-0.043375418
52	0xbdafb452	-0.08579315
53	0xbdf52b45	-0.11971144
54	0xbb52b75c	-0.0032152748
55	0x3cc24d02	0.02371836
56	0x3cabbb96	0.020963471
57	0x3c7608cf	0.015016749
58	0xbd7a46a2	-0.061102517
59	0x3b177d19	0.0023115335
60	0x3b9af56d	0.004728964
61	0xbc036927	-0.008020676
62	0xbc6c61e5	-0.014427637
63	0xbc8ca731	-0.017169567
64	0x3c347e86	0.011016494
65	0x3bbcf0d5	0.005766014
66	0x3c46cd14	0.012133855
67	0xbc30419e	-0.010757832
68	0xbd979400	-0.07401276
69	0xbd985575	-0.07438175
70	0x3d1d566f	0.038412508
71	0xbce7793b	-0.02825605
72	0xbb9c35c3	-0.004767151
73	0xbd970778	-0.073744714
74	0xbb0d5719	-0.0021566807
75	0x3cdbbff7	0.026824934
76	0x3cdcf1dd	0.026970798
77	0xbda24742	-0.079237476
78	0xbcf9d0a1	-0.03049499
79	0x3d08326b	0.033251207
80	0xbc181738	-0.0092828795
81	0x39a4af59	0.00031411162
82	0x3d0dc1a0	0.034608483
83	0xbc8d0c87	-0.017217888
84	0xbda10ae0	-0.07863402
85	0x3d100c7e	0.035168163
86	0xbd3f9f76	-0.046782933
87	0xbd0536d7	-0.032523002
88	0xbd321077	-0.043472733
89	0xbd6c1e14	-0.057645872
90	0x3ccc8c8b	0.02496936
91	0x3be772af	0.007063232
92	0xbd53f918	-0.051751226
93	0xbc304c3d	-0.010760364
94	0xba64a417	-0.0008721961
95	0x3d00e6a9	0.031469975
96	0x3be7abf9	0.0070700613
97	0x3c84d5b3	0.016215181
98	0xbcb2d0cd	-0.02182808
99	0xbd81f5bf	-0.063457005
100	0xbe01e092	-0.12683323
101	0xbd1021d8	-0.035188526
102	0x38532638	5.0341914e-05
103	0x3c9ad0e9	0.018898444
104	0x3c8bf513	0.017084634
105	0xbd9d5ecc	-0.07684097
106	0xbc8cadc5	-0.017172704
107	0xbd92e055	-0.07171694
108	0xbd75b8f2	-0.05999083
109	0x3ca4f5f4	0.02013681
110	0xbd95414d	-0.07287846
111	0xbd97900e	-0.07400523
112	0x3c809327	0.015695168
113	0xbdb280e7	-0.087159924
114	0xbd22f1f9	-0.039781544
115	0xbd04bf63	-0.032409083
116	0xbd80a5a8	-0.062815964
117	0xbd5af207	-0.05345347
118	0xbdf60fa9	-0.12014706
119	0xbdbf3a05	-0.09337238
120	0xbde834ae	-0.11338173
121	0x3ceab3e0	0.028650224
122	0x3a0aa165	0.0005288332
123	0xbd35fa3a	-0.044428088
124	0x3cc791c0	0.024361491
125	0x3bef2716	0.0072983606
126	0x3d203081	0.039108757
127	0xbd8010c2	-0.06253196

q_mlp.3.weight f4 [64, 128]
0	0x3d8ca954	0.06868234
1	0xbd0b2073	-0.033966493
2	0xbc80def3	-0.01573131
3	0xbdb46e60	-0.08810115
4	0xbda02151	-0.078188546
5	0x3e10ed89	0.14153112
6	0xbac7d4f4	-0.001524596
7	0xbd69c311	-0.057070795
8	0xbd51b48d	-0.051197577
9	0x3d1e1f1e	0.038603894
10	0xbbbf69a3	-0.0058414503
11	0xbdf996eb	-0.121869884
12	0xbd1d3319	-0.03837881
13	0x3cf1a9ff	0.029500006
14	0x3bb585b4	0.0055396203
15	0x3d81169c	0.063031405
16	0x3de2b755	0.11070124
17	0xbc917f81	-0.017760994
18	0x3d8b28df	0.06794905
19	0xbc4c2119	-0.012459063
20	0xbc7bc9cd	-0.015367937
21	0xbc361b62	-0.011114927
22	0xbd8a5f33	-0.06756439
23	0xbd9f7952	-0.07786812
24	0x3d5e2b54	0.05424054
25	0x3dbbffd3	0.09179654
26	0xbc1ec9ba	-0.00969165
27	0xbce38ab3	-0.027776098
28	0x3d901a9a	0.07036324
29	0xbd9bc414	-0.07605758
30	0xbd9c2adb	-0.076253615
31	0x3d12c999	0.03583679
32	0x3d83f3f3	0.06443014
33	0xbd44ee4d	-0.048078824
34	0xbca043e0	-0.019563615
35	0x3c4b1cbf	0.01239699
36	0xbdaae2ab	-0.08344015
37	0xbdb4262e	-0.08796345
38	0xbd0b6ee3	-0.034041297
39	0xbced2d75	-0.02895234
40	0xbda0ae04	-0.07845691
41	0xbd9a25c4	-0.075267345
42	0x3c4d9a65	0.012549018
43	0xbd1d86b9	-0.03845856
44	0x3dda2887	0.10652261
45	0xbdb60b50	-0.088888764
46	0x3c2c3012	0.010509508
47	0x3c87bcb4	0.016569473
48	0x3d9629b7	0.07332175
49	0xbdb332f7	-0.08749955
50	0x3d8db795	0.06919781
51	0xba083892	-0.0005196418
52	0xbd823ef2	-0.06359662
53	0xbd860123	-0.065431856
54	0x3db59c96	0.08867757
55	0x3d4b4d23	0.04963411
56	0x3d92f5ea	0.07175811
57	0xbd55afe2	-0.052169688
58	0x3d949988	0.07255846
59	0xbbbe53bd	-0.005808322
60	0xbdb59a91	-0.08867372
61	0xbd05f76a	-0.032706656
62	0x3d9eac05	0.07747654
63	0x3e46536f	0.19367765
64	0x3c4ca782	0.012491109
65	0x3da26a19	0.07930393
66	0x3dac4acc	0.08412704
67	0xbd9b3831	-0.07579077
68	0x3cc0b9c2	0.023526076
69	0xbcd96b8f	-0.026540546
70	0xbd76ca50	-0.060251534
71	0xbc3088f0	-0.010774836
72	0xbd8bd6ba	-0.06828065
73	0xbdab9466	-0.08377914
74	0xbd9400f5	-0.07226745
75	0xbe154b1a	-0.1457943
76	0xbd7ca4ec	-0.06168072
77	0xbd733c4f	-0.059383687
78	0xbc8560a1	-0.016281428
79	0xbc61c41a	-0.013779664
80	0x3dfbc23e	0.12292908
81	0x3de433c8	0.11142689
82	0x3d02dd66	0.031949423
83	0x3d47c9f5	0.048776586
84	0xbb84e56e	-0.0040556705
85	0xbdc02236	-0.09381525
86	0x3db0018a	0.085940436
87	0xbd919ac5	-0.07109598
88	0x3d74722a	0.059679188
89	0x3d4fee34	0.050764278
90	0x3d0453e4	0.032306567
91	0x3c992aa1	0.018697085
92	0x3d99b780	0.07505703
93	0x3d1bc071	0.038025323
94	0x3d822311	0.06354345
95	0xbc5aee09	-0.013362416
96	0xbd3f3a8f	-0.046686705
97	0x3d648855	0.05579408
98	0x3d197a4c	0.037470147
99	0x3bfe7d12	0.0077663744
100	0x3ccfe70e	0.02537873
101	0xbd057b63	-0.032588374
102	0xbdb11f77	-0.086485796
103	0xbd6d034e	-0.05786448
104	0x3dbc4d5c	0.09194443
105	0x3d545be2	0.05184544
106	0x3bba8eac	0.0056932773
107	0x3d2787fd	0.040901173
108	0x3c932f18	0.017966792
109	0xbd7acb3c	-0.061228976
110	0xbdb82b8f	-0.08992683
111	0x3c280bd7	0.010256729
112	0xbc8cb863	-0.017177766
113	0xbd581ef6	-0.0527639
114	0x3d5cde4f	0.053922947
115	0x3d6e26cf	0.05814248
116	0x3d0061c3	0.031343233
117	0xbcbc4179	-0.022980439
118	0x3d8ef3a1	0.06980062
119	0x3d9ff47b	0.07810303
120	0xbd653e04	-0.055967346
121	0xbd6600bd	-0.056153048
122	0x3c874800	0.016513824
123	0x3be70c4a	0.0070510255
124	0x3c745be8	0.01491449
125	0xbcee5d68	-0.029097274
126	0xbcf29d8b	-0.029616138
127	0xbd8719eb	-0.0659674
128	0x3cc39399	0.023874091
129	0x3c2e7977	0.010649077
130	0xbda00125	-0.07812718
131	0x3d55584b	0.052086156
132	0xbd82d0ff	-0.06387519
133	0x3b2e658b	0.0026610817
134	0xbdbc4912	-0.091936246
135	0x3de57e77	0.11205762
136	0xbdcab344	-0.098974735
137	0x3db0c972	0.08632173
138	0x3ca1c647	0.019747866
139	0xbdd590d8	-0.104280174
140	0xbdfd0780	-0.12354946
141	0x3d10f0f6	0.03538605
142	0x3d8c2de0	0.068446875
143	0xbc093c04	-0.008376125
144	0x3d0bc528	0.03412357
145	0xbd108c8a	-0.03529028
146	0x3d6ecffe	0.058303826
147	0x3cc2abe3	0.023763603
148	0xbda1c9d0	-0.07899821
149	0xbd918b07	-0.071065955
150	0xbc071cc3	-0.008246603
151	0x3d1c6e92	0.038191386
152	0xbd4cee0a	-0.0500317
153	0xbc4e6a68	-0.012598611
154	0xbc440313	-0.011963624
155	0xbd5ee929	-0.054421578
156	0xbd947284	-0.072484046
157	0xbc8ce410	-0.017198592
158	0xbda5a1f5	-0.080875315
159	0xbbc9beaf	-0.0061567645
160	0x3d2c948f	0.042133864
161	0xbc910e41	-0.017706992
162	0x3d48d730	0.049033344
163	0x3d80b60a	0.06284721
164	0xbd819a6e	-0.06328283
165	0xbdb029a4	-0.08601692
166	0x3d9ba6a3	0.07600143
167	0xbdf5ac38	-0.11995739
168	0xbd66bdad	-0.056333233
169	0x3ce2e0f2	0.027695153
170	0x3db2b35e	0.08725618
171	0x3d5e1132	0.054215617
172	0x3d5f3e22	0.054502614
173	0xbb54ecca	-0.003248977
174	0x3babca12	0.0052425945
175	0xbd99e482	-0.075142875
176	0x3d97fee9	0.07421667
177	0x3d46e527	0.04855838
178	0x3cd71e69	0.026259618
179	0xbd062694	-0.032751635
180	0xbdc53d51	-0.09630836
181	0xbbaef744	-0.005339535
182	0x3c8dba34	0.017300703
183	0xbd8b7658	-0.06809682
184	0x3cbd719b	0.02312546
185	0x3d9af9b2	0.07567157
186	0xbc50a720	-0.012735158
187	0x3cfe18f1	0.031017752
188	0xbccb9660	-0.024851978
189	0x3d87c15f	0.066286795
190	0x3da97bfe	0.08275603
191	0x3dc6c3d6	0.097053215
192	0xbce6c400	-0.028169632
193	0x3d810e50	0.06301558
194	0xbde7a926	-0.113115594
195	0xbccb14e8	-0.024790242
196	0xbaa44e11	-0.0012535473
197	0x3d24cfcd	0.040237237
198	0x3bfd3edc	0.0077284407
199	0xbd5cbff1	-0.053893987
200	0xbc948639	-0.018130409
201	0x3d8bbed4	0.06823507
202	0xbd91d8ac	-0.07121405
203	0x3da032e6	0.07822208
204	0xbd6bc44c	-0.05756025
205	0x3cda912e	0.026680555
206	0xbc8d4fcc	-0.017249964
207	0xbda71e9d	-0.08160136
208	0x3d53a4da	0.051670887
209	0x3e0f91d4	0.14020473
210	0xbd78180b	-0.060569804
211	0x3cd156ef	0.025554148
212	0xbc9e1518	-0.019297168
213	0x3c3b994a	0.011450121
214	0x39d11661	0.0003988026
215	0x3d5d0908	0.05396369
216	0x3c749d98	0.014930151
217	0xbcb7a836	-0.022419076
218	0xbda80819	-0.082046695
219	0xbe260063	-0.16211085
220	0x3d6b527e	0.057451718
221	0xbdb87d31	-0.09008253
222	0x3d5c0ef3	0.053725194
223	0xbddcffc5	-0.10790972
224	0xbcd13b16	-0.02554087
225	0xbd965cf3	-0.073419474
226	0x3d82d092	0.06387438
227	0x3c6f7077	0.014614216
228	0xbd777694	-0.06041582
229	0x3d2edace	0.042689137
230	0x3d2a48e2	0.041573413
231	0x3d3c70dd	0.046006072
232	0x3d69fb7f	0.05712461
233	0x3da1efbb	0.07907053
234	0x3d1c069b	0.038092237
235	0xbce5d1d2	-0.028054152
236	0x3d1bcc2a	0.038036503
237	0x3d2b6b1b	0.04185019
238	0x3d9a9e03	0.075496696
239	0xbdd87ac0	-0.10570288
240	0x3cdd7e4e	0.027037766
241	0x3dc415bc	0.09574458
242	0x3d697591	0.056996886
243	0xbd95c4be	-0.07312916
244	0x3d4953c1	0.04915214
245	0x3d2c7119	0.042100046
246	0xbc8c82bd	-0.017152185
247	0x3cc647dd	0.024204189
248	0xbd3509cd	-0.0441988
249	0xbcae9817	-0.021312756
250	0x3d468aa3	0.048472058
251	0xbd88ae6b	-0.066738926
252	0xbcb26ee8	-0.0217814
253	0x3d894c3e	0.06703995
254	0x3cb283ce	0.021791365
255	0x3cc79df8	0.024367318

q_mlp.3.bias f4 [64]
0	0xbddbbfcb	-0.10729941
1	0x3cf73d2d	0.030180538
2	0xbd55ed63	-0.052228343
3	0xbd761c6c	-0.0600857
4	0x3d09e1ea	0.033662714
5	0x3da85103	0.08218577
6	0x3dd88085	0.10571388
7	0x3da026f9	0.078199334
8	0xbd18b5a8	-0.037282616
9	0x3dcde973	0.100542925
10	0x3d9ac965	0.07557944
11	0x3e05f23a	0.13080683
12	0x3de2870b	0.11060914
13	0x3d49dab0	0.049280822
14	0x3d6bbe25	0.057554383
15	0x3d3078fe	0.043084137
16	0xbd7310e4	-0.05934228
17	0x3d2d6908	0.042336494
18	0xbe0b7f8a	-0.13622871
19	0xbd487cd6	-0.048947178
20	0xbda1507c	-0.07876679
21	0x3dc56715	0.09638802
22	0xbd330f37	-0.043715682
23	0x3dcccfd0	0.100005746
24	0xbd6fbbb2	-0.05852861
25	0xbde6ce19	-0.11269779
26	0xbd95610e	-0.07293902
27	0xbde6640f	-0.112495534
28	0xbd3c97c0	-0.046043158
29	0xbd95432b	-0.07288202
30	0xbe09349e	-0.13398978
31	0x3e070595	0.13185723
32	0x3c2e01c5	0.010620539
33	0xbbdb7b85	-0.0066980743
34	0x3d576e61	0.0525955
35	0xbdb6a5d9	-0.08918352
36	0xbde5bbbd	-0.11217449
37	0x3d4a19fe	0.049341194
38	0xbc970472	-0.018434737
39	0xbdb43bcd	-0.088004686
40	0x3cc3e5e7	0.023913337
41	0xbdeb6f31	-0.114958175
42	0x3b93d024	0.0045108963
43	0xbda5d18b	-0.08096608
44	0xbd882a3d	-0.06648681
45	0x3db31944	0.087450534
46	0xbb1f6ec6	-0.00243275
47	0x3c896913	0.016773736
48	0xbd80044b	-0.06250819
49	0xbd8acd57	-0.06777447
50	0x3cd17104	0.025566585
51	0xbdd33cba	-0.10314317
52	0x3c260073	0.010131943
53	0xbabeebd9	-0.0014566138
54	0x3db9d237	0.090732984
55	0x3d102393	0.035190176
56	0x3d881613	0.06644835
57	0xbca7d755	-0.02048842
58	0xbd3e8e1d	-0.04652225
59	0xbccae24b	-0.024766108
60	0xbdaed12b	-0.085359894
61	0xbc42697d	-0.011865971
62	0x3df219eb	0.1182135
63	0xbe03336d	-0.12812586

hamiltonian_mlp.mlp.0.weight f4 [1, 128]
0	0x3c39b810	0.011335388
1	0xbdafc67c	-0.0858278
2	0xba9a9c40	-0.0011795834
3	0x3d08167a	0.03322456
4	0xbc811484	-0.015756853
5	0xbc67ca88	-0.014147408
6	0x3d1e491a	0.038643934
7	0x3d38f4ae	0.04515522
8	0xbb2788e0	-0.0025563762
9	0xbd2e6a53	-0.042581867
10	0x3d7a9a4a	0.061182298
11	0xbd93669d	-0.07197306
12	0x3d0eed34	0.034894183
13	0x3bccda90	0.0062516406
14	0x3d5fb0d6	0.054612003
15	0x3da5f1b9	0.081027456
16	0x3d13f0aa	0.036118187
17	0x3dabe3b3	0.083930396
18	0x3d0f111e	0.034928434
19	0x3d73e37a	0.05954311
20	0x3c860914	0.01636175
21	0xbd581cdd	-0.0527619
22	0x3d0f02d4	0.034914806
23	0x3ca47628	0.020075873
24	0xbda43ab9	-0.08019013
25	0x3d85e01b	0.06536885
26	0xbd2a553b	-0.04158519
27	0xbd74788a	-0.059685268
28	0xbca4f308	-0.020135418
29	0xbd0f12fb	-0.03493021
30	0x3c39e178	0.01134526
31	0x3d64e19a	0.055879213
32	0xbb2a44c0	-0.002598092
33	0x3db2c551	0.08729041
34	0xbd5aeebe	-0.05345034
35	0xbdaa296b	-0.08308681
36	0xbd8dbab1	-0.06920374
37	0xbd0a9f26	-0.033843182
38	0xbd01a4bb	-0.03165124
39	0x3d8e5e91	0.06951631
40	0x3c396720	0.011316091
41	0xbcaac44c	-0.020845555
42	0xbd7075c1	-0.05870605
43	0xbd90de63	-0.07073667
44	0x3d99f437	0.075172834
45	0xbd9d1c95	-0.07671467
46	0xbd9a78c5	-0.07542566
47	0x3cff6b2c	0.031179033
48	0xbd8d108a	-0.0688792
49	0xbd8253b2	-0.0636362
50	0x3b3c4d00	0.002873242
51	0xbd7d963f	-0.061910864
52	0x3d0df4f2	0.034657426
53	0x3d5bf2ce	0.053698353
54	0xbdb43248	-0.08798653
55	0xbdb46e3b	-0.08810087
56	0xbc151fd8	-0.00910183
57	0x3b8e6d70	0.004346542
58	0x3d4870c2	0.04893566
59	0xbc11f388	-0.00890816
60	0x3d3c6bb2	0.046001144
61	0xbdaa65a5	-0.083201684
62	0x3d5935b6	0.05302974
63	0x3cf73840	0.03017819
64	0x3d3b7bce	0.045772366
65	0xbd269216	-0.040666662
66	0x3d270e8e	0.040785365
67	0xbc018be0	-0.007906884
68	0x3db024c1	0.0860076
69	0x3dacd70d	0.08439455
70	0x3d04f606	0.03246119
71	0x3bea9ce0	0.0071598142
72	0x3da72bab	0.08162626
73	0xbd111923	-0.035424363
74	0xbd458551	-0.048222844
75	0xbd6d53da	-0.057941295
76	0xbd1685c6	-0.03674867
77	0x3d9e8db7	0.07741874
78	0x3d2d65f6	0.042333566
79	0x3d9a6449	0.07538659
80	0xba5fa700	-0.000853166
81	0xbd7a389a	-0.061089136
82	0xbd09d479	-0.033649895
83	0x3d85fc6b	0.065422855
84	0xbcb845c0	-0.022494197
85	0xbcf4ce58	-0.029883549
86	0x3d83829f	0.06421398
87	0xbd663792	-0.05620534
88	0x3d872a5b	0.065998755
89	0xbd6e9c23	-0.058254372
90	0xbd966310	-0.073431134
91	0x3d798ce2	0.060925372
92	0x3c1477e8	0.009061791
93	0x3d25c926	0.040475033
94	0xbc524db0	-0.012835905
95	0x3c066d40	0.008204758
96	0xbd0c1da3	-0.03420795
97	0x3d87122b	0.06595262
98	0xbd0cd8c7	-0.034386422
99	0xbb8cacb0	-0.004293047
100	0xbabc5780	-0.0014369339
101	0x3d60a102	0.05484105
102	0xbd384663	-0.044989
103	0xbd95f02b	-0.07321199
104	0xbd6431fe	-0.05571174
105	0xbd88d449	-0.06681115
106	0xbd23a203	-0.03994943
107	0xbd0ee598	-0.034886926
108	0x3c0195c0	0.007909238
109	0xbc9c8440	-0.01910603
110	0xbcf90dc8	-0.03040208
111	0xbd7ef266	-0.062242888
112	0x39c99300	0.0003844723
113	0xbc850bfc	-0.016241066
114	0xbcade968	-0.02122946
115	0xbd9c12bb	-0.0762076
116	0xbd55260f	-0.05203825
117	0xbd3a1845	-0.0454333
118	0xbceef32a	-0.029168684
119	0x3d3ee792	0.04660756
120	0x3db37e7b	0.087643586
121	0x3dacd133	0.08438339
122	0xbd2cfc30	-0.042232692
123	0x3d222006	0.03958132
124	0xbd8ee572	-0.06977357
125	0xbd9d9fc6	-0.0769649
126	0x3d17ee8e	0.037092738
127	0xbce64ff4	-0.028114296

fusion.weight f4 [6, 128]
0	0xbcaeba49	-0.021329062
1	0xbd88a8e5	-0.06672839
2	0x3d2e7120	0.042588353
3	0x3dbda008	0.09259039
4	0xbdb4bc7a	-0.088250116
5	0xbd59b895	-0.053154547
6	0x3c6c22a7	0.014412559
7	0xbd883de0	-0.06652427
8	0x3c7afb1d	0.015318659
9	0xbdb52721	-0.08845354
10	0xbde48ebf	-0.11160039
11	0xbb633d08	-0.0034673829
12	0xbc88e29a	-0.016709615
13	0xba148b59	-0.00056665164
14	0x3da4c5d7	0.080455475
15	0xbd6a1513	-0.057149004
16	0xbdb86bc8	-0.09004933
17	0xbddd33e5	-0.10800914
18	0xbdadcc23	-0.084862016
19	0x3cc3a1fe	0.023880955
20	0xbdca2ea4	-0.09872177
21	0x3c4d5c33	0.012534189
22	0xbda8ed4a	-0.08248384
23	0x3dc69adb	0.09697505
24	0x3d8cfc1b	0.06884023
25	0x3d6cd7bd	0.05782293
26	0xbd101c48	-0.03518322
27	0xbd1aa494	-0.03775461
28	0x3d376847	0.04477718
29	0x3d1e69ed	0.038675237
30	0xbda4167b	-0.080121
31	0x3cdfea9b	0.027333548
32	0xbd228899	-0.03968105
33	0x3c285246	0.010273522
34	0xbd0ce6f4	-0.03439994
35	0xbc5d62cd	-0.0135123255
36	0xbd795bda	-0.060878612
37	0x3d1e876c	0.038703367
38	0x3c7b330c	0.015331995
39	0x3d98feac	0.0747045
40	0xbdd301cb	-0.10303076
41	0xbd1290f4	-0.03578277
42	0xbd6d9fad	-0.058013607
43	0x3cbcc49c	0.02304297
44	0x3c91c6a5	0.017794916
45	0xbd8dc8aa	-0.06923039
46	0xbddd4252	-0.10803665
47	0xbdd079f5	-0.101795115
48	0x3af5f74d	0.0018765718
49	0xbd20db79	-0.039271805
50	0xbd7f3861	-0.062309626
51	0xbd5ffa0e	-0.05468183
52	0xbd763f22	-0.060118802
53	0xbd7f2244	-0.062288538
54	0x3cbaea46	0.022816788
55	0xbda627ce	-0.08113061
56	0xbd385fe0	-0.04501331
57	0x3dbb50a5	0.09146241
58	0xbdb1c016	-0.086792156
59	0x3d683535	0.056691367
60	0x3d83c02e	0.0643314
61	0xb9f29880	-0.00046271458
62	0xbaf4fd46	-0.0018691204
63	0xbda084a8	-0.07837802
64	0x3b70ce23	0.003674396
65	0x3e0216b8	0.12703979
66	0x3d497909	0.049187694
67	0xbd74b229	-0.05974022
68	0xbde73bfa	-0.112907365
69	0x3decd5fb	0.11564251
70	0xbdd854d6	-0.10563056
71	0x3c265bb6	0.0101537015
72	0xbd91c6f5	-0.07118026
73	0xbdf14c15	-0.117820896
74	0xbe2a5928	-0.16635573
75	0x3e1594d9	0.14607562
76	0x3dac667c	0.08417985
77	0xbe06d3db	-0.13166754
78	0xbdbd519d	-0.09244082
79	0x3dc13010	0.09432995
80	0xbe7a058f	-0.24416183
81	0xbe2b07f6	-0.16702256
82	0xbde51438	-0.11185497
83	0x3d40e32a	0.04709164
84	0x3cc1278c	0.023578428
85	0xbe0e513c	-0.13898176
86	0x3db011c0	0.085971355
87	0xbdf0ecb3	-0.11763897
88	0x3e44b362	0.19209054
89	0xbd7d88e4	-0.061898127
90	0x3e177e34	0.14794236
91	0xbe0c9ef4	-0.13732511
92	0xbde58b43	-0.11208203
93	0x3d202faa	0.039107956
94	0xbc9a55c1	-0.018839719
95	0xbd2fded9	-0.042937133
96	0xbe1445b5	-0.14479716
97	0xbe33cac0	-0.17557812
98	0x3d3bacd7	0.04581913
99	0x3d92aa5d	0.071614005
100	0x3dea3a74	0.1143693
101	0xbd33a31b	-0.04385672
102	0x3e063483	0.13105969
103	0xbd650349	-0.055911336
104	0xbe07818b	-0.1323301
105	0xbc4e25ff	-0.012582301
106	0x3db75a01	0.08952714
107	0x3d7c6d52	0.061627693
108	0x3e2bed10	0.16789651
109	0xbd82ad9a	-0.06380768
110	0x3e16f6e6	0.14742622
111	0xbd21e8d2	-0.039528675
112	0x3d6817f1	0.056663457
113	0x3db7a236	0.08966486
114	0x3e8b4b33	0.2720581
115	0x3e2227c9	0.1583549
116	0xbe2291dc	-0.15875953
117	0xbd159b05	-0.03652479
118	0xbd69aab5	-0.057047565
119	0x3dc212a0	0.09476209
120	0x3dab80b8	0.083741605
121	0xbb3f893c	-0.0029226085
122	0xbe3d36ad	-0.18477888
123	0xbd0906db	-0.033453804
124	0xbdb94d63	-0.090479635
125	0x3e66e306	0.2254754
126	0xbba2aaeb	-0.0049642227
127	0xbe0912aa	-0.13386026
128	0x3d40b223	0.047044884
129	0x3caf5079	0.021400677
130	0xbba6c94f	-0.005089916
131	0xbda3a6cd	-0.07990799
132	0xbdab4657	-0.08363026
133	0xbd1937f1	-0.037406866
134	0x3c39007b	0.011291618
135	0xbc92a0bf	-0.017898915
136	0x3c38fc9a	0.011290694
137	0x3e240837	0.16018759
138	0x3d739b09	0.059474025
139	0xbd443c76	-0.047909223
140	0xbcb0189c	-0.02149611
141	0xbd23e83f	-0.04001641
142	0xbda67214	-0.081272274
143	0x3d7f7a57	0.06237253
144	0xbd8271e8	-0.06369382
145	0x3dcab42b	0.098976456
146	0x3cca2cc2	0.024679545
147	0xbd97b6e5	-0.07407931
148	0xbbe4a672	-0.0069778496
149	0xbc972911	-0.0184522
150	0x3df2a318	0.11847514
151	0xbbc16990	-0.0059024766
152	0xbc888514	-0.01666502
153	0x3c24cdb3	0.010058808
154	0x3c73ab73	0.01487242
155	0xbcf2f867	-0.029659463
156	0xbdc26e6e	-0.09493719
157	0x3d7d20f1	0.061798993
158	0xbd8200d5	-0.06347815
159	0xbda0f0eb	-0.078584515
160	0x3ca8ab34	0.020589449
161	0x3cf123cf	0.02943602
162	0x3c7f3b90	0.015578166
163	0xbd7ec81c	-0.062202558
164	0xbc43d8ee	-0.011953576
165	0xbc33b3da	-0.010968173
166	0xbe3f6ba5	-0.18693407
167	0x3d96794c	0.07347354
168	0x3d82ab00	0.06380272
169	0xbd9cca04	-0.07655719
170	0x3dee0482	0.116219535
171	0xbd3a259c	-0.045446023
172	0x3ccf4b8a	0.025304575
173	0x3db8d420	0.09024835
174	0xbd8cc23f	-0.06872987
175	0xbd197a11	-0.037469927
176	0xbd412e81	-0.04716349
177	0x3d5d5374	0.054034665
178	0x3ad1c353	0.0016003646
179	0x3d8e1603	0.06937792
180	0xbd3e8cbc	-0.046520934
181	0x3d64dde8	0.05587569
182	0x3de6f4c3	0.11277153
183	0xbd982d10	-0.0743047
184	0x3c33a81c	0.010965373
185	0xbe2201cb	-0.15820996
186	0xbb74b6d5	-0.0037340422
187	0xbdbbc3ea	-0.09168227
188	0x3d1faef0	0.038985193
189	0x3caca9b3	0.021077013
190	0xbd59dd29	-0.05318943
191	0x3daeea64	0.085408
192	0x3dfc570d	0.12321291
193	0x3c90fd1d	0.017698819
194	0x3a2a4990	0.0006495947
195	0xbdb75742	-0.0895219
196	0x3da0c8c5	0.07850794
197	0x3e1f524e	0.1555874
198	0x3df06570	0.11738098
199	0xbdf33ce1	-0.11876846
200	0x3c378f4d	0.011203599
201	0x3d989c7a	0.074517205
202	0x3e20b895	0.15695412
203	0xbd539a01	-0.05166054
204	0xbde1df58	-0.110289276
205	0x3b2c4923	0.002628871
206	0xbe56c521	-0.20973636
207	0x3cea02c5	0.028565774
208	0xbd179476	-0.037006818
209	0x3d804849	0.06263787
210	0xbdaee313	-0.08539405
211	0xbe2ed2f8	-0.17072666
212	0x3e88f259	0.26747397
213	0xbd223587	-0.03960183
214	0x3e935477	0.2877538
215	0x3c9b16ed	0.01893183
216	0x3d97da61	0.07414699
217	0xbca354d3	-0.019937908
218	0xbdd24a6f	-0.10268103
219	0x3d943e60	0.072384596
220	0xbd7762fc	-0.060397133
221	0xbd89133f	-0.06693124
222	0x3db3d602	0.08781053
223	0x3db6de14	0.08929077
224	0xbe8141e1	-0.25245574
225	0x3e56488c	0.20926112
226	0xbe2bccf5	-0.16777404
227	0x3e410c81	0.18852426
228	0x3c8f3ee1	0.017486038
229	0xbe7f7ff6	-0.24951157
230	0xbe716928	-0.2357527
231	0x3d4ad078	0.049515218
232	0x3e435e95	0.19079049
233	0x3d3f18ed	0.04665463
234	0x3e36f06c	0.17865151
235	0xbd35440e	-0.044254355
236	0xbb38b00d	-0.0028181106
237	0x3d895c77	0.067070894
238	0x3d2132bc	0.039355025
239	0x3e06a62f	0.13149332
240	0x3e9d0622	0.3066874
241	0xbd099aff	-0.03359508
242	0x3d8ae754	0.067824036
243	0x3d448445	0.047977705
244	0x3d93ad40	0.07210779
245	0xbde2e3e2	-0.110786214
246	0x3e088421	0.13331653
247	0x3e19f311	0.15034129
248	0xbe30daf9	-0.17271031
249	0xbe643e3a	-0.22289363
250	0xbce012a6	-0.027352642
251	0xbdd35421	-0.10318781
252	0x3e793037	0.24334799
253	0xbd8bf83a	-0.06834455
254	0xbd919c6b	-0.071099125
255	0xbd57e80a	-0.052711524

fusion.bias f4 [6]
0	0xbd442701	-0.04788876
1	0x3d82238e	0.06354438
2	0xbd58fd3f	-0.05297589
3	0xbb61ee2f	-0.0034474244
4	0x3d4c0408	0.049808532
5	0x3d8f5614	0.0699884

hnn.fc.0.weight f4 [128, 6]
0	0x3ea934b2	0.33048016
1	0x3e7aa740	0.24477863
2	0x3dc538cc	0.09629974
3	0xbeb25616	-0.34831303
4	0xbe2b261a	-0.16713753
5	0x3eb97935	0.36225286
6	0x3b808372	0.0039219195
7	0x3e863163	0.26209554
8	0xbdf23486	-0.11826424
9	0xbe13020c	-0.1435625
10	0xbe959b17	-0.29219887
11	0xbeaf16ac	-0.34196985
12	0x3e4af567	0.19820176
13	0xbd85521e	-0.06509803
14	0xbe1bf224	-0.15229088
15	0x3e813ea2	0.25243098
16	0x3b4eb844	0.0031542936
17	0x3e8eb829	0.27874878
18	0x3eb8b609	0.36076382
19	0x3e0ad62a	0.1355826
20	0x3ead56d9	0.33855322
21	0x3ec65f27	0.3874447
22	0x3df46a30	0.11934316
23	0x3dde9653	0.10868516
24	0x3ebc997b	0.36835846
25	0x3e4451d1	0.19171835
26	0xbedd0ad0	-0.43172312
27	0xbdd940aa	-0.10608037
28	0xbed52dc2	-0.41636473
29	0x3de96706	0.11396603
30	0x3d7e6750	0.062110245
31	0x3e09eda5	0.1346956
32	0x3ea97231	0.33094934
33	0xbe67ab6f	-0.2262399
34	0x3e9a29a3	0.3010989
35	0x3e53cd22	0.2068372
36	0xbe9ecba1	-0.31014732
37	0xbe990a69	-0.29890755
38	0x3e7d9d4a	0.24767032
39	0xbe82ec3e	-0.25570863
40	0xbe1a237f	-0.15052603
41	0xbe552521	-0.20814945
42	0x3dfc6212	0.12323393
43	0xbe7b6777	-0.24551187
44	0x3e7f5760	0.24935675
45	0xbe8c79aa	-0.27436572
46	0x3e87993e	0.26484102
47	0xbe0f1ea7	-0.13976537
48	0xbdc019ad	-0.09379897
49	0xbec0fbdb	-0.3769215
50	0x3e8d14fa	0.27555066
51	0xbeb8d7a3	-0.36102018
52	0x3ebbcd61	0.3668013
53	0xbecfe64b	-0.40605387
54	0xbb87732e	-0.0041336035
55	0x3e368ae1	0.17826416
56	0xbe0d00cb	-0.13769834
57	0x3cc907cd	0.024539853
58	0x3e7556b3	0.23958854
59	0x3e9808fb	0.29694352
60	0x3d781e11	0.06057555
61	0x3e946109	0.28980282
62	0xbe97d829	-0.29657105
63	0x3e6efb1e	0.23337981
64	0xbe9cd410	-0.3063054
65	0x3e3f8bdb	0.18705694
66	0x3ddaa52d	0.10676036
67	0x3ea853ab	0.32876334
68	0xbe93a0c9	-0.28833607
69	0x3ea9c7cc	0.33160245
70	0xbd6d137c	-0.05787991
71	0x3ebe2e12	0.37144524
72	0x3ebc463f	0.36772344
73	0xbcdf3a3b	-0.027249446
74	0x3ec1ebad	0.3787512
75	0xbe92d70a	-0.28679687
76	0xbeb4ed8f	-0.35337493
77	0x3d63a080	0.055572987
78	0x3e9fe27c	0.3122748
79	0x3e201ccf	0.1563599
80	0xbc5550ff	-0.013019799
81	0xbe23ef95	-0.16009362
82	0xbed64b82	-0.41854483
83	0x3dc44441	0.09583331
84	0x3e7ee7e8	0.24893153
85	0xbe577196	-0.21039423
86	0xbe982ad6	-0.2972018
87	0xbe7edfe6	-0.24890098
88	0xbce21b4d	-0.027600909
89	0x3dcd0a39	0.100117154
90	0xbd8f2cb9	-0.06990952
91	0xbe6d49d8	-0.231727
92	0x3e9037a8	0.28167462
93	0x3d794f75	0.06086679
94	0x3e92d49b	0.2867783
95	0xbe96cb72	-0.2945209
96	0xbe810b61	-0.25203994
97	0x3d78bbce	0.06072598
98	0xbe41d8e5	-0.18930395
99	0xbe777365	-0.24165113
100	0x3e846540	0.25858498
101	0xbe7d9858	-0.24765146
102	0xbe5ba0bc	-0.21448034
103	0x3e8dea76	0.27717942
104	0x3e0d10bd	0.13775916
105	0x3e6bd7f8	0.23031604
106	0xbd806f4e	-0.0627123
107	0xbe4bd2fa	-0.199047
108	0xbe74bf2b	-0.2390105
109	0xbd42f759	-0.04759917
110	0x3e1bbde9	0.15209164
111	0x3e68b00e	0.2272341
112	0xbeace6e2	-0.337699
113	0x3d00b1e1	0.03141964
114	0x3ec10213	0.37696895
115	0xbd8e1b3f	-0.069387905
116	0xbebeac9d	-0.37241068
117	0xbd682f06	-0.05668547
118	0x3ccce763	0.025012678
119	0xbe7c5da2	-0.24645093
120	0x3d3d2b8d	0.04618411
121	0x3e65f42d	0.22456427
122	0x3dfb8d7b	0.12282845
123	0xbe2570c7	-0.16156302
124	0xbedf708b	-0.4364055
125	0x3e8387b5	0.25689474
126	0xbe0e0ec8	-0.13872826
127	0x3e5cbd8d	0.21556683
128	0xbd37c8d0	-0.044869244
129	0xbe92d329	-0.28676727
130	0x3e8960f0	0.2683177
131	0xbef2b024	-0.4740001
132	0x3e01f347	0.12690459
133	0x3bc6d73c	0.0060681384
134	0x3d381a09	0.044946704
135	0x3e2b934d	0.1675541
136	0xbe403cf4	-0.18773252
137	0x3e4135ca	0.18868175
138	0xbe0027f4	-0.12515241
139	0xbe9db97e	-0.30805582
140	0x3d7f9faf	0.062408146
141	0x3db3fabf	0.087880604
142	0x3dcc721c	0.09982702
143	0x3ea892d9	0.32924536
144	0xbe41024a	-0.1884853
145	0xbeadd308	-0.33950067
146	0xbeb2f798	-0.34954524
147	0xbe1d314d	-0.15350838
148	0xbebaaa63	-0.3645812
149	0x3e06c9f1	0.13162972
150	0x3eb79082	0.35852438
151	0xbdc0a420	-0.09406304
152	0x3e439621	0.19100238
153	0xbe8e056b	-0.2773851
154	0x3e183d4e	0.14867136
155	0xbea0479d	-0.31304637
156	0x3eb09619	0.34489515
157	0x3dc4edee	0.09615694
158	0x3ea6938f	0.32534453
159	0xbd9167e1	-0.070998915
160	0x3eb3a9a6	0.3509037
161	0x3cc1437f	0.023591755
162	0x3e115dae	0.14195892
163	0xbe24871b	-0.16067164
164	0xbd8f1cdd	-0.06987927
165	0x3e177856	0.14791998
166	0x3e81e8d7	0.25372955
167	0xbed51718	-0.41619182
168	0x3e678f72	0.22613314
169	0x3e5874c2	0.2113829
170	0xbe3ad443	-0.18245034
171	0x3e2d21fa	0.16907492
172	0xbeb2976f	-0.3488116
173	0x3e33cb38	0.1755799
174	0xbed04846	-0.4068014
175	0xbe706d6c	-0.23479241
176	0xbec3dc92	-0.3825422
177	0xbe3806e0	-0.17971373
178	0x3e2361f8	0.15955341
179	0xbde8ddb6	-0.11370413
180	0xbeb28f5f	-0.34875008
181	0x3d141402	0.036151893
182	0x3e477620	0.19478655
183	0x3ee10d41	0.43955424
184	0xbc85a325	-0.016313145
185	0xbe2b6460	-0.16737509
186	0x3e31f928	0.17380202
187	0xbca3636e	-0.019944873
188	0x3d2ee41b	0.042698007
189	0x3ea78bca	0.32723838
190	0x3d8d060c	0.06885919
191	0x3da60835	0.08107034
192	0xbd077c10	-0.0330773
193	0xbecc8eab	-0.39952597
194	0x3e378948	0.17923462
195	0x3eaae210	0.33375597
196	0x3cf13770	0.02944538
197	0xbdd51988	-0.1040526
198	0xbec0995f	-0.37617013
199	0xbcda4341	-0.026643397
200	0xbe5d9a64	-0.21640927
201	0x3ed0870b	0.4072803
202	0xbe55a122	-0.20862249
203	0xbeaa76a2	-0.33293635
204	0xbeb287a7	-0.3486912
205	0xbedee6f4	-0.43535578
206	0x3c9b1788	0.018932119
207	0xbeb2c767	-0.34917757
208	0xbcc849f9	-0.024449335
209	0x3e3d35e4	0.18477589
210	0x3db47a32	0.088123694
211	0xbe183d5d	-0.14867158
212	0xbe87f201	-0.26551822
213	0xbe612d84	-0.21990019
214	0x3e851df3	0.25999412
215	0x3eb674cf	0.35635993
216	0xbea31695	-0.31853166
217	0x3e04eac8	0.12980187
218	0xbd6ca856	-0.057777725
219	0xbe15c80f	-0.14627098
220	0xbe000f89	-0.12505926
221	0x3d857056	0.06515567
222	0x3dc933ca	0.09824331
223	0xbe726bb7	-0.23673902
224	0xbe98cf3f	-0.29845616
225	0xbebba25c	-0.36647308
226	0x3cbb8a63	0.022893136
227	0xbe740bc1	-0.23832609
228	0xbea1fa15	-0.3163611
229	0xbea7e4ce	-0.32791752
230	0x3e739e72	0.23790911
231	0xbea64101	-0.3247147
232	0x3daceb09	0.08443267
233	0x3ea6e75b	0.32598385
234	0x3e63f243	0.22260384
235	0xbea31f0f	-0.31859633
236	0xbdf7f53e	-0.12107323
237	0x3e64de46	0.22350416
238	0xbe0c1e4e	-0.13683435
239	0xbe0e2040	-0.1387949
240	0x3eb61caf	0.3556876
241	0x3e199694	0.14998847
242	0xbdfd73d3	-0.12375607
243	0xbea9dd00	-0.33176422
244	0x3e457f54	0.19286853
245	0xbe432fd4	-0.19061214
246	0x3e8fb84d	0.28070298
247	0xbd9499b5	-0.0725588
248	0xbeb71de6	-0.35764998
249	0xbeaf7938	-0.3427217
250	0xbd7b4c2f	-0.06135195
251	0x3df2a979	0.118487306
252	0x3ea7716e	0.32703727
253	0x3ea78b87	0.32723638
254	0xbd33d91f	-0.043908235
255	0xbecdbada	-0.4018162

hnn.fc.0.bias f4 [128]
0	0xbeb32479	-0.34988764
1	0x3dcde2da	0.10053034
2	0xbe8b7560	-0.27237988
3	0xbe764f7a	-0.24053755
4	0x3ea6be54	0.32567084
5	0xbe3ef642	-0.18648627
6	0x3e18ff3e	0.14941117
7	0xbe9308b3	-0.28717574
8	0xbd110dc0	-0.035413504
9	0xbeab44c6	-0.33450907
10	0x3e3c07d4	0.18362361
11	0xbebe7c4e	-0.37204212
12	0xbd943b33	-0.07237854
13	0x3e77641b	0.24159281
14	0x3e777831	0.24166943
15	0x3ebedca3	0.37277707
16	0xbdd7e691	-0.10542024
17	0x3de20a0e	0.11037074
18	0xbddecb8b	-0.108786665
19	0x3db12194	0.08648983
20	0x3e9ed87e	0.31024545
21	0x3e151e21	0.14562275
22	0xbea61708	-0.32439446
23	0xbecc7bef	-0.39938304
24	0x3e954880	0.29156876
25	0xbeb3cf7e	-0.3511924
26	0x3e8779f7	0.2646024
27	0xbe08bf7c	-0.13354295
28	0x3defd713	0.11710944
29	0x3eadaf62	0.3392287
30	0x3eba827e	0.36427683
31	0x3d760490	0.060062945
32	0xbea37333	-0.31923828
33	0xbd90486b	-0.07045063
34	0x3e73d3f4	0.23811322
35	0x3e2f0e3c	0.17095274
36	0x3eb3bffd	0.35107413
37	0x3e809280	0.2511177
38	0xbebf66f0	-0.37383223
39	0x3e956e64	0.29185784
40	0xbd997a26	-0.07494001
41	0x3e5e0fdd	0.21685739
42	0xbe3edb40	-0.18638325
43	0xbeaad614	-0.33366454
44	0xbe6a5ebc	-0.22887701
45	0xbe49fed7	-0.1972612
46	0x3ea751ed	0.32679692
47	0xbe23adea	-0.15984312
48	0x3eaf4c4b	0.34237894
49	0x3e9dc323	0.3081294
50	0xbe84f539	-0.2596834
51	0xbe4d802f	-0.2006843
52	0xbc79a151	-0.015236215
53	0x3e88b3e7	0.26699755
54	0x3e0df27d	0.13862033
55	0xbdf6be36	-0.120479986
56	0xbe9a7077	-0.3016393
57	0xbe2cd284	-0.1687718
58	0x3dfb27d1	0.12263454
59	0xbda9de8c	-0.082944006
60	0x3ea0bec9	0.31395558
61	0x3cea5f2b	0.028609833
62	0x3e869039	0.26281908
63	0x3cdec3a4	0.027192898
64	0x3e33f843	0.17575173
65	0xbeaedee7	-0.34154436
66	0x3e85f06b	0.26159987
67	0xbed41527	-0.41422388
68	0xbe873496	-0.26407307
69	0xbec1d105	-0.37854782
70	0xbe0fbc08	-0.14036572
71	0xbdc92653	-0.09821763
72	0x3eb35a36	0.35029763
73	0xbedfc378	-0.43703818
74	0xbe0ea96b	-0.13931815
75	0xbeb60f17	-0.35558388
76	0xbedda691	-0.43291143
77	0x3eb79c4c	0.35861433
78	0xbe9df90f	-0.3085408
79	0xbe68b0f4	-0.22723752
80	0xbe608e00	-0.21929169
81	0xbe24d5e6	-0.16097221
82	0x3ea634ef	0.3246226
83	0xbe3bcd04	-0.18339926
84	0x3e9d22bc	0.30690563
85	0xbd9c0a89	-0.07619197
86	0x3e6e949a	0.23298874
87	0x3b972f25	0.0046137744
88	0xbe6a3591	-0.22871996
89	0xbcbad488	-0.02280642
90	0xbea656c5	-0.32488075
91	0x3e765610	0.24056268
92	0xbe53b78b	-0.20675485
93	0xbc412a7c	-0.011789914
94	0x3eaa5f51	0.33275846
95	0xbd99f22e	-0.07516895
96	0x3ed3632e	0.41286606
97	0x3e1038dc	0.1408419
98	0xbeb29afc	-0.3488387
99	0x3ec2c459	0.38040426
100	0x3e83e262	0.25758654
101	0x3e9ca9e9	0.3059838
102	0xbe82b393	-0.2552763
103	0x3d8f5986	0.06999497
104	0x3d9331da	0.07187243
105	0xbee149ed	-0.44001713
106	0x3e1cf305	0.1532708
107	0xbd1e95c8	-0.03871706
108	0x3eb0160f	0.3439183
109	0xbebb13ff	-0.36538693
110	0xbe7f6a43	-0.2494288
111	0xbd9fe404	-0.078071624
112	0x3dd5221f	0.10406899
113	0xbe8e3ac6	-0.27779216
114	0x3d4c7f87	0.049926307
115	0x3e9dd621	0.3082743
116	0x3ca294fc	0.019846432
117	0xbe53ddd1	-0.20690085
118	0xbe5ae55f	-0.2137656
119	0x3e55d7c3	0.20883088
120	0x3c4ea6f9	0.012613052
121	0x3e89c2aa	0.2690633
122	0x3e9234e7	0.28555986
123	0x3e4a0c83	0.19731335
124	0xbe90036e	-0.28127617
125	0xbd4bfc8e	-0.0498014
126	0xbe91cbba	-0.28475744
127	0xbec5a05e	-0.38598913

hnn.fc.3.weight f4 [64, 128]
0	0xbd27c3f1	-0.04095835
1	0xbdb5d2e3	-0.08878114
2	0xbda2e116	-0.07953088
3	0xbda31eb2	-0.07964839
4	0xbd1fd35f	-0.03901994
5	0x3ce84135	0.028351406
6	0xbc106b1e	-0.008814601
7	0x3ce174d0	0.02752152
8	0xbd1c3a55	-0.038141567
9	0xbd961f3f	-0.073301785
10	0xbdadfc23	-0.08495357
11	0x3d723512	0.059132643
12	0xbc8f4401	-0.017488481
13	0x3d04f485	0.032459754
14	0x3d834f6e	0.064116344
15	0x3d2ee12a	0.042695202
16	0xbbad9c0c	-0.0052981433
17	0xbdc507c7	-0.09620624
18	0xbd5833cf	-0.052783784
19	0x3d87b772	0.06626786
20	0xbcfa8e0f	-0.030585317
21	0xbd082461	-0.03323782
22	0x3d61d226	0.055132054
23	0xbd0be18c	-0.034150645
24	0xbc8a28e1	-0.016865196
25	0x3c4a7f5e	0.012359468
26	0x3c81847a	0.01581024
27	0x3cf22370	0.029557914
28	0x3d89741e	0.06711601
29	0xbd7c102c	-0.06153886
30	0x3cc05e76	0.023482542
31	0xbd99a2b5	-0.07501737
32	0xbd8c9e88	-0.06866175
33	0xbc55a878	-0.013040654
34	0xbdb92b17	-0.09041422
35	0xbd6ba9eb	-0.057535093
36	0xbd127f0b	-0.03576569
37	0xbd72aee5	-0.059248824
38	0x3d57c2eb	0.052676123
39	0xbdb76bc2	-0.089561
40	0xbcf67289	-0.030083911
41	0x3c62d388	0.013844378
42	0xbde1af33	-0.11019745
43	0xbd79e940	-0.06101346
44	0x3d988c43	0.07448628
45	0x3c039532	0.008031176
46	0xbdcfc3d9	-0.10144777
47	0x3d15166d	0.03639834
48	0x3d39f686	0.04540112
49	0x3cfbc180	0.030731916
50	0xbd954114	-0.07287803
51	0xbba23eb3	-0.004951322
52	0x3d202f1c	0.039107427
53	0xbd5e6c36	-0.054302417
54	0xbd33e64e	-0.043920808
55	0xbd5b9abc	-0.053614363
56	0x3d37074c	0.044684693
57	0x3cd3bc6c	0.025846682
58	0x3d1ca9ab	0.038247745
59	0xbd8e6177	-0.06952184
60	0xbd7ccd92	-0.061719485
61	0x3c878cae	0.016546573
62	0x3d8dc8a4	0.06923035
63	0xbdad420c	-0.08459863
64	0x3cd6a086	0.02619959
65	0x3c447426	0.011990583
66	0xbca0b604	-0.019618042
67	0xbdb3db29	-0.08782036
68	0xbcc29ac0	-0.023755431
69	0x3d7add4c	0.0612462
70	0xbc9008dd	-0.017582351
71	0xbd7ebde1	-0.0621928
72	0xbd85d9e3	-0.06535699
73	0x3c46df28	0.0121381655
74	0x3d0d386f	0.034477647
75	0xbd8a7f99	-0.067626186
76	0x3d600c4e	0.054699235
77	0xbd15e9ba	-0.036599852
78	0x3cc42a8c	0.02394607
79	0xbd8eb844	-0.0696874
80	0xbbd48240	-0.0064852536
81	0xbd10a420	-0.03531277
82	0xbdb0610a	-0.08612259
83	0x3ce37d0e	0.027769592
84	0xbd4604b8	-0.048344344
85	0xbb47a3da	-0.0030462653
86	0xbdb8785d	-0.090073325
87	0x3c8dbb40	0.017301202
88	0xbc60670d	-0.013696444
89	0xbd5153e7	-0.051105406
90	0x3d9e4a9b	0.077290736
91	0x3d2ca4ed	0.042149473
92	0xbd7f09cf	-0.062265214
93	0x3d629f52	0.05532772
94	0x3d940c5a	0.072289184
95	0x3d90e67f	0.07075214
96	0x3d8d63e5	0.06903819
97	0x3d5e22e7	0.054232504
98	0xbd8294fc	-0.06376073
99	0xbd62f897	-0.055412855
100	0x3b33d2aa	0.0027438798
101	0x3c5b74f4	0.013394583
102	0xbc66eb38	-0.014094166
103	0x3d4f80df	0.05066001
104	0x3c2e272e	0.010629458
105	0xbd3b5622	-0.04573644
106	0xbda5d986	-0.0809813
107	0xbd9c1436	-0.076210424
108	0xbcec3644	-0.02883447
109	0x3d3b2cdf	0.04569709
110	0x3cf9d2b7	0.030495984
111	0xbd2985b5	-0.04138728
112	0x3d39128a	0.045183696
113	0xbdbcd407	-0.092201285
114	0xbdac83eb	-0.08423599
115	0x3d243281	0.040087227
116	0xbd9321c1	-0.071841724
117	0x3d72c645	0.059271116
118	0x3d66cd49	0.05634812
119	0xbd8d4a2e	-0.06898914
120	0xbd1ebaf5	-0.038752515
121	0x3ca6168d	0.020274425
122	0x3c975a4a	0.01847567
123	0xbc86cff7	-0.016456587
124	0x3cbd248c	0.023088716
125	0x3bdbda40	0.006709367
126	0x3d8aafac	0.06771788
127	0x3d6773df	0.056506988
128	0xbdc5cf24	-0.096586496
129	0xbc26701d	-0.010158566
130	0xbd604a54	-0.054758385
131	0xbd7909b6	-0.060800277
132	0x3d89cfd7	0.067290954
133	0xbd552e6d	-0.05204623
134	0xbd415dd0	-0.047208607
135	0xbd67b739	-0.05657122
136	0xbdb5ada4	-0.0887101
137	0xbb24237e	-0.002504557
138	0xbdd3031e	-0.10303329
139	0xbd4574c4	-0.04820706
140	0xbd26369b	-0.04057942
141	0xbd701723	-0.058615815
142	0xbb93c5f5	-0.0045096823
143	0xbd92af3f	-0.07162332
144	0xbd112d99	-0.035443876
145	0xbd30f233	-0.04319973
146	0x3ca51bbc	0.020154826
147	0x3d348c6a	0.04407922
148	0xbd9b5098	-0.075837314
149	0xbbb94890	-0.005654402
150	0x3c06a078	0.00821697
151	0xbd20a038	-0.039215297
152	0xbd40bebe	-0.047056906
153	0x3c51bf90	0.01280202
154	0x3d87f166	0.0663784
155	0xbda52527	-0.08063727
156	0xbd9ebbad	-0.0775064
157	0xbdcb5727	-0.09928732
158	0xbdac422f	-0.08411061
159	0xbca80f2f	-0.020515053
160	0xbd8bf29e	-0.06833385
161	0x3d3e050a	0.046391524
162	0x3c950d2c	0.018194757
163	0x3d5e0818	0.054206938
164	0xbb8cb553	-0.0042940765
165	0x3bf130f1	0.0073605706
166	0xbc12cf56	-0.008960566
167	0xbcab985a	-0.02094667
168	0x3d48a3b2	0.048984237
169	0xbd77ce52	-0.060499497
170	0x3b68920a	0.0035487437
171	0x3cdaa567	0.026690198
172	0xbb9ad2b0	-0.004724823
173	0xbda68132	-0.08130111
174	0x3c2715da	0.010198081
175	0xbd8194b0	-0.06327188
176	0x3d59241b	0.05301295
177	0xbd3a1b84	-0.045436397
178	0xbcaa1718	-0.020762965
179	0x3c822184	0.015885122
180	0xbd7df769	-0.062003527
181	0xbd487b28	-0.048945576
182	0x3d3cfe4a	0.046140946
183	0xbd8b036b	-0.06787761
184	0x3d82a9f7	0.063800745
185	0x3c9f0758	0.019412681
186	0xbd7127d8	-0.05887589
187	0xbc1364d8	-0.008996211
188	0x3d6bf65e	0.057608
189	0xbd9be66c	-0.07612309
190	0x3d181e68	0.037138373
191	0x3cdceb2c	0.026967607
192	0xbbfe251c	-0.0077558886
193	0xbd25391c	-0.040337667
194	0xbda3ab8c	-0.07991704
195	0xbd9d2a3a	-0.0767407
196	0xbd91fee4	-0.07128695
197	0xbbb3b665	-0.0054843896
198	0x3cb6bb85	0.022306213
199	0xbdd1bbe3	-0.10240915
200	0xbc60789f	-0.013700633
201	0x3d120fa4	0.035659447
202	0x3d408df0	0.047010362
203	0xbcada1ea	-0.02119537
204	0xbbe90468	-0.007111121
205	0x3d348a9d	0.044077504
206	0x3d3d7cf0	0.046261728
207	0xbd7f20bf	-0.06228709
208	0x3cd7a52c	0.026323877
209	0xbcdf180e	-0.02723315
210	0x3db06fd1	0.08615077
211	0x3c7b4643	0.015336576
212	0xbc2c1d3c	-0.010505017
213	0xbda49351	-0.08035911
214	0x3d265bcb	0.040614884
215	0xbdae9536	-0.085245535
216	0xbdbeefa7	-0.09323054
217	0xbd9494fe	-0.072549805
218	0xbda955b6	-0.08268301
219	0x3d13c8b7	0.03608009
220	0xbc44ccc8	-0.012011714
221	0x3d3f35dc	0.046682224
222	0xbd1b39ae	-0.037896805
223	0x3d120b42	0.035655268
224	0xbdb39c1c	-0.0877001
225	0xbda95bba	-0.082694486
226	0x3d2c8d82	0.04212714
227	0xbc1da093	-0.009620803
228	0x3d8bc2c1	0.06824256
229	0x3bf9a041	0.0076179807
230	0x3d834437	0.06409495
231	0xbcb6c4b6	-0.022310596
232	0x3d5c2dad	0.053754497
233	0xbcf56ae4	-0.029958196
234	0xbd506de2	-0.050886042
235	0xbd9505a6	-0.07276468
236	0x3daab277	0.08334821
237	0x3d4cb934	0.04998131
238	0xbd9f841c	-0.0778887
239	0xbcd4fda4	-0.025999852
240	0x3d82d427	0.06388121
241	0x3d1cadb0	0.03825158
242	0xbb985e92	-0.0046499455
243	0xbd9eed4a	-0.07760103
244	0x3d892c91	0.066979535
245	0xbd09ad1b	-0.033612352
246	0x3ced01c2	0.028931502
247	0xbd9f17a7	-0.07768183
248	0x3d709f9c	0.058745965
249	0xbdba8450	-0.09107268
250	0xbda3d3b2	-0.07999362
251	0x3d5f76c4	0.054556623
252	0x3da2c25b	0.079472266
253	0x3d6d1c52	0.057888336
254	0xbd80e863	-0.06294324
255	0x3d9aec3f	0.075645916

hnn.fc.3.bias f4 [64]
0	0xbd56eac0	-0.05246997
1	0xbdd1fbb9	-0.102530904
2	0x3d17987f	0.037010666
3	0x3cabe776	0.020984393
4	0xbd6e2ec6	-0.058150075
5	0xbcf6cd7d	-0.030127281
6	0x381997fa	3.661958e-05
7	0xbc836bea	-0.016042668
8	0x3c64b8e4	0.013960097
9	0xbbd2285f	-0.006413504
10	0x3ca9e66a	0.020739753
11	0x3d51fe33	0.051267814
12	0x3c1a64c9	0.009423443
13	0xbd708268	-0.058718115
14	0xbc91f93d	-0.017819041
15	0xbd2ce946	-0.042214654
16	0xbdc2d1aa	-0.095126465
17	0x3d8ece38	0.06972927
18	0x3dd687f3	0.10475149
19	0x3cdc58e3	0.026897853
20	0x3c9c2353	0.019059813
21	0xbd9be48d	-0.07611952
22	0x3d7254cc	0.0591629
23	0xbd177b03	-0.036982547
24	0xbbaee495	-0.0053373077
25	0x3c9e1671	0.01929781
26	0x3d8cdafe	0.06877707
27	0xbd37bfb9	-0.044860575
28	0xbde070aa	-0.10958989
29	0xbcda2461	-0.026628675
30	0x3d6c1d21	0.057644967
31	0x3d99a85a	0.07502814
32	0x3aa74872	0.0012762679
33	0xbdba4afc	-0.090963334
34	0xbda357ff	-0.07975768
35	0x3c64f2f1	0.013973937
36	0x3c090e8b	0.008365284
37	0xbd3b1cb5	-0.045681674
38	0xbd64ab0c	-0.055827186
39	0x3ce3c6a7	0.027804686
40	0x3bee6b76	0.007275994
41	0xbd2bafdf	-0.04191577
42	0xbe122a49	-0.14273943
43	0xbc4efceb	-0.0126335425
44	0xbdbdd8ab	-0.09269842
45	0xbda8e6fe	-0.08247183
46	0x3a9edee5	0.0012120871
47	0xbd406de5	-0.046979804
48	0xbd876a6b	-0.066120945
49	0xbd45382c	-0.048149273
50	0xbd913f74	-0.07092181
51	0xbd9cbbaa	-0.076529816
52	0x3d1d5f80	0.038421154
53	0xbcf50777	-0.029910786
54	0x3dc146b1	0.094373114
55	0x3d7c0c59	0.061535213
56	0x3d70523e	0.058672182
57	0x3c7d9f9b	0.015479947
58	0xbdc157bb	-0.094405614
59	0x3d8f6096	0.07000844
60	0xbc9c8f9c	-0.019111447
61	0x3d88c8ef	0.0667895
62	0x3d3802f0	0.044924676
63	0x3d917864	0.07103041
