Proposed/BestModel/RabinovichFabrikant.pth (torch, 178280 bytes, 17 tensors)

q_mlp.0.weight f4 [128, 180]
000000 e6 58 97 bd 6f d6 70 bd 7f c3 02 bd 6f 6b 90 bd
       -0.07390003 -0.05879825 -0.03192472 -0.07051741
000010 40 a8 8a bb a8 4b 86 bd 06 00 26 3d 42 cd 14 3d
       -0.0042314827 -0.06557399 0.040527366 0.03632856
000020 d8 9c 66 3c d6 d2 6c 3d 50 33 ef bb 20 de 36 3d
       0.01407548 0.057818256 -0.007299818 0.04464543
000030 3e ce 55 bd a0 a6 70 bc db 1b 88 bd c0 4b c6 bb
       -0.05219864 -0.014688164 -0.06645938 -0.0060515106
000040 f4 12 46 bd 71 22 89 3d 3e 12 54 3d b6 e2 64 3d
       -0.04835792 0.06696022 0.05177521 0.05588027
000050 8c 1d b5 3c ed 2a 2e bd fd 2b 89 3d c0 f3 94 bd
       0.022108816 -0.042521406 0.06697843 -0.07273054
000060 e0 da 42 bd 04 ae 3e bd 2e 19 fd bc 98 80 73 3c
       -0.047572017 -0.046552673 -0.030895796 0.014862202
000070 88 42 67 bd 3a 34 6b bd 80 01 12 bd 2e 56 3a 3d
       -0.056459934 -0.057422854 -0.03564596 0.045492344
000080 35 34 5c bd 05 e9 88 bd 56 4d 84 bd 88 3b 16 bd
       -0.053760726 -0.0668507 -0.06460063 -0.036677867
000090 d0 6e a0 bc 24 54 97 bd c8 ef 0e bd 40 f1 bb 3a
       -0.01958409 -0.073890954 -0.034896642 0.0014338866
0000a0 68 4e 49 3c 98 11 2f bc 08 77 0a bc 72 9e 46 bd
       0.01228676 -0.010685347 -0.008451231 -0.04849095
0000b0 e8 67 1c 3d 72 18 93 bc bc bc 50 bd da 0b 93 bc
       0.03818503 -0.017955992 -0.05096124 -0.017949987
0000c0 70 9b 2a bc db 23 8d 3d c2 1b 1f 3d 0c 8d f6 bc
       -0.010413036 0.068916045 0.03884483 -0.030096553
0000d0 a8 40 2d bc 23 e4 86 3d 72 22 44 3d 18 3e 98 3c
       -0.010574497 0.065864824 0.047884412 0.018584296
0000e0 d8 07 db bc 02 08 7e 3d 80 cc 02 3d d5 f8 07 bd
       -0.026737139 0.062019356 0.031933308 -0.03319629
0000f0 4a a8 58 3d 40 13 ae 3b f6 c8 61 bd c3 51 07 bd
       0.052894868 0.0053123534 -0.055123292 -0.03303696
000100 4c a6 64 bd e4 dc 7c bd 40 d5 ee 3a 25 c9 5a bd
       -0.055822656 -0.061734095 0.0018221512 -0.053414483
000110 78 b5 22 3d 5e 89 08 3d 58 58 83 3c 16 8e 7b 3d
       0.039723843 0.03333413 0.016033337 0.0614148
000120 3e 7d 0a bd 80 af 91 3a c0 98 3b 3d 6c 0f d3 3c
       -0.033810847 0.0011114925 0.04579997 0.02576419
000130 40 f5 13 3c de 49 7f 3d 74 28 8b 3c f4 69 4d 3d
       0.00903064 0.062326305 0.016987063 0.050149873
000140 9f 8d 83 bd 09 8a 83 bd b1 c7 89 bd e0 41 8a 3b
       -0.064234965 -0.064228125 -0.06727541 0.0042192787
000150 5d 8a 81 3d da 36 85 bd bc f4 f2 3c b5 b5 86 bd
       0.06325219 -0.06504603 0.029657714 -0.065776266
000160 d6 e3 4a bd 1c 37 d0 bc 78 4a f8 bc bc 59 b4 3c
       -0.049533688 -0.025416903 -0.030308947 0.022015445
000170 21 ff 7f bd f5 f3 96 3d e8 07 32 3c 48 dc d4 3c
       -0.06249917 0.0737075 0.010866143 0.025983945
000180 bc 3b 4e bd 5e 7b 28 3d 04 92 8e bc ff e5 17 bd
       -0.050349936 0.041133277 -0.01740361 -0.037084576
000190 b0 b7 4f 3c 3c 1f fe 3c 88 53 01 3c b8 9f d5 bc
       0.012678072 0.031020753 0.007893451 -0.026077136
0001a0 d8 13 63 3c 64 41 ec bc c0 b9 ce bc 72 d9 e2 bc
       0.013859712 -0.028839774 -0.025235057 -0.027691577
0001b0 f2 e4 35 3d 36 65 55 bd 36 91 04 3d 8a 3d 1e 3d
       0.044407792 -0.052098475 0.032365046 0.038632907
0001c0 cc da 4a bd f4 e3 67 bd e8 4e 4b bd 36 21 81 bd
       -0.049525067 -0.056613877 -0.049635798 -0.063051626
0001d0 0f 29 80 3d ed 8d 86 3d d0 82 2a bc d1 22 8f 3d
       0.06257831 0.06570039 -0.010407165 0.069890626
0001e0 34 f5 ac 3c eb bf 95 bd b1 ab 8b bd dd 6b 13 bd
       0.021113016 -0.07311996 -0.06819857 -0.03599154
0001f0 ce 43 98 bd 47 0f 0c bd 24 24 a5 3c c0 16 db ba
       -0.07434808 -0.034194257 0.020158835 -0.0016715154
000200 98 09 64 bc 20 03 96 3b d3 8f 8b 3d 80 4c 54 3a
       -0.013918303 0.0045780092 0.06814542 0.00080985576
000210 dc 81 19 3d fa 2b 93 bc 94 07 65 bd 70 e0 6e 3c
       0.03747736 -0.017965306 -0.05591543 0.014579877
000220 c4 99 0c 3d 92 84 31 3d 10 a0 8f bd 20 b6 21 bc
       0.03432633 0.04333932 -0.070129514 -0.009870082
000230 5c 14 93 bd 00 5f 6f 3a a0 ad 57 3b ac b7 c6 3c
       -0.071816176 0.00091312826 0.0032909885 0.024257503
000240 84 88 d1 bc 00 65 32 bc dc d1 95 3c 2f dc 93 bd
       -0.025577791 -0.010888338 0.018288545 -0.07219731
000250 78 29 16 3d 51 8f 93 3d 54 44 59 bd 6d dc 94 3d
       0.03666064 0.0720507 -0.05304368 0.072686054
000260 f8 64 39 3c ef 07 97 3d af ad 85 3d 92 b2 82 bd
       0.011315577 0.0737456 0.06527268 -0.06381716
000270 3a d6 65 3d c0 19 27 3b 5c bd 9a 3c 5c 93 dd bc
       0.056112505 0.0025497526 0.018889122 -0.027047805
000280 84 b5 74 bd 80 b9 e9 3b e4 dd a9 3c 54 88 19 3d
       -0.05974342 0.007132709 0.020735689 0.03748353
000290 1a 0b 80 bd 4f b5 93 bd ac 45 11 3d d0 7b 74 bc
       -0.062521175 -0.07212316 0.035466835 -0.014922097
0002a0 80 46 90 ba 94 6d 9e bc 00 fe 21 39 70 a3 49 3c
       -0.0011007339 -0.01933936 0.00015448779 0.012307033
0002b0 df f9 8c bd 00 35 e1 3c 00 4d 06 3c 74 f7 0c 3d
       -0.06883597 0.027491093 0.008197069 0.034415677
0002c0 c0 ab 1d bd e2 2c 5e 3d 3c 96 4b 3d e5 52 19 bd
       -0.03849387 0.054242022 0.04970382 -0.03743257
0002d0 21 16 0b 3d 1a 31 f0 3c c7 4f 33 3d 2c fd 1d 3d
       0.03395665 0.029320288 0.043777253 0.03857152
0002e0 dc d9 fe 3c 8b 11 9b bb 90 27 3b bb 08 c8 8d 3d
       0.031109743 -0.004732316 -0.0028557517 0.069229186
0002f0 32 52 ab bd 18 1d bc bc 53 0f c1 3d 6f e5 88 bd
       -0.08365287 -0.022963092 0.09426751 -0.06684386
000300 50 bc 80 bd 6c 5e 04 3d 9f f0 69 3c e8 20 b0 3c
       -0.06285918 0.03231661 0.01427856 0.021500066
000310 25 62 f5 3c 4f b7 d8 3b c4 7b 4d bd a3 61 c7 3d
       0.029954026 0.006613649 -0.05016686 0.097354196
000320 cc 8c 6e bd d5 68 0b 3d 49 36 8b 3d 1c 5e 6d 3d
       -0.058239743 0.034035522 0.067974634 0.057951078
000330 93 27 5b 3d c6 a4 59 3b 47 63 45 3d ff fb 85 bd
       0.053504538 0.0033209785 0.04819038 -0.06542205
000340 29 8e a4 3d ee ad 47 bd f6 99 76 bd d6 1f b4 bc
       0.080349274 -0.048749857 -0.060205422 -0.021987837
000350 4c 47 93 3d 62 a9 62 3c 73 a6 c1 bc 37 fe 5d bd
       0.07191333 0.013834329 -0.02363894 -0.054197516
000360 97 24 46 3a 98 e2 41 3c 70 80 c0 3c ea 47 28 3d
       0.0007558553 0.011833809 0.023498744 0.041084208
000370 d7 67 a2 bc 22 ca 7a bd ca 8c 3c 3b 5b be 9b 3d
       -0.019824905 -0.061227925 0.002877044 0.07604667
000380 1c 0f 5e 3d 4d 3f a2 bb 27 2d ad 3b d3 39 0f 3d
       0.05421363 -0.0049513937 0.0052849236 0.034967255
000390 1a b8 47 3d b3 ee 25 bd 39 df d3 3b a5 2e 5d 3d
       0.048759557 -0.040510844 0.006465819 0.05399956
0003a0 b2 7f a2 3d 7c b0 ad 3d 1c 61 dd 3c be 5a bf 3d
       0.07934512 0.08480927 0.027023844 0.093434796
0003b0 21 a1 5d bd 7d 30 52 3c 91 8f e6 3c 7d 5a 92 3d
       -0.054108743 0.012828943 0.02814463 0.071461655
0003c0 eb 1b 64 3c ec b3 7f 3d 8a a1 31 bd 71 c4 0f bc
       0.013922672 0.062427446 -0.043366946 -0.008774863
0003d0 47 ff 21 3d 35 d0 92 3d 4f 93 8b 3c 7f c6 66 3d
       0.039550092 0.071686186 0.017038016 0.056341644
0003e0 01 fe 16 3b 0f d6 e8 bb 18 3e 98 3d db 5f 9d 3d
       0.0023039582 -0.007105596 0.074337184 0.076842986
0003f0 a5 9a 52 3d 44 be 83 bd 0a 55 e1 3c 70 5b 87 bd
       0.05141701 -0.06432775 0.02750637 -0.06609237

q_mlp.0.bias f4 [128]
000000 8e 22 92 bd 8c e4 c1 3c e1 5e 2c 3d a3 34 0f bd
       -0.07135497 0.02366855 0.04208267 -0.034962308
000010 85 0c a8 bd 8f bb 2f be 25 6b 68 3d cf 62 d4 3c
       -0.08205513 -0.17161392 0.056742806 0.025926022
000020 c1 a1 b3 3c fb 09 78 bd f3 f3 3b be 58 6e 44 bd
       0.021927716 -0.060556393 -0.18354778 -0.047956795
000030 39 0a f3 3c 41 6b 9e 3c 7e fc 42 be 7f 76 18 3d
       0.02966796 0.019338252 -0.1904163 0.03722238
000040 9c 6e 94 bd 5c ad 4d bb 7b 8e bf 3a ab 93 6b bd
       -0.072476596 -0.0031383848 0.0014614606 -0.057513874
000050 12 89 6a 3d 19 80 45 3c 2e 87 21 be fc 2c dd bc
       0.057259627 0.012054467 -0.15774223 -0.02699899
000060 70 fa 55 bd f4 d9 3b bc 18 89 52 bc 6c ec 10 be
       -0.05224079 -0.011465538 -0.0128500685 -0.14152688
000070 bc 51 e7 bd 06 11 ef 3c 40 5d fd bc c3 a4 38 3d
       -0.112948865 0.029182922 -0.030928254 0.045079004
000080 d5 7f 5b be 99 48 a1 bc 13 b4 13 bd d1 5d 1d 3c
       -0.21435483 -0.019687938 -0.036060404 0.009604887
000090 e1 24 65 bd d4 f8 c0 bc a9 8f 81 bb 90 47 2c be
       -0.055943374 -0.02355615 -0.003953893 -0.16824174
0000a0 3e 7a 23 be 5f e6 df bd 0e 8c 4d be 78 eb 02 3d
       -0.159646 -0.10932612 -0.20072958 0.03196284
0000b0 d1 3b 38 3c 60 a8 34 3c ee 32 03 3d 06 01 97 3b
       0.01124473 0.011026472 0.032030992 0.0046082763
0000c0 ba 82 8a 3c 65 05 57 be db 11 e0 bc 90 c7 9c bb
       0.016908038 -0.20998152 -0.027352264 -0.004784532
0000d0 f7 1f 9b bd fc 36 2d 3b db bc c4 3c a1 c6 3a 3d
       -0.07574456 0.0026430478 0.024015835 0.045599584
0000e0 08 ab 42 3d 46 a9 21 be 52 8b 80 bd a8 8e d9 bc
       0.04752639 -0.15787229 -0.06276573 -0.026557282
0000f0 50 62 91 bc 18 57 ac bd fd 7b 96 bd 9d 6f 1b 3d
       -0.017747074 -0.08415049 -0.07347868 0.03794824
000100 a6 e3 53 be c8 ce 01 3d 03 28 b7 bb c4 d0 e5 bd
       -0.2069231 0.031691343 -0.0055894866 -0.112214595
000110 73 28 f4 bd 3e 96 8d 3c b1 9b 5a be 66 e0 4f bd
       -0.119217776 0.017283555 -0.21348454 -0.050751112
000120 3e 53 01 3d 78 5b 8c bd ce a7 29 3c b2 79 5a be
       0.031573527 -0.06853384 0.010354949 -0.21335486
000130 74 6b 17 be dc f8 43 be 68 c6 22 3d c5 eb bc bc
       -0.14787084 -0.19137901 0.039739996 -0.023061642
000140 7d 9c 17 3c 95 eb ef bd 7b f2 77 3c 74 7d 04 be
       0.009253618 -0.117148556 0.015133495 -0.12938482
000150 24 38 84 3c ab 34 5f be ec 6b 6f bc 45 85 29 3d
       0.016140051 -0.21797435 -0.014613133 0.04138686
000160 23 7a 3d be 18 62 6c 3c 47 72 12 bd 23 d5 1d be
       -0.18503623 0.014427684 -0.035753515 -0.15413336
000170 61 ea 87 3c 73 c0 37 be 08 3c 36 3d 4a 05 94 3b
       0.016591253 -0.17944507 0.044490844 0.004517232
000180 05 ae 37 bd f4 46 f3 bc c8 fb 6f bd 27 ae b7 bc
       -0.044843692 -0.029696919 -0.058589727 -0.02242191
000190 2c 6f 7e bc 05 0f c8 3c 87 97 bd bb 96 cd 93 3c
       -0.015529435 0.024421224 -0.0057858857 0.018042367
0001a0 d3 b0 40 be ea bd 7c bd 63 b8 46 3c 89 ae 1e 3d
       -0.18817453 -0.061704554 0.012128922 0.03874067
0001b0 9f 95 4a be 56 f4 f2 3c 4d d3 f9 bd 9d f2 23 bb
       -0.19783638 0.029657524 -0.121985056 -0.0025016435
0001c0 59 e9 94 bd 59 1b 01 3d 64 89 82 3b ef fa 24 bd
       -0.0727107 0.03152022 0.0039836634 -0.04027837
0001d0 d2 2c ac 3c 6e aa 5c bd aa e0 69 3c dd 15 76 3d
       0.021017466 -0.053873472 0.0142747555 0.060079444
0001e0 1c 96 14 be 7f cd 16 be da 7a c2 bb cf 7d 3a be
       -0.14510387 -0.14726828 -0.005935055 -0.18212055
0001f0 78 83 18 3d c2 ae 4b be c4 fe a0 3c e3 4e 4e 3d
       0.037234753 -0.19890884 0.019652732 0.0503682

q_mlp.3.weight f4 [64, 128]
000000 cf 46 a1 bd ed 17 a2 3d 77 43 21 bd 14 80 9c bc
       -0.07874834 0.0791472 -0.03937098 -0.019104041
000010 65 cf 36 3b 5b 2b 0a bd 5c 7c 3f bd f7 71 d5 bb
       0.0027894613 -0.033732753 -0.046749458 -0.00651383
000020 42 1a c2 3c fd f6 c2 bd 81 76 1d 3c e6 6d 4c bc
       0.023694161 -0.095197655 0.009610773 -0.012477374
000030 75 41 72 3d a3 f4 b0 bd 20 24 6f bd 81 3b 02 bd
       0.059144456 -0.08640411 -0.05838406 -0.03179503
000040 5c c1 92 3c 14 6c 94 3d e3 40 74 bc e6 32 76 bd
       0.017914467 0.07247177 -0.014908048 -0.060107134
000050 59 36 bb 3d 8c 22 09 bc 40 52 08 3d bd 1f a8 bd
       0.09141225 -0.008370053 0.033281565 -0.082091786
000060 1b 3e 7e bd 59 ca ee 3d 31 e2 8f 3d b7 bc 2f bc
       -0.062070947 0.116596885 0.070255645 -0.0107261455
000070 22 42 38 3b c4 c0 21 bc ae 88 cf bd 67 1c 13 bd
       0.002811559 -0.009872619 -0.101334915 -0.03591576
000080 7c a9 45 bd 08 0d 03 bd 9e 15 a4 3d 60 0b 43 bd
       -0.048257336 -0.03199485 0.08011936 -0.04761827
000090 0d e8 a9 3d 79 10 46 bd 73 de 4d 3d 76 03 de bd
       0.08296213 -0.048355553 0.050260972 -0.10840504
0000a0 35 4d bc 3a 72 f6 a4 3c fd 07 b8 bd d3 ca 37 bc
       0.0014366271 0.020137046 -0.08985899 -0.011217791
0000b0 c4 e1 d8 3b c5 38 b3 bd ed fa b0 bb 26 e7 46 bd
       0.0066187102 -0.08751062 -0.0054010064 -0.048560284
0000c0 55 07 22 bc bf 79 93 bd 61 5a 81 3c a6 bb e1 3d
       -0.009889443 -0.072009556 0.015790166 0.11022119
0000d0 f8 29 59 bd 99 2f b8 bc 74 17 df 3c 9e 7f 9d 3d
       -0.05301854 -0.022483634 0.027232863 0.07690357
0000e0 98 06 ab 3c fa 95 96 bd d7 98 d7 bd 1c ae 8d bd
       0.020877168 -0.073528245 -0.10527199 -0.06917974
0000f0 88 77 bd 3c c8 a5 89 3d 49 c1 00 3d 30 2b c3 bc
       0.023128286 0.067210734 0.03143433 -0.023824304
000100 c5 e9 83 bd a2 70 f8 3c be d8 cc bc d9 76 61 bd
       -0.064410724 0.030327145 -0.025005694 -0.055044983
000110 9d 3c 9f bd 3a 82 b3 bc af 3a 96 bd e8 32 91 bd
       -0.07775233 -0.021912683 -0.07335412 -0.07089788
000120 5a 24 f5 3c 65 7e 98 3d 4b 1d 28 bb 7e 7c a8 bd
       0.02992456 0.07445983 -0.0025652226 -0.0822687
000130 05 5a eb 3c df 51 6a 3d 20 08 24 3c c2 43 5a 3d
       0.028729448 0.057206985 0.010011703 0.053287275
000140 09 61 99 3d 41 ef d3 bd f0 3c b2 b9 e5 1d ef 3b
       0.07489211 -0.103483684 -0.00033996208 0.007297265
000150 a5 5f 01 bd 84 f1 f0 bd a7 d4 04 ba ce 1a 3a 3d
       -0.031585354 -0.117648154 -0.0005067088 0.04543572
000160 1e b2 c2 bd 1a 90 a6 bd 6e 28 69 bd e0 4f fb bd
       -0.095066294 -0.08132954 -0.056923322 -0.12271094
000170 8b bc 11 bd e2 e5 a4 bd d3 28 d0 3c 88 3e 2f bd
       -0.0355802 -0.08051659 0.025410092 -0.042784244
000180 87 ee a0 3d 57 43 d1 bd a4 ca 07 3d 18 90 6c bd
       0.078579955 -0.10217922 0.033152238 -0.057754606
000190 e1 31 9a 3c 03 db 8b bc f9 48 48 bd b9 62 b3 bd
       0.018822612 -0.017072206 -0.048897717 -0.08759064
0001a0 68 35 aa bd f4 06 87 3c e8 c1 7b bd 94 d9 58 bc
       -0.08310968 0.016482808 -0.06146422 -0.013235468
0001b0 9c e3 a0 bd a2 2d 49 ba 66 76 5b 3d ec 8a ab 3d
       -0.07855913 -0.00076743413 0.05357971 0.083761066
0001c0 00 00 21 38 a6 8b ce 3d d8 c8 64 3d 08 67 9d bd
       3.838539e-05 0.100852296 0.055855602 -0.07685667
0001d0 84 32 96 bd af ef 79 bc b5 ab 8e 3d 4b 2f 08 bd
       -0.07333854 -0.015254899 0.06966344 -0.033248227
0001e0 c6 22 61 3c 83 6e bb bd 01 6a 17 bd 71 1f 3a 3d
       0.013741201 -0.09151938 -0.036966328 0.04544014
0001f0 1a f3 ae 3c 24 27 5f 3c 56 ab 07 3d 43 80 0e 3c
       0.021356154 0.013620172 0.033122383 0.008697572
000200 e7 6a 7d bd 8c 74 f4 bd 04 51 09 be 7c 02 5d 3c
       -0.06186953 -0.11936292 -0.13409811 0.013489362
000210 58 25 97 bd 20 87 80 bd 7c 47 d1 3d e8 93 35 3c
       -0.0738017 -0.06275773 0.10218713 0.011082627
000220 42 54 58 3c 00 55 5c 3d a8 ec 05 3d f9 2a 80 bd
       0.013203682 0.053792 0.032696396 -0.062581964
000230 c1 5a ae 3c 23 72 2b 3d e4 b9 8b bd 2a 95 43 bd
       0.02128351 0.041856896 -0.06822565 -0.047749676
000240 60 7b ca 3c 30 36 45 bd 06 32 4a bc 80 76 00 3d
       0.024717033 -0.04814738 -0.012341028 0.03136301
000250 09 2a d3 3d ae 1c 83 3d 8a ec 94 bd a7 4e 89 bd
       0.10310752 0.064019546 -0.07271679 -0.06704455
000260 35 ce 45 bd 50 68 cc 3d 4b 71 a1 3d fd 16 2e bd
       -0.048292357 0.099808335 0.07882937 -0.042502392
000270 b0 5d b8 3d 20 80 fa 3d bc 61 7d 3d a7 6d 56 bd
       0.090022445 0.12231469 0.061860785 -0.052350666
000280 e0 a3 35 bb 70 5e fb 3d e1 de 7e 3c 3a ef d2 3d
       -0.0027716085 0.12273872 0.015556068 0.10299535
000290 cc d5 a3 bd 1c 23 31 3c 16 c3 e0 bd ec 3b b8 3d
       -0.07999763 0.010811593 -0.1097471 0.08995804
0002a0 bd 9a 47 3c df 10 36 3d b4 69 62 3d 14 16 b5 bc
       0.012182889 0.044449683 0.055276588 -0.022105254
0002b0 de 3e 9c 3b 12 7a b7 3d 4d d0 97 3c 39 4b 44 bd
       0.0047682365 0.0895883 0.018531943 -0.0479233
0002c0 c7 40 44 3d 21 bc ba 3d a3 a8 02 3c 0d aa 81 3c
       0.04791334 0.09117914 0.007974776 0.015828157
0002d0 1b 28 17 3d 80 69 9d bd d0 16 36 3d 38 7b 54 bd
       0.036903482 -0.07686138 0.04445535 -0.051875323
0002e0 cb 99 c1 bd 19 6e da ba 2c ea 03 bd ea f2 47 3d
       -0.09453162 -0.0016664892 -0.032205746 0.048815645
0002f0 e2 7a 18 3d 09 e4 b0 3d 8e cc 9b 3d b6 da c6 3c
       0.037226565 0.08637244 0.07607375 0.024274211
000300 ce 90 52 3d 1c 55 af 3b 1b de 0e 3d 05 69 24 3d
       0.051407628 0.005350722 0.034879785 0.040139217
000310 06 62 be bc d9 0b e6 3d fe ae bd 3d 5e c4 85 bd
       -0.0232401 0.112327285 0.09261893 -0.06531595
000320 36 07 0d bc 6b 17 ae 3d ee ee a4 3d 9f d4 03 bd
       -0.008607676 0.085005604 0.08053385 -0.032185193
000330 ba 70 8a 3c 0a 33 53 3d 1f 7f 9c 3d 37 62 a3 bd
       0.016899455 0.051562347 0.07641434 -0.07977717
000340 34 98 2e 3c 83 7e 99 3b f6 c8 5e bd 98 ae 80 bd
       0.010656405 0.004684271 -0.05439087 -0.06283301
000350 41 d1 7a bd bc 15 58 bd 05 70 6f 3b a9 d8 e3 3d
       -0.061234716 -0.052755103 0.0036535275 0.11125309
000360 fe 8a 53 bd 39 6b 98 3c 1b c0 a5 bd de e6 4d bd
       -0.051646225 0.018605815 -0.08093282 -0.050269
000370 a5 50 cd 3d 2b 83 23 3c 4b d3 d1 3c 57 4a 9e bc
       0.10025147 0.009980003 0.025613448 -0.019322557
000380 14 5d 33 3d 17 8e 01 3d 08 13 66 3c 18 28 53 bd
       0.043789938 0.031629648 0.014042623 -0.05155191
000390 ff 5e 36 3d 11 d8 fc bd 94 35 08 bd 77 c1 68 bd
       0.04452419 -0.12345899 -0.03325422 -0.056825127
0003a0 05 f6 af 3c 18 cc 88 bd fd 07 91 3d c7 12 f1 3d
       0.021479616 -0.06679553 0.07081602 0.117711596
0003b0 30 04 6c bd 25 c8 17 3d ad f5 a3 3d 00 b2 94 bd
       -0.05762118 0.037056107 0.08005843 -0.07260513
0003c0 86 17 a6 bd 5a cf 91 3c 59 76 02 3d 0d cf 17 bd
       -0.081099555 0.017799068 0.031851146 -0.037062693
0003d0 c4 5e 8a bd db aa 91 bc 73 24 cf 3b 88 04 a7 3c
       -0.06756356 -0.017781666 0.0063214838 0.020387903
0003e0 a5 69 54 bd 33 2d e8 3c dd 29 0a bd 4b 97 89 3d
       -0.051858563 0.028341865 -0.03373133 0.0671831
0003f0 9e fc e4 bb d5 5b 87 3d 83 f0 2d 3e 0c 06 bb bd
       -0.006988122 0.066093124 0.16986279 -0.09132013

q_mlp.3.bias f4 [64]
000000 2f a0 3b bd 58 81 09 bc a7 8a 16 3d 4c d9 10 bd
       -0.04580706 -0.008392654 0.036753323 -0.03536348
000010 97 f7 13 bd 1a 7f d2 bd 11 8f fe 3c 9f 39 42 bc
       -0.036124792 -0.10278149 0.031074079 -0.011854558
000020 19 ca 9c 3b ef 89 93 3d e1 20 a2 3c f4 e2 38 bd
       0.004784834 0.07204043 0.019791069 -0.045138314
000030 5c 1e ac 3d d6 ff 2e 3d d4 95 89 3d 03 92 c6 3d
       0.08404228 0.042724453 0.067180306 0.09695818
000040 15 79 87 3c 82 06 60 3c 89 64 41 bd fb 55 91 bc
       0.016537229 0.013673427 -0.04721502 -0.017741194
000050 dc a4 6d bd 49 dd 91 bd d1 7e 84 bd ba 84 8e bd
       -0.05801855 -0.07122285 -0.06469501 -0.06958909
000060 8c 54 1a 3d cf fd 09 3d 47 cb 4e bd 28 30 e7 3d
       0.037678286 0.033689316 -0.05048683 0.11288482
000070 3a 05 18 3b 84 3c 97 bd b2 19 30 bd 96 18 82 bd
       0.0023196475 -0.07384589 -0.042993255 -0.06352346
000080 8d d5 dd 3c 5f 14 ac bd f0 7a 98 3c 67 4f 50 3b
       0.027079368 -0.08402323 0.018613309 0.0031785609
000090 66 4d 74 3d f0 14 02 3c a6 2f b7 3c e7 39 5b 3d
       0.059644125 0.007939562 0.022361588 0.053522017
0000a0 fa 05 6f bc 13 f7 2a bd 01 03 37 3d 60 a6 81 bd
       -0.014588827 -0.041739535 0.0446806 -0.06330562
0000b0 9d 9d 72 3d 31 76 3d bd de 53 77 3d 54 11 b8 3d
       0.059232343 -0.046255294 0.060382716 0.0898768
0000c0 94 da 6c bd 1e a8 9d 3d 8c 46 9d 3a 14 5e 17 3d
       -0.05782564 0.076980814 0.0011999174 0.036954954
0000d0 1e 68 33 bb 99 bb 8e bd 16 5b f6 bc d1 95 60 bc
       -0.002737529 -0.06969375 -0.03007273 -0.013707594
0000e0 b4 6c dc 3c e4 e5 47 3d df 6e b8 3b 81 0c 24 bd
       0.026907302 0.048803225 0.0056284512 -0.040050987
0000f0 bc 60 c3 3d 82 12 93 3d 24 5f 79 3d 95 95 40 3b
       0.09539935 0.071812645 0.06088175 0.0029386033

hamiltonian_mlp.mlp.0.weight f4 [1, 128]
000000 a7 dd 68 bd 70 83 df bb 4c 53 a2 3c 1f 84 b2 bd
       -0.05685201 -0.0068210885 0.01981511 -0.08716606
000010 1e 52 2c bd 00 9b 5f 3b f4 3b 86 bc 51 91 a6 3d
       -0.0420705 0.0034119487 -0.01638601 0.08133186
000020 24 f1 88 bc 55 4a 5d bd da bb 2a 3d bc 38 a2 3c
       -0.016716547 -0.054025967 0.041683055 0.019802444
000030 e0 49 30 bd 41 a6 10 bd ac e6 a6 bd 19 25 b1 bd
       -0.043039203 -0.035314802 -0.08149466 -0.08649654
000040 e8 a2 8d bc fc 34 34 bd d2 ef 2e 3d 4b 8c 93 3d
       -0.017289594 -0.043995842 0.04270918 0.07204493
000050 3a 62 55 3d bf db a5 bd bd f3 a3 3d b0 cd 88 3c
       0.05209563 -0.08098554 0.08005474 0.016699642
000060 da 68 71 3d 7a 1d 26 bd 00 70 36 3c 64 f6 5b bd
       0.058937885 -0.040555455 0.011135101 -0.053701773
000070 24 d4 80 bc c8 3f 82 bc a3 6b b3 3d f1 6c 89 3d
       -0.015726157 -0.015899554 0.087607644 0.06710232
000080 00 df 60 3a 80 42 d5 bb 00 2a 78 ba a0 57 0a bb
       0.00085781515 -0.0065081716 -0.00094667077 -0.0021109357
000090 ef 00 4f bd 58 be 9c bc fe a7 2d bd 89 57 9d bd
       -0.050538 -0.019133732 -0.042396538 -0.07682712
0000a0 b6 02 8a bd 5e c1 66 3d 78 a1 3b bc 17 b6 af 3d
       -0.06738798 0.056336753 -0.011452071 0.08579653
0000b0 99 dc 95 3d 6e 6b 7d 3d 00 01 e8 b9 8d aa ab 3d
       0.07317466 0.06187003 -0.00044251233 0.08382139
0000c0 51 71 82 3d 48 36 50 bd 8e ef 1d 3d a0 b5 7b 3c
       0.0636927 -0.050833017 0.038558535 0.015363127
0000d0 0a 18 2f 3d e0 5f 54 3b 45 53 9a 3d 7a cf 25 3d
       0.042747535 0.0032405779 0.07535414 0.04048107
0000e0 70 fa f8 3b 1e 2e 57 3d 55 1d 35 bd 50 af 91 bc
       0.007598214 0.052534215 -0.044217426 -0.01778379
0000f0 c6 7a 2e 3d e2 09 73 bd b0 92 24 3c fa 14 49 bd
       0.042597555 -0.059335597 0.010044739 -0.04909227
000100 12 6a 1f bd a2 24 4f 3d 00 d0 11 bd 42 1e 33 3d
       -0.038919516 0.050572045 -0.035598755 0.043730028
000110 46 37 46 3d 44 ed 93 bd dd 06 8d 3d bf 04 87 3d
       0.048392557 -0.07222989 0.06886075 0.06592702
000120 ae f6 6d 3d 8f 46 06 bd 94 c9 c8 3c 80 cd 57 bd
       0.05809658 -0.032782134 0.024510182 -0.052686214
000130 a9 ef 94 3d c1 dc 45 bd 06 27 55 3d b2 a4 0c bd
       0.07272274 -0.04830623 0.05203917 -0.034336753
000140 ea af 5d 3d 66 1b 1a 3d 36 f0 22 3d a1 e0 99 3d
       0.054122843 0.037623785 0.039779864 0.07513548
000150 ca d0 1b 3d b9 c0 b4 3d c0 de e4 3a 51 ee 22 bd
       0.038040914 0.088258214 0.0017461404 -0.039778057
000160 c1 b2 93 3d 98 d9 1c 3c a4 a2 94 bd 09 f6 66 bd
       0.07211829 0.009573363 -0.07257584 -0.05638698
000170 4e 87 82 bd a1 89 5b bd c8 9e 13 3c 57 2c 43 bd
       -0.063734636 -0.05359805 0.009010024 -0.047649708
000180 30 17 0e 3d 48 46 f5 3c 00 ac 3d bb a8 b1 61 bc
       0.034690082 0.02994074 -0.0028941631 -0.013775267
000190 77 b9 4b bd 08 9c cc 3c 7b 29 4d bd b6 13 6b bd
       -0.04973742 0.024976745 -0.050088387 -0.057391845
0001a0 c0 bb 67 3c 78 d2 f1 bc 60 39 4a 3c d8 1e c3 bc
       0.014143884 -0.029519305 0.012342781 -0.023818418
0001b0 0f f5 9d 3d 13 58 91 bd 4d 1b 9e bd c0 3d 05 3b
       0.07712757 -0.07096877 -0.07720051 0.0020330995
0001c0 b0 dd 78 bc af 96 8d 3d cc b0 8d bd 15 2c 18 bd
       -0.015189573 0.06913506 -0.06918487 -0.037151415
0001d0 92 0c e8 bc 07 01 76 bd f5 f5 9a 3d 24 83 82 bd
       -0.028326306 -0.060059574 0.07566444 -0.06372669
0001e0 42 ac 64 3d ca 15 3a 3d 1d 9f a1 3d e0 86 ac 3b
       0.05582834 0.045430936 0.078916766 0.005265102
0001f0 3b 49 8f bd 62 19 f1 bc 37 67 9e 3d e6 ea 7d 3d
       -0.069963895 -0.029431049 0.077345304 0.061991595

fusion.weight f4 [6, 128]
000000 48 d3 d7 bd f1 df b4 bc ea af 38 ba 2c b1 7b ba
       -0.105383456 -0.02207944 -0.0007045256 -0.0009601291
000010 1a 51 6f bd 08 fa 25 bc f2 81 f3 bb ad d5 85 bd
       -0.058426954 -0.010130413 -0.007431262 -0.06534896
000020 ae df a3 bd 83 a5 94 3d 77 17 0c 3d cb 11 ae bd
       -0.08001648 0.07258131 0.034202065 -0.084994875
000030 69 de b5 3d 57 8d 9e 3d e6 2a 79 bd ef ba 90 3c
       0.08880312 0.07741802 -0.060831927 0.017667262
000040 06 e0 e7 3b c5 b4 d3 bc b6 25 5c bd ae d6 dc bc
       0.007076266 -0.025843034 -0.0537469 -0.026957836
000050 93 1d 53 3d eb a3 15 bd 59 8f ab 3d 64 a5 cc bd
       0.051541876 -0.036533277 0.08376951 -0.09992483
000060 f1 7c 9d 3d d6 56 46 bc 99 60 03 bd fa ed cf 3d
       0.07689846 -0.012105664 -0.032074545 0.10152812
000070 b9 bb 8d 3d c8 ff 60 3d 96 3b ae 3d 9e 75 35 bd
       0.06920571 0.054931432 0.08507459 -0.04430162
000080 f7 2c 1f bd 3e f6 29 3c ec 8c aa bd bf db f3 3c
       -0.03886124 0.01037365 -0.0832766 0.029767869
000090 d4 2f 12 3d 63 45 c4 bc ad 2d a4 3d 12 9f f7 3d
       0.035690144 -0.023958867 0.080165245 0.12090887
0000a0 fa ce 14 bc 8c f9 2a 3d 90 b9 2e bd d4 51 2f bd
       -0.00908255 0.041741893 -0.042657435 -0.042802647
0000b0 c7 ce 87 ba 4a 92 ec 3c 96 e5 f4 3b c3 34 76 3d
       -0.0010361307 0.02887835 0.007473658 0.06010891
0000c0 26 11 b5 3b 24 4d 3e bd 01 43 e2 bd ba d0 da bc
       0.005525726 -0.046460286 -0.11047936 -0.026710857
0000d0 b6 26 b9 bd 63 0e e1 bb 9c 85 98 bc a8 d8 8a 3d
       -0.09040587 -0.00686817 -0.018618397 0.06779605
0000e0 6c bc 46 bd 15 6a 83 3d ab 48 d6 3d 7c 8f a2 bb
       -0.048519537 0.06416718 0.10463079 -0.0049609523
0000f0 4a 73 5f 3d 46 c5 ba bd a9 04 f4 3d 8e 1e 27 3d
       0.054553308 -0.09119658 0.11914951 0.040800624
000100 d7 f3 6e bd 05 b0 44 3d 11 36 f8 bd f4 32 d9 bc
       -0.058338013 0.048019428 -0.12119687 -0.026513554
000110 46 04 90 bc c7 40 fd bd 51 b3 5a 3d a6 d8 1d be
       -0.017580163 -0.12365871 0.053393666 -0.15414676
000120 1e c2 23 bd 8f bf 02 3e 17 2b 5f 3d cf c1 b1 bc
       -0.039980046 0.12768386 0.054484453 -0.02169886
000130 7e 86 8f 3d a3 95 f8 3c 48 99 26 3d 50 8f 4c bc
       0.07008074 0.03034479 0.040673524 -0.01248534
000140 4a 96 e5 bd 0a 63 68 bd e1 8a 1b be 95 c0 25 be
       -0.11210306 -0.056735076 -0.15189697 -0.16186745
000150 bb 87 6f bb 09 bd 74 bb a6 e0 5a 3d 99 32 ed bc
       -0.0036549408 -0.003734412 0.053436898 -0.02895479
000160 ea 9e 3e 3d 16 db 67 3d af 24 8b bd 7e b3 eb 3d
       0.04653827 0.05660542 -0.06794106 0.11508845
000170 72 f6 aa 3d 35 39 f9 bd 2a e5 85 bd 85 c4 d1 bd
       0.08347787 -0.121691145 -0.0653785 -0.10242561
000180 8d 50 2e 3c 54 4d 91 bd e7 10 08 be c9 bb 5f 3c
       0.010639322 -0.07094827 -0.13287698 0.013655611
000190 4f dc c8 3d db 8d e3 3d 8b bb 72 bd 69 60 e0 3c
       0.098076455 0.11111041 -0.059260886 0.027389722
0001a0 5e 1c dc bb 16 c2 9c 3d c7 9b ce 3d 08 68 1e 3d
       -0.006717249 0.076542065 0.10088306 0.03867343
0001b0 20 40 8b 3d d6 bb 73 bd 89 59 da 3d 77 59 e3 3d
       0.0679934 -0.059505306 0.10661609 0.111010484
0001c0 a0 84 ce b9 c1 a7 35 3d c3 47 91 3c 18 44 1f 3e
       -0.00039390195 0.044349436 0.017734414 0.1555332
0001d0 29 23 25 bd ca 95 4f 3c 05 5e 8c bb 09 f2 04 3e
       -0.040316734 0.01266999 -0.004283669 0.12982954
0001e0 7c 9e 11 bc fe 28 c9 3d 79 60 ed 3d 30 26 55 3d
       -0.008887883 0.09822272 0.11590666 0.05203837
0001f0 f0 c6 c2 3c 90 49 15 bb 55 98 c6 ba ef 42 bd 3d
       0.023776501 -0.0022779442 -0.00151516 0.09241282
000200 c9 65 7a 3d f1 4e 82 3d b7 17 a7 3d b0 2f 20 3d
       0.061132226 0.06362713 0.0815882 0.03910798
000210 95 02 94 bd 69 fb 8c 3c 49 d1 cf 3d ce 31 01 3b
       -0.07227055 0.017209725 0.1014734 0.0019713524
000220 10 04 ce bd b9 8f 39 3d 84 30 3c 3d b1 64 eb bd
       -0.100593686 0.04530308 0.045944706 -0.11493815
000230 6b 99 f8 ba 9c 8f 8a bd 1c 7f b9 bd 21 51 5b 3d
       -0.001896662 -0.067656726 -0.09057447 0.053544167
000240 06 94 78 3d 9e 09 86 3c f0 d5 6d 3d fa 6d 9c bc
       0.06068804 0.016362008 0.058065355 -0.01909541
000250 94 81 05 bd 24 6c db 3b 1b 39 ac bc 1c 60 a8 3c
       -0.03259428 0.006696241 -0.021023324 0.020553641
000260 df 3c bc 3c 4c 1e d7 bd c5 85 0c 3d 9b d0 6f 3c
       0.022978244 -0.105038255 0.03430726 0.014637138
000270 18 4a 97 3d 0f 69 9d bd b7 cc fd bb 36 2f c5 bd
       0.07387179 -0.07686054 -0.007745351 -0.096281454
000280 1c 6c 87 bd 29 0e 7a 3d 1f 13 28 3c 38 98 5c bd
       -0.06612417 0.06104866 0.010258465 -0.053856105
000290 fc 21 27 3d ce e3 a2 3c 80 79 92 3d 1c 9c 95 3d
       0.040803894 0.019884016 0.071520805 0.07305166
0002a0 25 72 67 3c 2b 95 45 3d 34 88 5b 3c b5 9c bf bb
       0.014126335 0.04823796 0.013399173 -0.0058475384
0002b0 f6 47 af 3d a3 0d 01 bd 4d 24 3d 3d 9e ad 51 bd
       0.08558647 -0.031507146 0.046177197 -0.051190965
0002c0 3b 35 ce 3c 48 f7 06 bd 50 cc 88 bc 8b 45 29 bd
       0.025171867 -0.03295067 -0.016698986 -0.041326087
0002d0 e1 1f b8 bc 28 09 44 bb 9e ad b3 bd 8c 9b 0e bd
       -0.022476139 -0.0029912684 -0.08773349 -0.03481631
0002e0 be df 16 be bb 3c 21 bc b4 9e 82 3d 44 85 47 3b
       -0.14733788 -0.009841139 0.063779265 0.0030444423
0002f0 eb 34 59 3d bb 3b 31 bd c0 63 d7 3d 35 30 74 3c
       0.053028982 -0.043269854 0.10517073 0.014904072
000300 da 6c 4b 3d 84 43 20 bc 5e bd 0b 3e af c3 fe bc
       0.049664356 -0.009781722 0.13646457 -0.031099169
000310 b9 36 33 3e 4a 00 bc bd db 33 2c bb 4c 57 49 3d
       0.17501344 -0.09179743 -0.0026276025 0.04915552
000320 32 44 1a bd e8 5a cd bd d3 b1 27 be 80 f8 1a 3d
       -0.037662692 -0.100271046 -0.16376428 0.037834644
000330 86 60 6e bd 58 e0 fd bd 64 98 7e 3d 1b c6 93 3c
       -0.05819752 -0.12396306 0.06215705 0.0180388
000340 df 36 ca bd d6 88 5a bd 84 69 0b 3e f3 e3 d2 3c
       -0.09873747 -0.053353153 0.1361447 0.02574346
000350 f1 3d 0a 3d 6d 05 52 3d a9 48 29 3d 35 fd 07 3e
       0.03375048 0.051274706 0.04132906 0.13280185
000360 8d 06 94 3c e0 bf 50 bd 05 0f 81 bd ac 23 21 3d
       0.01806953 -0.050964236 -0.06301693 0.03934066
000370 ec cc ee bd 8f 39 53 bd e3 4a af bc 65 d0 85 3d
       -0.116601795 -0.051568564 -0.021398013 0.06533889
000380 1a dc 1c bd 9d de c3 3d 7e 05 27 3d 05 26 06 bc
       -0.038295843 0.095639445 0.040776722 -0.0081877755
000390 89 55 76 bd 7b f3 a4 bc ce 50 9e bd a5 bc 11 bd
       -0.060140166 -0.020135632 -0.07730256 -0.035580296
0003a0 45 cd 57 3c a7 29 06 3d 04 e1 97 bc 1d 0d a5 3b
       0.013171499 0.032754567 -0.018539913 0.0050369636
0003b0 3f e6 a7 bc f6 f1 c5 bd bb 95 c9 bd 19 91 8b bd
       -0.020495532 -0.09665291 -0.09843012 -0.068147846
0003c0 f9 76 ba bd 7c 77 87 bc 9b db 93 bc 09 59 a3 bd
       -0.091047235 -0.016536467 -0.018049052 -0.079759665
0003d0 fd 0c fa 3d 50 45 04 be bd fc 8e 3d 3f ba 3f bc
       0.122095086 -0.12917066 0.069818 -0.011702119
0003e0 2f 76 12 3d 40 6b 16 bc 17 59 02 be a9 72 03 3c
       0.03575724 -0.009180844 -0.12729298 0.008022943
0003f0 59 ca c5 3d 94 1c 4e 3d a9 e0 cb 39 4e d3 ae 3d
       0.096577354 0.050320223 0.00038886562 0.08536397

fusion.bias f4 [6]
000000 ff c5 17 3d 30 54 a1 3b 3c 10 32 bd 86 9c 89 bd
       0.03705406 0.004923366 -0.043472514 -0.067193076
000010 4a 6c 3d bd 5f 44 2d bd
       -0.04624585 -0.042301532

hnn.fc.0.weight f4 [128, 6]
000000 c1 3e 6e 3e ac a5 0c be ab b5 9f 3e 8f 40 fc 3d
       0.23266126 -0.13735074 0.3119329 0.12317001
000010 f7 ab b8 3e 91 a9 aa 3e 76 70 b3 3e 1b 80 ad 3e
       0.360687 0.33332494 0.35046738 0.338868
000020 82 18 11 be 21 94 c3 be 3b 0a 8c be b5 ad f0 3c
       -0.14169505 -0.3819895 -0.27351555 0.029379705
000030 7d 66 5d be 75 0f 8f 3d 20 d0 6b 3d 4c 4f 21 be
       -0.21621127 0.0698537 0.05757153 -0.15752906
000040 2f 1c f1 bd cd c2 f8 bd 38 2c 51 be 6c f2 0e be
       -0.11772954 -0.1214653 -0.20427024 -0.13959664
000050 2e 63 a2 be f0 fa bd bc 08 eb d7 bd e8 7c 1a 3d
       -0.31716293 -0.023190945 -0.105428755 0.037716776
000060 1d e7 7c 3e 65 cc c0 be b7 48 bc be f2 1c 48 3e
       0.24697538 -0.3765594 -0.36774227 0.19542292
000070 eb 85 1a be c3 23 b9 be ae 11 58 3e b9 a8 87 be
       -0.15090148 -0.36160097 0.21100494 -0.26495913
000080 0e 71 48 3e 86 a0 3e 3e 23 9c 76 be 94 1d 5f 3e
       0.19574377 0.18615922 -0.24082999 0.21788627
000090 72 9d 71 bd 6c f5 ae 3e 0d 79 d9 3e d6 14 87 3e
       -0.058988042 0.34171617 0.42475167 0.26383084
0000a0 7c ad 7c be 87 34 cd bd 4f 69 93 3e 78 51 b9 be
       -0.24675554 -0.100197844 0.28791282 -0.36194968
0000b0 d3 7d bd 3d 32 81 95 be f6 d9 3b 3d 98 62 27 3e
       0.09252515 -0.2920013 0.04586216 0.16346204
0000c0 59 38 ad 3e 61 ed 8b be fc 82 2f 3d e3 e1 0f 3e
       0.33832052 -0.27329543 0.042849526 0.14051013
0000d0 a0 d0 24 3e 29 ef e1 bd 86 f8 8f 3a f0 c2 b0 3e
       0.16095209 -0.11031944 0.00109841 0.34523726
0000e0 82 db 47 be 88 b3 51 be 9d 90 da 3d 36 d5 9d 3e
       -0.1951733 -0.20478642 0.10672114 0.3082673
0000f0 6a 72 9d be 99 2e d0 be 91 4d c4 bc 82 6f 58 3e
       -0.30751354 -0.4066055 -0.023962768 0.21136287
000100 b9 d7 31 be d9 fd 84 bd 0f 09 69 be fd 04 8c 3e
       -0.17367448 -0.0649373 -0.22757362 0.27347556
000110 a7 4b 46 3e 8c c4 3a 3e 08 56 3e 3e a5 cb c1 3e
       0.19364797 0.18239039 0.18587506 0.3785068
000120 a5 0b 37 3e 09 95 bc be 27 f1 7b 3e d2 11 22 be
       0.17875536 -0.36832455 0.24603711 -0.1582711
000130 fb eb 93 3d 1f d9 37 3e 0a 1b 65 3e 88 5c a0 be
       0.07222744 0.17953919 0.22373596 -0.31320596
000140 17 8e 05 bd d5 50 2b be ee b9 11 be b8 fd ae be
       -0.03260621 -0.16730054 -0.14231083 -0.34177947
000150 e4 c7 9b be b4 25 a3 3d 7d 99 5b bd a5 6a 15 ba
       -0.30425942 0.07966176 -0.053613175 -0.000569979
000160 e9 73 8f be 98 b3 6e bd 1e 0a 29 3e 27 b0 a3 3e
       -0.2801812 -0.058276743 0.16507766 0.3197033
000170 dc 29 21 be 3e 19 3f 3e 87 ae 38 be 3a db 3e 3e
       -0.15738624 0.18661973 -0.18035327 0.18638316
000180 4e bc b4 be 8e 95 c8 be a2 8a 3d be 16 7d a6 3e
       -0.35299915 -0.391766 -0.18509915 0.32517308
000190 2a 91 bd 3e 98 93 10 3e b0 11 6b 3e aa 19 a0 3e
       0.37024814 0.14118803 0.22955966 0.3126958
0001a0 39 1e e0 bd d0 12 a1 3d dd b7 de 3e a2 51 37 be
       -0.109432645 0.07864916 0.43499652 -0.17902234
0001b0 bd 31 4c bd 15 50 26 3e 0a 9e a9 be 9f f6 03 be
       -0.04985212 0.16241486 -0.33128387 -0.12887047
0001c0 03 bd 56 be 38 af 90 3e 99 54 90 3e 91 3a b4 3e
       -0.2097054 0.2825868 0.28189543 0.35200933
0001d0 2e 40 92 3b 69 05 a5 3e e8 50 ef bd 85 36 47 be
       0.004463217 0.3223069 -0.116853535 -0.19454391
0001e0 d9 a8 a8 be 70 f6 22 3d 1a d4 29 3e 50 34 10 be
       -0.3294132 0.039785802 0.16584817 -0.14082456
0001f0 eb 0e 89 3b b4 c7 8e bd 43 97 91 3d 76 aa a5 be
       0.0041826866 -0.06971684 0.07108929 -0.32356614
000200 e5 01 40 bd 81 86 91 3e f2 0e b9 3c 54 0b 4d 3e
       -0.046876807 0.2842293 0.022590134 0.20023853
000210 eb 9e 1b bd 3b 7b a4 bd 85 0f c0 be 3b 45 a9 be
       -0.037993353 -0.08031317 -0.3751184 -0.3306063
000220 0e e9 e2 3e e1 cc 68 be 18 4f 22 3c 03 2e 94 3d
       0.44318432 -0.22734405 0.009906553 0.072353385
000230 46 40 ba 3d 70 c5 82 be 2e 39 66 3e ed 6d 93 3e
       0.090942904 -0.25541258 0.2248275 0.28794804
000240 d1 05 55 be ca 24 03 be 5b 95 1d 3e 83 d0 51 3e
       -0.20803 -0.12807003 0.15389006 0.20489697
000250 45 0f 38 3e f7 41 2e bd 76 dd 29 3e 8a ed 47 be
       0.17974575 -0.042543378 0.16588387 -0.19524208
000260 91 00 87 3e 60 3c 9d be b1 32 d2 be ca b1 20 3e
       0.2636762 -0.30710125 -0.410543 0.15692821
000270 4c 75 ae 3d cd 42 dd bd 5c 80 10 be df fa a0 3e
       0.08518466 -0.10803757 -0.14111465 0.314414
000280 14 00 8b be ad 91 9e be f0 71 d6 be 25 fe bc 3e
       -0.27148497 -0.30970517 -0.41883802 0.36912647
000290 ed 2f 45 3d 25 d9 9a be d8 bf 70 3e 82 1f 97 3e
       0.04814141 -0.30243793 0.23510683 0.29516226
0002a0 a8 e0 70 bd 88 40 aa 3d 79 b9 88 be 28 95 89 3e
       -0.058808 0.083130896 -0.26704004 0.2687161
0002b0 dd 1e 33 be 6c e9 d7 3c f5 69 ac 3d 25 66 31 3e
       -0.17492242 0.026356421 0.08418647 0.17324121
0002c0 bb 8d 4f 3e 01 7c 26 3e 30 fb e2 bd 4f 35 a1 be
       0.2026891 0.16258241 -0.110830665 -0.31485984
0002d0 53 4d 85 3e c3 d2 5d 3e bb cc bc be 8c 9f 42 be
       0.26035556 0.2166243 -0.36874947 -0.19006175
0002e0 11 e7 5b be b3 9e d2 bd 37 2e 6e bd 47 3c 85 3e
       -0.21474864 -0.10284176 -0.058149543 0.2602255
0002f0 dc 90 7b bd 5a 4b ad be a0 ea 3b be 46 fd da 3c
       -0.061417446 -0.3384655 -0.18351221 0.026732098
000300 c1 e5 57 be 90 e6 53 3e 18 76 0b 3d e8 14 04 3e
       -0.21083738 0.20693421 0.03404817 0.128986
000310 e0 f3 5a bd d0 2b 0f bd 74 ab 14 bc bb ff b7 bb
       -0.053455234 -0.034953892 -0.009074081 -0.0056152022
000320 6e 0c 44 be 5f 3c 2e bd df 74 18 be 7c e9 fd 3d
       -0.19145367 -0.042538043 -0.14888333 0.12398049
000330 e9 6a b5 be d2 43 1b 3d c6 71 b1 be dd af e7 3d
       -0.35433128 0.037906475 -0.34657115 0.1131284
000340 0f b3 0d bd e5 e2 4d 3e c3 82 c8 be 63 b6 bb be
       -0.03459459 0.20106085 -0.39162263 -0.36662588
000350 5c d7 0a ba ae 60 92 be ac 37 25 3b 8b 5d 0a be
       -0.0005296373 -0.28589386 0.0025210185 -0.13512246
000360 a7 30 36 3e 2d 12 93 3e 34 b7 81 be a3 d3 11 3e
       0.17791997 0.28724805 -0.25335085 0.14240889
000370 bf 0e 69 3e ae ae 4b bd 8b 7a 05 be 5f 57 07 3e
       0.22759531 -0.049727134 -0.13035028 0.13216923
000380 a2 ea e0 bd b7 b7 b0 3e 4b c4 ca be 5e fc 80 be
       -0.10982253 0.34515163 -0.39602885 -0.2519254
000390 e3 5b cc 3e 5c d2 9a 3e e8 9f ad bd 9a 01 3e be
       0.39913854 0.30238616 -0.08477765 -0.18555298
0003a0 1b 82 17 be af 1e a1 be 5b 89 5e 3e 06 09 91 3d
       -0.14795725 -0.31468722 0.21732084 0.07081799
0003b0 bf 01 90 be 14 3f a3 be bc 56 8b 3e d0 ad 91 be
       -0.28126332 -0.31884062 0.2721461 -0.2845292
0003c0 95 65 a6 bd d9 7d d1 be 84 0c 8f be 16 19 1f 3e
       -0.08124844 -0.40916327 -0.27939236 0.15536913
0003d0 47 43 1e be b4 0a a3 3e e1 a8 c0 be df b0 92 3e
       -0.15455352 0.31844103 -0.37628844 0.28650567
0003e0 e1 6a e7 be 74 cc 98 3e 47 6e a6 be e7 25 25 3e
       -0.4519873 0.29843485 -0.3250601 0.1612774
0003f0 cc 97 c3 be c4 c6 28 3e 50 0a b5 3e e2 30 8c be
       -0.3820175 0.16482073 0.3535943 -0.27381045

hnn.fc.0.bias f4 [128]
000000 e3 23 ce 3a 4f af 2b bd d3 01 9c 3e 4c e6 8d be
       0.0015727248 -0.041915234 0.30470142 -0.27714765
000010 db bf da 3e e1 20 a3 3e 57 13 b3 be ff aa af 3e
       0.427245 0.31861022 -0.34975693 0.34310147
000020 0d b7 6f bd 59 6a 0b bc 76 ac a3 3e a8 c4 73 3e
       -0.05852418 -0.008509242 0.31967515 0.23805487
000030 4f 7e 27 bd be 85 82 3e e6 93 8b 3d 6d 8a ec 3d
       -0.04089194 0.25492662 0.06815319 0.1154984
000040 42 f7 b6 be 69 87 e6 be 4b 4b ba bd a0 a4 96 3e
       -0.35735518 -0.45025185 -0.09096392 0.29422474
000050 28 0b 46 3e 05 ea b0 be f8 35 19 be bd 13 70 3c
       0.19340193 -0.34553543 -0.14961994 0.0146531435
000060 93 8a 50 3e a9 4b 39 be c2 cc 3c be 9d 00 70 3e
       0.20365362 -0.18095268 -0.18437484 0.23437734
000070 11 6c 60 be 32 3f ee bd 88 2e 85 3d da f6 a1 3e
       -0.21916224 -0.11633147 0.06503016 0.31633645
000080 19 e4 cb be cc 2c 7d 3d a1 7a 5c 3d 39 ab 60 3e
       -0.39822462 0.0618103 0.053827886 0.21940316
000090 82 03 91 be f5 56 9c bd 6e 06 c8 be 8f 75 25 3e
       -0.2832299 -0.07633773 -0.39067405 0.16158126
0000a0 b1 e8 9a 3e 1d d9 a7 3e 77 e8 3d be 02 4a c7 be
       0.30255654 0.32782832 -0.1854571 -0.3892365
0000b0 87 fa 20 bd b0 8c 25 3e 07 0a 37 3d 73 d6 59 3e
       -0.03930142 0.1616695 0.044687297 0.21273212
0000c0 56 dc 65 3e 56 3f 8b 3e 65 43 de be 22 85 ab 3b
       0.22447333 0.2719676 -0.43410793 0.0052343765
0000d0 00 21 01 3d 09 86 7d 3e ae 18 a1 bd fc 04 5a bd
       0.031525612 0.24758162 -0.078660354 -0.05322741
0000e0 43 66 b4 3e 49 9d 4c 3e 09 96 f0 bc 96 23 c9 be
       0.3523427 0.19981875 -0.029368417 -0.39284962
0000f0 5c 11 1b 3d df 07 75 3e f3 82 0a be 43 b8 c7 be
       0.037858352 0.23928784 -0.13526516 -0.39007768
000100 23 fd 9e be 6c ca 71 3d 3c fa 13 be b5 18 2c 3e
       -0.31052503 0.059030935 -0.14450926 0.168063
000110 4b 3f f0 3c c6 b5 0f 3e e9 58 6f 3e 19 0f 1d 3e
       0.029327055 0.14034185 0.2337376 0.1533779
000120 b9 de 5e be 2e e2 aa be 0e c4 63 3e 10 5f 10 be
       -0.2176465 -0.33375686 0.22242758 -0.14098763
000130 4d 4a 57 be f8 58 9a be 76 e2 96 be 46 87 96 3e
       -0.21024437 -0.30146003 -0.2946965 0.2940008
000140 dc 70 c1 be 3f f7 72 bd d9 3e 4c be c1 d1 5c 3a
       -0.37781417 -0.059317823 -0.1994585 0.000842359
000150 9e 86 af 3a bb c8 77 be d4 0c 10 be 5b 4e a8 3c
       0.001339156 -0.24197666 -0.14067394 0.020545175
000160 45 1c bc be 64 84 c3 3b fa f4 e1 bd 1d 65 56 be
       -0.36740318 0.00596671 -0.11033054 -0.20937009
000170 76 b9 4c bd 88 4d 8c 3e 5b b0 81 3e 49 d6 98 3e
       -0.049981557 0.27402902 0.2532986 0.29850987
000180 c8 9c 86 be 83 f0 8c 3e 48 0b 7c be 18 04 20 3e
       -0.2629149 0.27527246 -0.24613678 0.15626562
000190 7e 5a 82 3d 4f b6 ee bd a3 dc 06 be d0 63 ba be
       0.06364916 -0.11655866 -0.13170104 -0.36404276
0001a0 4a 58 9f 3c 38 9c 9e 3e bf 89 69 be 96 5f a5 be
       0.01945128 0.3097856 -0.22806452 -0.3229949
0001b0 65 54 c0 3d 7d f3 53 be 67 cb e6 3d cc 8a b9 3d
       0.09391097 -0.20698352 0.11269265 0.090596765
0001c0 81 ee 6f 3e db b9 6d 3e 75 d7 5c 3e 36 fe 20 be
       0.23430826 0.2321543 0.21566565 -0.15721974
0001d0 58 27 36 be 53 14 ab bd 58 6b 9f be f0 7d cc bd
       -0.17788446 -0.08353486 -0.31136584 -0.09984958
0001e0 0a 78 a3 3c cf fb 94 3d cf fc c6 be 5b de 39 3e
       0.0199547 0.07274591 -0.38864753 0.18151228
0001f0 5d c6 9a 3b 8f 2d 81 be 2e 2c 89 3e b5 7a ca 3c
       0.004723354 -0.2523007 0.2679152 0.024716714

hnn.fc.3.weight f4 [64, 128]
000000 2b cb df 3b 27 0c 08 3d 00 99 d3 3b 4f a1 a1 bd
       0.0068296394 0.033214714 0.006457448 -0.07892095
000010 19 87 68 3d 2f 16 df b8 a1 31 b9 bc ab a0 4e 3c
       0.056769464 -0.00010637601 -0.022606673 0.012611548
000020 23 3a 85 bd 25 a0 21 be dd d4 72 3d 7e 26 aa bb
       -0.06505229 -0.15783747 0.059285033 -0.005192577
000030 39 8d 3f bd fc 3f 8c bd 39 66 97 bd 68 42 2f bd
       -0.04676554 -0.068481416 -0.07392544 -0.04278794
000040 fe ab 46 3d 51 4a ec bb ee 77 37 bd 71 b6 9c bd
       0.04850387 -0.0072110076 -0.04479211 -0.076519854
000050 93 aa 87 bd f1 17 c6 3c 2a a2 40 3d 73 ea 75 bd
       -0.06624331 0.024181338 0.04702965 -0.06003804
000060 c6 83 82 bd 7c 7e 90 bd 50 58 b7 bd ba 7b 90 3d
       -0.0637279 -0.07055375 -0.08952391 0.07054849
000070 b0 d5 21 3c 08 8a b9 3c 86 ac ba bd 4b 7a 80 bd
       0.009877607 0.022648826 -0.091149375 -0.062733255
000080 9e 1f 87 bd 1c 4f 7d bd ff c2 a6 bd 66 1b 39 bd
       -0.065978274 -0.061843023 -0.08142661 -0.045192145
000090 24 6d 8a bd f4 8a 30 bc 69 21 d1 bd 30 bf 16 bc
       -0.06759098 -0.0107753165 -0.102114506 -0.009200856
0000a0 92 18 b0 bc 5f 11 52 bb c9 df 6c bd 39 5a 33 bd
       -0.021496091 -0.003205381 -0.057830606 -0.043787215
0000b0 b8 49 05 3e 22 de 41 3d a9 04 0a bc 3f 37 6f bd
       0.13016403 0.047330983 -0.008423963 -0.058402296
0000c0 c7 1b 80 3d 02 4b 8c bd ac d1 83 bc e4 58 23 3c
       0.06255298 -0.06850244 -0.01609119 0.009969924
0000d0 46 27 83 3c 5d aa 28 bc 91 9a 17 bd 0e 6a 3d bc
       0.016009938 -0.010294524 -0.03701264 -0.01156093
0000e0 93 20 37 bc be 97 45 3c d3 68 d8 bb 8b e5 81 3d
       -0.0111772 0.012060104 -0.006604293 0.0634261
0000f0 42 4a e9 bd 0e 58 2f 3d e2 92 b9 bc cb a6 cb 3c
       -0.11391117 0.042808585 -0.022653047 0.024859807
000100 d8 17 65 bd 97 87 a2 3c db a3 76 bc 8f ec 62 3d
       -0.055930942 0.019840045 -0.015053715 0.05540138
000110 3d 25 76 3d 86 c7 9c 3d d4 ad 4d 3b da 8e 38 bc
       0.060094107 0.076552436 0.0031384127 -0.011264527
000120 9b 1a f3 bc 53 b3 71 bd 67 f6 fa 3c bd 22 ab 3c
       -0.029675772 -0.059008908 0.030635072 0.020890588
000130 7a 34 8d bd 90 bb ac bc 19 2e c2 3c f4 49 46 3d
       -0.06894775 -0.02108553 0.023703622 0.04841037
000140 6a 73 73 3d 80 37 c0 bd c9 fd 7a bd ca b0 8b bd
       0.05943624 -0.09385586 -0.061277185 -0.06820829
000150 de 02 25 3c 72 34 30 3d ec f0 ae bc a3 61 ca bc
       0.010071484 0.043018766 -0.021355115 -0.02470476
000160 01 41 85 bd 68 78 ac 3a c1 b9 44 3c 7d 43 0d 3d
       -0.06506539 0.0013158442 0.012007178 0.03448819
000170 81 a8 86 3d cc bb 8e bd 3e 69 1e 3d 34 c1 58 bb
       0.06575108 -0.06969413 0.038674586 -0.0033074142
000180 06 52 6b bd 14 60 94 3d 1c a4 b0 bd f7 a6 a9 bd
       -0.05745127 0.07244888 -0.086250514 -0.08283799
000190 ca 35 96 3c 2b 2d 8b bd c2 f3 86 bc 9f ef 91 3d
       0.018336195 -0.067957245 -0.016473655 0.07125782
0001a0 2e c9 57 bc 9e b0 0c bd 48 24 eb bd 06 f7 5c 3d
       -0.013170524 -0.034348123 -0.114815295 0.053946517
0001b0 96 43 c2 bc 15 67 68 bd 37 04 89 bc b5 f7 c3 bd
       -0.023713868 -0.05673893 -0.016725643 -0.09568731
0001c0 49 3e 6b bd 62 40 a9 bc a1 6d 89 3d 40 06 c7 bc
       -0.057432447 -0.020660583 0.06710363 -0.024294972
0001d0 51 22 86 3d f2 e9 66 bd c9 93 57 3d 68 9b c9 bc
       0.06549514 -0.05637545 0.052631173 -0.024610236
0001e0 a3 e0 aa 3d 81 4e 02 bc b8 7e a5 bc 47 84 56 bd
       0.08343627 -0.007953287 -0.020202026 -0.052372243
0001f0 88 d3 02 3d 6f d0 9c bd 37 32 52 3d 28 2a d5 bd
       0.031940013 -0.07656943 0.05131742 -0.10408431
000200 53 c7 66 bd c0 43 44 bd 4c d8 4e bb f4 8b d3 bc
       -0.056342434 -0.047916174 -0.0031562028 -0.02582357
000210 bc fb 1f bd 5e 34 97 3d 41 5b 26 be 1b 18 16 bd
       -0.039058432 0.07383035 -0.16245748 -0.036644083
000220 3e d3 35 3b d0 15 63 3d 27 7c 67 bd 9c c4 87 bc
       0.0027744318 0.055440724 -0.056514885 -0.016573243
000230 2e de 32 3d eb 1e 9b bd c9 75 a2 3d 60 81 83 bd
       0.04366892 -0.075742565 0.07932622 -0.06421161
000240 eb 3c 55 bd 8d 83 2b be 63 09 04 3d f1 17 4d 3c
       -0.05206005 -0.16749401 0.032235514 0.012517915
000250 31 39 6c bc 12 03 0d 3d fb 39 e2 3d 39 27 0e bd
       -0.014417932 0.034426756 0.11046215 -0.034705374
000260 8b 67 41 bb 83 6f c0 bc 05 51 da 3c e7 d6 67 bd
       -0.002951118 -0.023490673 0.026649961 -0.05660143
000270 10 3f 2b bd 4c e8 ba bc 46 46 b0 bd 28 03 c9 3c
       -0.041808188 -0.022815846 -0.086071536 0.024537638
000280 d0 26 00 3d 4e b6 9c bd 43 f6 45 3d d2 39 5c 3d
       0.031287014 -0.07651959 0.048330557 0.05376608
000290 04 b3 15 bd d4 48 91 3d 3f b9 9a 3c 62 00 ae 3c
       -0.036547676 0.07093969 0.01888716 0.021240417
0002a0 0a b9 b5 3c cf 79 63 bd 08 3f fb bc ce b1 02 be
       0.02218296 -0.055536088 -0.030669704 -0.1276314
0002b0 4c f3 8d bd 00 26 b2 3c db 2e 18 3d 05 83 8b bc
       -0.06931171 0.021746635 0.03715406 -0.017030248
0002c0 30 8f 40 bd fd 46 0d bd b0 07 e8 3b 9e 9c 1e be
       -0.047011554 -0.034491528 0.0070809945 -0.15489432
0002d0 77 01 4f bd b8 b3 c3 3c 56 f6 c0 bd f3 40 ea bc
       -0.050538506 0.023889408 -0.09421985 -0.028595423
0002e0 fc 51 92 bc 85 e1 5f 3b 37 50 47 3d c1 c7 79 bd
       -0.017861359 0.003416152 0.048660483 -0.060981516
0002f0 94 71 c4 ba 71 71 1e 3d ab 2e 84 bc b6 eb b2 bd
       -0.0014987462 0.038682405 -0.016135534 -0.087363645
000300 24 f9 05 3d 7c 55 52 bd af 88 5b bd 19 2f a1 3c
       0.032708302 -0.051351056 -0.05359715 0.019675778
000310 98 41 88 bd 5b f2 0f 3d 1d 7e 18 3d 8c f0 af 3c
       -0.06653136 0.035143238 0.037229646 0.021477006
000320 b7 e7 0d bc 5b f5 9e bd 3f f9 63 bb f3 2d ad bd
       -0.008661202 -0.077616416 -0.0034786013 -0.0845603
000330 9c cf 82 bd 62 24 6a 3d 15 56 8b bd de eb 87 3d
       -0.063872546 0.057163604 -0.06803528 0.06636785
000340 a4 f0 7d bd 29 b3 32 bc 4d 6e 89 bd 7f 4c 69 bd
       -0.06199707 -0.010906973 -0.06710491 -0.056957718
000350 df ed 9b bd 3f d2 96 bd a3 24 a1 bc ec 3b 6f 3d
       -0.0761373 -0.0736432 -0.01967079 0.058406755
000360 e2 6b d1 bd 97 88 ab bd 6c 3d 3d 3d b8 95 4e 3c
       -0.10225655 -0.08375662 0.046201155 0.012608938
000370 72 cf e0 3c 73 dd e4 bc 38 36 0b 3d 65 67 b2 3c
       0.027442668 -0.027937626 0.033987254 0.021777818
000380 8c 39 b2 3c 0a e9 b1 b9 7a 1b a7 3d ba e1 98 3d
       0.021755956 -0.00033933698 0.081595376 0.07464929
000390 03 7c f3 3a 9c 9c df bd ce ff 85 bd 50 52 37 bd
       0.0018576387 -0.10918543 -0.065429315 -0.044756234
0003a0 3a e9 9a bc 6b 88 5e bd 72 27 a0 bd c1 ee 27 be
       -0.01891004 -0.054329317 -0.078200236 -0.16399671
0003b0 69 4c 6e 3d 36 b8 98 bb bb ce 6b 3d 84 ca ba bc
       0.05817834 -0.0046606315 0.0575702 -0.022801645
0003c0 15 2e 27 3d a5 56 d8 3c 5b e2 90 bd 6b 47 52 3d
       0.04081543 0.026408503 -0.07074424 0.05133764
0003d0 a5 d4 62 3d 00 3f c3 bd 06 9c 74 bd 78 48 0f bd
       0.055378575 -0.09533501 -0.059719108 -0.03498122
0003e0 7f 69 7e bd ed 7c 31 ba 49 1d 3e bd 3e a1 3f bd
       -0.062112328 -0.00067706296 -0.046414647 -0.046784632
0003f0 5a 2e a8 3d 2b 97 81 bd 7c d1 9f 3c 29 fd 9b 3d
       0.08211966 -0.06327661 0.01950907 0.07616646

hnn.fc.3.bias f4 [64]
000000 5f b4 b3 bd b0 db 8d 3d e1 a9 ac 3d f0 73 68 3c
       -0.087746374 0.06926668 0.08430839 0.014187798
000010 c2 89 86 3d ae 23 ff bc cc d1 30 3d b7 be 60 bd
       0.06569244 -0.031144943 0.043168828 -0.05486938
000020 46 18 18 3c 7d 6a 6f bd ec 7c 8e bd 67 12 6a 3d
       0.009283131 -0.058451165 -0.06957421 0.057146456
000030 03 18 bc bd ae 6b f4 bc e4 d8 c7 bd e8 6d b9 bc
       -0.09184267 -0.029836502 -0.097581655 -0.022635415
000040 24 34 97 bd aa fa 13 bd 77 6f be bc cd 2f 3b 3b
       -0.07382992 -0.036127724 -0.02324651 0.0028562427
000050 52 13 4e bd d8 35 89 bd b3 0f 7f 3d b0 45 c2 bb
       -0.050311394 -0.06699723 0.06227083 -0.0059287176
000060 71 29 99 bd d1 d7 1c 3c ff 2e 5b 3d 19 32 7d bc
       -0.074786074 0.009572939 0.053511616 -0.015453839
000070 50 66 26 bc 31 04 9d bd 2e c0 92 3d 6f d0 3f bd
       -0.010156229 -0.07666815 0.071655616 -0.046829637
000080 37 41 83 3d bd ad 80 3d f8 1a c9 bd 7a bd f1 3c
       0.06408923 0.06283138 -0.09819597 0.029509295
000090 f2 38 81 3d c4 6c e6 3c ed 24 4a 3d e2 2f 13 bd
       0.063096896 0.028128035 0.04935162 -0.035934336
0000a0 b0 85 9f bd d3 df d0 bc 72 7f 34 be 91 51 2e 3d
       -0.07789171 -0.025497353 -0.17626742 0.042558257
0000b0 e8 e2 1f bd fb fa 1b bd 84 ca 5b 3c de d8 b3 3a
       -0.039034754 -0.03808115 0.013414983 0.0013721248
0000c0 29 1f 78 3d 3f 01 15 bd 7d c6 18 bd e7 d0 d9 bc
       0.06057659 -0.03637814 -0.03729867 -0.02658887
0000d0 0c 95 3d 3c 4a ed 72 3d 44 1a 38 bd 79 18 85 3d
       0.01157118 0.059308328 -0.044946924 0.064988084
0000e0 09 96 cc 3d 71 b4 b3 bd f3 5f 7c 3d 33 b3 74 bc
       0.099895544 -0.08774651 0.06161494 -0.014935303
0000f0 06 a7 59 bd 21 ed 81 3d d1 70 63 bd 9e a2 7d bd
       -0.0531378 0.06344057 -0.055527512 -0.061922662
