Proposed/BestModel/Rossler.pth (torch, 177632 bytes, 17 tensors)

q_mlp.0.weight f4 [128, 180]
00000000: 96bb 403c 11bc babc d64d 953c 13c9 15bc
00000010: 4638 dc3c d17a 7b3c 42c7 63bc d659 85bd
00000020: 5580 6c3c 6313 92bd 62d2 a33b f0d4 0e3b
00000030: 44fd b1bc 5ed7 653d 756b 033b fa79 d13c
00000040: 79f9 d93c e912 41bd 233b 0bbd 107c 883d
00000050: 2068 9cbd 8967 2abc 15ae 34bc b7f5 493d
00000060: 3991 4bbc 84b6 6c3c da5c f0bb b3d1 40bd
00000070: aa6a 42bd 7f7e 24bd 119a 95bd 1ca0 5bbd
00000080: bcb7 5b3c 450f 333d 7f25 d1ba f494 1dbd
00000090: 529a e03c eed4 0abd d4dd abbc 413d 3dbd
000000a0: aa17 ebbc 12e7 96bd a1c9 d83c dcfc c13c
000000b0: a4b3 243c 6d05 003d 404d d73c bc33 ceba
000000c0: 8552 273b 790b c639 098a 0e3d 0c35 373d
000000d0: 1c77 453d 8a3c 1c3d 069f c0bc 9a8d 0dbc
000000e0: d016 a6bc 9ab9 1b3d 318d 413b f9aa 823d
000000f0: c5f7 043d 375f 8dbd 7dce 873c e3bc 873d
00000100: 335a 793d dbb5 d2bb 10d0 9e3c f51b 9abd
00000110: 13f1 edbc d5fe fd3c 24fa 95bd f442 743d
00000120: 0fa6 5ebd 3065 953c 604d 05bc ec5e ff3b
00000130: 915c f73a 769a 99bd f8e8 aebc 98d5 56bd
00000140: 54b8 6d3d 2d68 6dbc 3fec a2bd 5161 503c
00000150: 8869 dd3c f786 1ebd d7fe 49bc c037 dc3c
00000160: 8bd1 53bd a340 37bd a94b 4dbc 3c42 6cbd
00000170: 8cc3 253d fb63 463a 27cc 203d a091 0d3d
00000180: 2293 80bd b327 54bd 61b1 66bd dff9 efbc
00000190: ca6d 05bd f021 8ebc 749a 9ebd ac1e d63c
000001a0: c853 173d 81cd 953c 0923 2c3d 067c 4f3d
000001b0: 379e a1bd 2bff c13b d8ab 823d b41a 73bd
000001c0: 78cd 1dbd baac 17bc 6fc4 53bd 2cd2 9ebc
000001d0: cfdd 85bc f92a 7a3d cb41 24bc ddc4 0f3d
000001e0: 8eb8 493d bb4c e43c a29d 8fbd b9fb 4e3d
000001f0: 1e76 333d b082 70bd 97b2 02bd 83ed 393d
00000200: 2028 9fbd 93b5 90bd f4c8 64bd 4c92 933c
00000210: 0a82 12bd 6212 93bd 0291 c23c 1898 043d
00000220: 30f9 b83c b619 8dbd abb8 893d 959a 33bc
00000230: 9649 9bbd 9994 87bc 7e8a 313d 70fb f23c
00000240: 98bc c8bb 735b 413d 7c3a 94bd 4e00 3e3d
00000250: 4898 8c3d e80d 4abd 40a1 2e3c 1831 8ebc
00000260: be37 88bd 6a06 c4bb 625a f8bc 99db 88bd
00000270: 7649 74bd 423c 73bb 56db 873d 59f6 ae3c
00000280: 34fd 60bd 9ea0 483d 3b0e 4f3a 5e17 a0bd
00000290: a4aa b23a b828 2e3d fb60 49bd d67f b1bb
000002a0: b7ed 2dbd a84b 83bd 1e18 35bd 0457 0d3b
000002b0: df7c 2f3d a603 80bc dd30 94bd 68ca c3bb
000002c0: 654a 88bd 8ef8 78ba b97e 4c3d 96c0 f63c
000002d0: 6b76 5dbd 7cf9 c4bc 3004 eb3c 8699 4e3c
000002e0: 70f9 9ebd c12c 4fbd 555b 0abd adfe a13c
000002f0: b76b 913d 6dcd d33c fc37 a83c e638 68bd
00000300: 79e6 263d 902f 9c3c 92ea 8abc 2e26 32bd
00000310: f312 5e3c b163 08bd f490 b63c df2c 4a3d
00000320: 8fc1 2cbd b5a2 5fbd 012e 1ebd cdc5 69bd
00000330: e78b 88bc d2c3 1e3d f521 0c3d 9e69 03bd
00000340: 44ac 8abc 09c1 dabc bf90 8bbd c2a1 e5bc
00000350: 03d9 243c 7226 3bbd 7a22 82bd 95c3 d23c
00000360: c36b 4f3b 9d28 fdbc 64bb be3c de6b 7a3d
00000370: cc45 70bb b312 4abd 56cc 7a3d 0eee 3b3d
00000380: 650b d3bb a43e 29bd 53af 20bd 1c82 843d
00000390: 4c49 003d 86f8 3cbd 57f4 f33a 1d4d fc3b
000003a0: 7072 423c 0fa0 c4bb 9fc6 3ebd a17d 26bc
000003b0: 21ad bbbc 4d68 05bd c9bb 37bd aa53 1fbd
000003c0: 04b8 2ebd cc74 af3c f874 87bd 9097 a0bd
000003d0: 0b58 643d 98ef be3c 1917 0a3d 6d4f c83c
000003e0: 92cc 03bd 057b 5ebd 4f66 71bd f307 0fbc
000003f0: c508 343c bcc8 9fbd 92ff 7bbd 6228 0d3d
0.011763474 -0.022794755 0.018225592 -0.009142178 0.026882302 0.015349106 -0.013902487 -0.065112755
0.014434894 -0.07132604 0.004999445 0.00217944 -0.021727212 0.056113593 0.0020053063 0.025570858
0.026608216 -0.047137175 -0.033991944 0.06664288 -0.07637048 -0.010400661 -0.0110278325 0.049306598
-0.0124247605 0.014447812 -0.0073352875 -0.047074985 -0.047465004 -0.0401597 -0.073047765 -0.05361949
0.013410505 0.043715734 -0.0015956609 -0.03847213 0.027417336 -0.03389447 -0.0209798 -0.046200994
-0.028697807 -0.07368292 0.026463332 0.023680143 0.010052595 0.031255174 0.026281953 -0.0015731971
0.0025531363 0.0003777405 0.03479961 0.044728324 0.048209295 0.038143672 -0.023513328 -0.0086397175
-0.02027455 0.0380188 0.002953362 0.06380267 0.032462854 -0.069029264 0.016577953 0.06627824
0.060877036 -0.0064303703 0.019386321 -0.07524864 -0.029045617 0.031005302 -0.07323101 0.059634164
-0.054357585 0.018236727 -0.008136123 0.007793298 0.0018872191 -0.07500164 -0.021351323 -0.052449793
0.058037117 -0.0144901695 -0.079552166 0.012718515 0.02702786 -0.03870293 -0.012328825 0.026882052
-0.051713508 -0.044739377 -0.012530246 -0.057680354 0.04046969 0.0007567999 0.039257195 0.034562707
-0.06278063 -0.051795673 -0.056321505 -0.029293953 -0.032575406 -0.017350167 -0.07744303 0.026137672
0.036945134 0.018286468 0.0420256 0.050655387 -0.07891505 0.005920311 0.06380433 -0.059351638
-0.03852603 -0.00925749 -0.051701006 -0.019387327 -0.016341118 0.06107614 -0.010025452 0.035099853
0.04924827 0.02786862 -0.07012488 0.05053303 0.043813817 -0.058718383 -0.031908598 0.045392524
-0.07771325 -0.070658825 -0.055855706 0.018014096 -0.035768546 -0.071812406 0.023750786 0.03237161
0.02257976 -0.068896696 0.06724676 -0.010962148 -0.07582395 -0.01655035 0.043344967 0.02966091
-0.0061259978 0.047206353 -0.072377175 0.04638701 0.06864983 -0.04932967 0.010658562 -0.017357394
-0.06651257 -0.00598221 -0.030316535 -0.0668251 -0.05964037 -0.0037114774 0.06633632 0.021357702
-0.054928973 0.0489813 0.0007898544 -0.07816957 0.0013631177 0.0425193 -0.049164753 -0.0054168506
-0.04246303 -0.06410915 -0.044212453 0.0021566758 0.042843696 -0.01562674 -0.072358824 -0.0059750564
-0.06654815 -0.0009497487 0.04992554 0.030121129 -0.05406801 -0.024044745 0.02868852 0.012609845
-0.0776242 -0.05057979 -0.033778507 0.01977476 0.07100623 0.02585479 0.020534508 -0.056694888
0.04074714 0.019065648 -0.016957555 -0.043493442 0.0135543225 -0.033298198 0.022285916 0.0493592
-0.04217678 -0.05459853 -0.03861809 -0.057073403 -0.016668273 0.038760968 0.03421207 -0.032083146
-0.016927846 -0.026703374 -0.068147175 -0.028031234 0.010061505 -0.04569096 -0.06354232 0.025728026
0.0031649924 -0.030903155 0.023282714 0.061138026 -0.0036662696 -0.04933424 0.061230026 0.045881324
-0.0064405673 -0.041319504 -0.039229702 0.06470129 0.0313199 -0.046135448 0.0018612248 0.0076996223
0.011868104 -0.006000526 -0.04657614 -0.010161788 -0.022909703 -0.032570172 -0.04485682 -0.038898148
-0.04265596 0.021417998 -0.06614107 -0.07841408 0.055748027 0.023307607 0.033713434 0.024451936
-0.032177515 -0.05431654 -0.05893546 -0.008729923 0.010988419 -0.07801959 -0.061523028 0.03446234

q_mlp.0.bias f4 [128]
00000000: a8df 80bd ee0b 03bd 418b b43c 263f d73c
00000010: cfc4 273d 6f6b 513c c9fa 133d 4d42 263d
00000020: e403 333d ec97 54bd 56bb 08bd adfc 1dbd
00000030: 67ac 753c f570 b53c 1b2b 0cbd 55da 133d
00000040: 302c 413c cecd 45bd 2269 353d d8cc b13c
00000050: ed4d e73c d6a5 e93c d5de 6d3c dbb2 94bd
00000060: 75d5 58bd 06ee 223d 06ef a73c 6980 abbd
00000070: c179 74bd 3215 83bd bf65 dcbc 2706 023d
00000080: c337 713c c224 c83b 8a36 993d a829 28bd
00000090: 1b6d 353d ee9f 993c b167 1bbd 4a7f 013d
000000a0: edd8 bf3c b016 123d a71f 5a3c c192 04bd
000000b0: a859 1c3d 880d b53d 99f1 0a3d 764e 5d3c
000000c0: 11da 0a3d c235 643c 305a 8fbd 8ce0 743c
000000d0: 891a 95bb ef37 893c 822a e1bc 359f 133d
000000e0: 59e9 6ebd 716f 86bd d640 99bd 2592 80bd
000000f0: be6b f03c fde5 003c 5e00 60bd a7d3 0c3d
00000100: 1d4c ec3b 6c3f 813c 0d3f 233d 06d6 86bd
00000110: 81d6 38bd 03e5 2c3d 5cfb b0bc 8e31 163d
00000120: 6dea 343d c73b c5bc 1c24 1dbd b028 8bbd
00000130: a06a 56bd b9b4 1cbd 25a4 e33c 925f 1bbd
00000140: 883e 80bc 2777 0c3d 3904 0b3d 15f6 743d
00000150: 2b40 34bd 695b 2f3d c0e5 91bd 5c2c 98bd
00000160: 73d7 10bd 911f 4f3c 6576 963c 5b39 ef3c
00000170: de84 28bd 48e8 9fbd ba07 9fbc d582 ad3c
00000180: 91ef a93d 5723 0f3d 451b 2a3d 1f53 063d
00000190: ec36 853c ebb1 853b 8061 033d df5b 2cbb
000001a0: 19ff 50bd 51c2 063d 687a 193c 4744 213d
000001b0: 4ee8 52bd 85f1 2f3c 5a08 0bbd 9385 fbbc
000001c0: e5cc 69bd 1fae a43c 58b0 103d 1bcc 4dbd
000001d0: 4912 103d c6ab 123d 44f1 9abd e5f8 f43c
000001e0: 8c31 2d3d c98e 1b3d 2860 e9bb e2a0 dbbb
000001f0: 0447 8dbd 8bdf 093d 955f 91bc 8bfc 993c
-0.06292659 -0.0319938 0.022039058 0.026275229 0.040959176 0.012781962 0.03612784 0.040590573
0.043704882 -0.051902696 -0.033381782 -0.03857105 0.014994717 0.022148589 -0.034220796 0.03609689
0.01179032 -0.048291974 0.044289716 0.021704122 0.0282354 0.02852146 0.014518459 -0.072606765
-0.052937943 0.039777778 0.020499717 -0.08374102 -0.059686426 -0.06400527 -0.026903985 0.03174415
0.014722767 0.0061078975 0.074811056 -0.04105535 0.044293504 0.018753018 -0.037940685 0.031615533
0.023418868 0.035666168 0.013313211 -0.032366518 0.03817144 0.088404715 0.03392181 0.013507476
0.03389937 0.0139288325 -0.06999624 0.014946114 -0.0045502824 0.016750304 -0.02748609 0.036040504
-0.058328006 -0.065642245 -0.074830696 -0.06277875 0.02934825 0.0078673335 -0.05468785 0.034381535
0.007211222 0.015777312 0.03985505 -0.065837905 -0.045126442 0.04221059 -0.021604232 0.036668353
0.04416888 -0.024076356 -0.038364515 -0.0679487 -0.05234778 -0.038258288 0.027788231 -0.03793294
-0.015654817 0.03429332 0.033939574 0.059804995 -0.044006508 0.042811785 -0.071238995 -0.07430336
-0.03536172 0.012641803 0.018367002 0.029202154 -0.041142337 -0.07807976 -0.019412864 0.02118055
0.08297647 0.034945812 0.041529913 0.032794114 0.01626154 0.0040800474 0.032075405 -0.0026299877
-0.05102453 0.03290016 0.009367563 0.039371755 -0.051491074 0.010738735 -0.03394351 -0.030703342
-0.05708017 0.020102559 0.035324425 -0.05024348 0.035173688 0.035808347 -0.07565549 0.029903838
0.04228358 0.037977967 -0.0071220584 -0.0067025283 -0.06898311 0.033660453 -0.017745772 0.01879718

q_mlp.3.weight f4 [64, 128]
00000000: 23ff 8636 b5e1 e9bc 0b5e 4cbd 0d0e b63d
00000010: 5758 8d3b 9722 df3d c0ee 1d3d 6ba4 8a3c
00000020: 4fd4 c7bb be2a 8fbc 0a50 9cbd 3bcb 3b3c
00000030: c4f7 ab3d df14 c1bd 8599 ce3c 166c d0bd
00000040: bf82 af3d a70d 393d b507 1fbd a455 873d
00000050: fa12 e3bb 0fc1 903d 2184 98bb d268 553d
00000060: b429 81bd f485 5ebd 7b04 69bd 19d1 903c
00000070: d5ee adbd 8392 95bd 7b28 a53d 2a60 ed3c
00000080: b569 023d 5795 6cbb 9f2d 20bd 2ff3 05bd
00000090: aba1 22bd aba9 923d 3f65 36bd bb38 6cbb
000000a0: 22a4 afbd 9ff8 d8bc 5cc0 073e 4f6e 6bbd
000000b0: 9380 003d 59af e73c 8b9e f33d 7264 99bd
000000c0: d400 32bd 49e6 68bc 406b 203d 68c9 843d
000000d0: e5d1 d13d 24ab cb3c 3f63 d83d 1e13 34bd
000000e0: 7eac c73b 1336 823d 0059 0b3d 3af0 433c
000000f0: fca7 5bbc 51aa 2dbd 002c 4d3a 1f2b 483d
00000100: 56f6 173c 1327 9d3d a7e4 533b cf34 3a3d
00000110: 2909 983d 8f75 4abc 6111 92bd a0e0 beba
00000120: 7bc4 19bd bd08 8cbc a00f 463d 2f3a 853d
00000130: d31f dc3c ee7f 90bd 999b eebc ddb5 a3bc
00000140: 5869 843c 1d87 333d 2aa8 b83d e6f3 a3bb
00000150: 9b74 bd3c 4c6a b83d f2fe b1bd 30df 093c
00000160: fbbb 8f3c 3ec4 733c fdd3 323d 59d2 4b3d
00000170: 1be6 9a3a 15d8 e63c aac8 61bd a9d2 963c
00000180: 842f 103d c191 83bd 3799 95bd 8032 bd3c
00000190: 9138 943d da00 aa3c 66a1 9c3c 379c 91bd
000001a0: dca9 c73d 84de 1bbd 3c4d 063e eaf9 4e3d
000001b0: 4031 4bbd 8fca a7bd 559d 463d dd96 803d
000001c0: 0402 a6bc 380b 3cbd 5ca7 1a3d 1a1e 613d
000001d0: 7299 63bc bfcd e23b df4a 293d 2601 763b
000001e0: 26bd b33d 4838 bdbd d0f9 0e3e 3799 c6bc
000001f0: 7e30 473d 1bd6 c3bc 01a3 f43d 71fb eb3b
00000200: d09f 65bd 0234 4cbc 4b77 f03b fcb8 ebba
00000210: ac0f c63c ffba 19be 7d32 203d b5dc 483d
00000220: ea6a bfbc 32af 32bd c6c8 a9bd ce8d abbc
00000230: c4ad 6bba ea43 bbbb cc03 133d 9334 18bc
00000240: 5ba1 863d 9dce 563c 7080 e43c 0e89 75bd
00000250: 568f 74bd 43c2 c03c 4b19 38be 86d7 afbd
00000260: 2991 ba3d 7beb 38bd 2e37 ad3d acd2 363d
00000270: 4ebd 433d 7af3 313d 1be2 d83d cfb8 a13c
00000280: 6734 883c d964 bc3d e3a0 f43d 83a4 fcbc
00000290: 55ff 85bd d0dc 013c fef9 923d 67b0 16be
000002a0: 565c c23d 49a5 aebd 891a a2bd a5b0 4bbd
000002b0: 21fd adbd 0bf7 dd3d 7986 8bbd ddc2 923d
000002c0: 25df 4c3b 5fdc 9bbd 0c51 68bd 903c 05be
000002d0: f547 25be a666 e5bd bc2e 82bd d56c c53d
000002e0: 1789 443d 013d abbb f4ac 9abc b0c9 a63d
000002f0: 00e5 8dbd 9f23 273d 00a9 4f3c a225 f93d
00000300: 8ac9 343d 984b 58bc dfff ddbc 45cf 993d
00000310: bb95 713d 5459 923b f5d7 6a3c e873 11bd
00000320: f7d0 8e3d 314f 84bd 21fb a3bd 3868 2fbd
00000330: 4e4c 9e3d 5540 a0bc ebac 6dbd 998a de3d
00000340: b1a9 483e 27b5 c03c 1d5d eabd a56e b0bc
00000350: 33c1 93bd cb5f fb3c b600 8e3d 6f12 ad3d
00000360: 92d7 a2bd 883f d9bd 7437 5cbc 37bb de3c
00000370: 6d9a 873d b8e8 4b3d 5440 1dbd a5f0 ff3c
00000380: e02a f0bc 1a2c 03bc 4bd1 a7bc 033a 973c
00000390: 0d3f 03be c2ea 64bd 9eab babd cb7d 223e
000003a0: 6c84 64bc 224f babc 337f 3bbe 4fe3 80bb
000003b0: a5fe 4abd 3da7 b43d fe5c 39bc 00f4 023d
000003c0: e994 043d efc6 a63c 9d09 7c3d 27c7 26bc
000003d0: 9b2d 9abd 7aca c33c 4b1f 51bd 13db a5bc
000003e0: 5815 5fbe 21cb 443d 50d5 03be e33f 543d
000003f0: e44e 85bd 9f33 8ebd 96ac 42be 74af 27bd
4.023213e-06 -0.028550008 -0.049894374 0.08889399 0.0043135094 0.10895269 0.038557768 0.016924104
-0.006098307 -0.017476436 -0.07632454 0.011462028 0.08396867 -0.09427809 0.025219688 -0.10176866
0.0856986 0.045179036 -0.03882571 0.066081315 -0.0069297524 0.07068073 -0.004654423 0.052101918
-0.06306782 -0.054326966 -0.05688904 0.01767783 -0.08492819 -0.073033355 0.08064362 0.028976519
0.03183909 -0.0036099756 -0.039106008 -0.03270262 -0.03970496 0.07161268 -0.04453015 -0.0036044556
-0.08576228 -0.02648574 0.13256973 -0.057478245 0.031372618 0.028281854 0.11895474 -0.074898615
-0.04345782 -0.0142150605 0.03916478 0.06483728 0.10245112 0.02486188 0.10565805 -0.043963544
0.0060935607 0.0635797 0.034020424 0.01195913 -0.01340675 -0.042398755 0.0007826686 0.04886925
0.00927504 0.076734684 0.0032332332 0.04546052 0.07423622 -0.01235713 -0.07132221 -0.0014562793
-0.037540894 -0.01709401 0.048354745 0.06505238 0.026870644 -0.07055651 -0.02912693 -0.01998418
0.016163513 0.043830026 0.0901645 -0.00500344 0.02312689 0.090046495 -0.08691205 0.008415028
0.01754569 0.014878331 0.0436592 0.04976115 0.0011817844 0.028179208 -0.05512301 0.018410997
0.035201564 -0.06424285 -0.07304614 0.02309537 0.07237352 0.02075236 0.01911993 -0.07109874
0.09749195 -0.038054004 0.131154 0.050531305 -0.049607515 -0.08192932 0.048489887 0.06278775
-0.020264633 -0.045909137 0.037757263 0.054960348 -0.013891565 0.0069214995 0.04133117 0.0037537306
0.087763116 -0.092392504 0.13962483 -0.02424298 0.04863023 -0.023905804 0.11945153 0.007201605
-0.056060612 -0.0124635715 0.0073384396 -0.0017984207 0.024177395 -0.1501274 0.03911065 0.049038608
-0.02336641 -0.04362411 -0.082902476 -0.020941641 -0.00089904317 -0.005714883 0.035892293 -0.009289878
0.06573745 0.013110784 0.027893275 -0.05994516 -0.05970701 0.023530131 -0.17978399 -0.0858603
0.09109718 -0.045146447 0.0845779 0.044634506 0.047787957 0.043445088 0.10590001 0.019741444
0.01662655 0.09198923 0.11944749 -0.030840164 -0.06542841 0.007926181 0.071765885 -0.1471573
0.09490268 -0.085276194 -0.079152174 -0.04972901 -0.08495546 0.10838135 -0.06812758 0.071660735
0.0031260934 -0.07610392 -0.056717917 -0.13011384 -0.1614073 -0.11201219 -0.0635657 0.09639899
0.0479823 -0.005225778 -0.018881299 0.081439376 -0.06928444 0.040805455 0.01267457 0.12165381
0.044137515 -0.013201617 -0.027099548 0.07510237 0.058980685 0.004466215 0.014333715 -0.035510927
0.06973451 -0.06460417 -0.080068834 -0.042824 0.07729398 -0.019561926 -0.058026236 0.10866279
0.19595982 0.02352388 -0.11443541 -0.021537134 -0.07214584 0.030685326 0.06933729 0.084507816
-0.07951273 -0.10607821 -0.013440955 0.02718888 0.06621251 0.049782485 -0.038391426 0.031242678
-0.02931732 -0.00800612 -0.02048554 0.01846028 -0.1281702 -0.055887945 -0.09114765 0.15868299
-0.013947587 -0.022742812 -0.18310241 -0.0039333473 -0.049559254 0.08820961 -0.011313675 0.031970978
0.032368574 0.02035853 0.061532605 -0.010179318 -0.0752823 0.02390026 -0.051055234 -0.020246064
-0.21785486 0.04804528 -0.12874341 0.05181874 -0.06509188 -0.0694344 -0.19011149 -0.04093881

q_mlp.3.bias f4 [64]
00000000: bc39 4bbc 7c42 163d 043f bdbd 340b debd
00000010: 2724 d23d e0c6 953d fd87 af3d 7993 e73d
00000020: 971e 10be 54ea 6e3d a2a7 403d 375d 0b3c
00000030: ca2d 31bd baf9 003d 501c 62bc 511a 8b3d
00000040: 770c 833d e083 593d 7fa7 71bd bb16 82bd
00000050: 3e57 d2bd 07a3 2e3d a46f 573c 2c85 703d
00000060: 2140 153d e79f 78bd 4d2e 943d 8686 a53d
00000070: 90aa 59bc 6c52 a33d c9c2 e33d 8446 09ba
00000080: 0fda 893c bee9 e33c 6cc1 d2bd 6857 ce3d
00000090: 2c1c 82bb b437 1b3d 84ff 843d dc9c 5cbd
000000a0: 6b57 05bd 1fc3 533d a6cc f83c 186e 26bd
000000b0: 9fee 9a3d 8039 db3d 2ee8 b53d 4586 c9bd
000000c0: 3e7d 0e3e e433 db3d 2d62 a13d 100a a8bd
000000d0: a04d 38bd fa69 543d 240b 953d 6e10 ac3d
000000e0: bb23 d7bd 0d86 81bc d149 8f3d da45 c7bd
000000f0: b53d 2ebd 9986 ce3d 63b0 65ba 9733 98bd
-0.012403902 0.0366845 -0.09240535 -0.108419806 0.10260802 0.07313323 0.085708596 0.11307425
-0.14074169 0.05832894 0.047034867 0.008506111 -0.04325656 0.031488158 -0.013800696 0.06792129
0.06398862 0.05310428 -0.058997627 -0.06351992 -0.102705464 0.042635944 0.013149176 0.058720753
0.03643811 -0.06069937 0.07235394 0.08082299 -0.013285294 0.07974705 0.11121137 -0.0005236643
0.016827611 0.027821418 -0.102907985 0.10075265 -0.0039706435 0.03789492 0.06494048 -0.05386053
-0.03255407 0.051699754 0.030371021 -0.040632337 0.075650446 0.10704327 0.088821754 -0.09840063
0.13914964 0.10703257 0.07880054 -0.08205044 -0.044995904 0.05185888 0.072775155 0.08401571
-0.10504862 -0.01581099 0.06996501 -0.0973012 -0.042539317 0.10084266 -0.00087619404 -0.07431715

hamiltonian_mlp.mlp.0.weight f4 [1, 128]
00000000: 00cf 4fbd 9b21 a93d 606d 2f3b 9295 0cbd
00000010: 1d1b 9fbd 1097 a4bb bba9 86bd d8f3 dbbc
00000020: b4c1 bdbc e107 ac3d c4df 85bc 9b99 a13d
00000030: 9578 903d c6ec 293d 80ce c8bc 515a 853d
00000040: 22e8 2f3d baec 403d 72af 6dbd 5e08 96bd
00000050: b172 9f3d 00b4 3fbc 6360 993d ca9f 273d
00000060: 9b43 aebd 566d 2a3d 421b 0a3d 18d8 56bc
00000070: 645e 19bd fd81 7cbd b407 84bd 80b3 faba
00000080: 7011 09bc d088 f93b b4d3 e0bc 54e2 aa3c
00000090: d033 c23c 895b a23d c05f 113c 3076 aabb
000000a0: 4858 f73c 5487 b43c 38d9 0ebc 36e5 603d
000000b0: 24e1 f9bc 8822 163c 1a2b 6d3d 4393 12bd
000000c0: c09f 93bd c213 8abd 1e00 3abd 7e56 193d
000000d0: 1a09 493d 32ff 283d 0061 bf39 0a27 7a3d
000000e0: 594a 00bd 40bf 983a a0d6 753b 2ab4 3d3d
000000f0: b6a5 683d 30a7 0b3c 980a abbd dc7c c33c
00000100: 539a 9dbd cb8d 8c3d 41e4 a5bd da61 9ebd
00000110: deeb 2b3d f094 043d 2868 783c 02cb 613d
00000120: ee05 493d f562 ad3d 64e9 39bd 34aa dc3c
00000130: 0cec d93c 6bcd 43bd d2b3 9bbd eb2c 49bd
00000140: 76e6 613d ec57 f1bc d131 a93d 76b2 38bd
00000150: 00f1 113b da7b 8cbd fd91 893d 30b4 a3bc
00000160: 7663 80bd 38f7 483c 2d1e 83bd 9c92 f93c
00000170: 1a78 8bbd 97ab ae3d 5aef a6bd 8065 9dbc
00000180: 2862 3b3c 0054 87ba baa4 7e3d c03a f3ba
00000190: a830 a43c 8861 1fbc b261 6b3d 26bb 3f3d
000001a0: a0ab d73c af86 b33d c3c5 84bd e14e 923d
000001b0: 771e 953d d583 20bd 71af 69bd f05f 75bd
000001c0: 9753 3ebd 5497 993c 0002 753c 2460 a0bc
000001d0: 2c22 8fbd a236 d5bc e2d1 9abd 87b0 9b3d
000001e0: 2cbb eb3c fc3e 013d 98cd 0e3d 5c22 2fbd
000001f0: 813c 65bd 567e 80bd 47de 58bd 76be a5bd
-0.05073452 0.08258363 0.0026768073 -0.03432233 -0.07768843 -0.005022891 -0.06575342 -0.026849672
-0.023163654 0.0839994 -0.016342051 0.07890626 0.07054249 0.04148557 -0.02451253 0.06511367
0.04294599 0.04710076 -0.058028646 -0.07325815 0.077855475 -0.01170063 0.074890874 0.04092387
-0.085089885 0.041608177 0.0337174 -0.013113044 -0.037443534 -0.061647404 -0.06446782 -0.0019126981
-0.008365974 0.0076151863 -0.027444698 0.020859875 0.023706347 0.07927615 0.008872926 -0.0052020773
0.030193463 0.022037186 -0.008718781 0.054906093 -0.030502863 0.009163506 0.057902433 -0.03578497
-0.07208204 -0.0674205 -0.045410268 0.037436 0.049080946 0.041259 0.0003650263 0.061072387
-0.031320903 0.0011653677 0.003751196 0.046314396 0.05679866 0.008523747 -0.0835163 0.023863249
-0.07695451 0.06862982 -0.081001766 -0.077335075 0.041972987 0.0323686 0.015161552 0.055125244
0.04907792 0.0846614 -0.045388594 0.026936628 0.026601814 -0.047803324 -0.076026574 -0.049115103
0.055151425 -0.02946087 0.08261455 -0.04509207 0.0022268891 -0.0685956 0.06717298 -0.019983381
-0.06268971 0.012265973 -0.0640224 0.030465417 -0.06810017 0.08528822 -0.081511214 -0.019213438
0.0114369765 -0.0010324717 0.062168814 -0.0018556938 0.020042732 -0.009727843 0.057466216 0.046809338
0.026326954 0.08765923 -0.064830326 0.07143951 0.07281201 -0.039188225 -0.05705208 -0.059905946
-0.046466436 0.018748917 0.01495409 -0.019577093 -0.0698894 -0.026027028 -0.07559563 0.07602029
0.028775774 0.031554207 0.03486404 -0.042757377 -0.055965904 -0.06274097 -0.052946355 -0.08092968

fusion.weight f4 [6, 128]
00000000: 23ed 60bd 48dd 993d d22e cfbc 4f64 0a3b
00000010: 6e98 373d 9cbf 71bd d34a 85bd feca 8e3d
00000020: db3e a3bd 4a3b a83d aa5c b4bd 17d5 c03c
00000030: 65f4 84bc 1d1e 70bd c75c 8b3d 2450 d43d
00000040: 3d44 b3bd 95e8 aa3d e754 5f3c 1128 78bb
00000050: b8fc e6bc 7443 1f3d 81ed 733d c910 12bc
00000060: 6970 53bb 43c4 46bd 1612 96bd 2a91 1b3d
00000070: 0d75 813d 0031 0c3d 9994 b33d 1924 453d
00000080: 9c8d a63d 7ffe 8b3d 3d34 70bd 8b74 dabc
00000090: 1b8c b9bd a179 18bd 22bb f23c 2517 81bd
000000a0: 8bc8 acbc 4617 85bc d4ff 17bd ec3c 4ebd
000000b0: 8275 363d 9ca9 823d 595c 1dbd 7f50 1d3d
000000c0: 37ff 5c3d 57f9 003c a439 423d 14d5 38bc
000000d0: c7da 143d 11b1 2439 a894 923d a274 343d
000000e0: 2ee6 b9bd 37dd 98bd e64d 73bc 5e9a d03b
000000f0: 8f46 7d3d d2f7 eb3d c463 a93c 33b3 a5bd
00000100: de4b 12be c20e e03d 91c8 44bd 9581 8a3d
00000110: 3672 2d3e 2eb5 253d 9c0a ce3d c85a 18bc
00000120: 0381 2dbd 2034 2a3e 84f4 933d 3c0e a93d
00000130: 1fc3 60be c8da b63c b4dd d23d 6262 113e
00000140: 2ff8 013e 1ae6 f83c f7d6 2fbd 64b5 1ebd
00000150: 8c8c 05be 5f7a 8abd 4a9b babd 8922 133e
00000160: ffbb 0c3e 2ea7 bebd c7ee a43d 8e0c b6bd
00000170: 4b7c 073d 3798 34bd 29a9 b2bd 6c1d b9bd
00000180: bedb 8e3d 7d86 473e 6dd5 1c3c 980d 3b3e
00000190: 9406 3e3e 2cf7 97bd 715d ca3d a97d c6bd
000001a0: 5d2a 153d e55f 373d 77b2 173d eaa5 b33d
000001b0: 1b30 373d 202c 0d3e 8351 4bbd 8415 003d
000001c0: 4c4b 723d df0f 1e3d 02e4 2e3e 681f e23d
000001d0: 2648 e23d f2b8 25bd 9cbd fdbc b16a 4d3d
000001e0: 06be 0fbd 3714 2abe ba32 b7bd e59f 5abe
000001f0: 85c1 cb3c dedc 4e3d ee22 7ebd 01fa 2a3c
00000200: ff30 493c 99b1 773d 11c3 bfbd f8e8 283d
00000210: a758 7e3d 0ab1 a83c c04a ae3b 646e 353d
00000220: 0be5 37bd 9cf4 73bc 174b e4bc 45f1 ab3c
00000230: b071 a5bd 7bbb 33bd 380f 9dbc d5c8 94bd
00000240: 92e9 bc3c 89c2 b9bd a530 863d 43c2 81bc
00000250: 49b2 9ebd 9d56 8bbd 585c 563d 2219 8f3d
00000260: c26e e6bb 402c 14bd c9bf b53d a293 42bd
00000270: bc38 60bd 661c 37bd 5e90 183c 6565 edbd
00000280: 48eb 8fbd 9d08 783d d2b4 84bd e67a 103d
00000290: 4a40 353d de50 953d 37fa 50bd cfa1 b93d
000002a0: 102a 9abd 9e5f 8c3d a29f 773d 981d 863b
000002b0: 407a dbbd 224b 6cbd 54ee b8bc 4aca bcbb
000002c0: 70cf 7e3d 4735 be3d 7a33 4dbd 4e80 943c
000002d0: a222 a4bd a48f 363c 2d1d 0e3d ec3f aa3d
000002e0: adac 563d 8f74 6d3d 397a 3cbd 7b29 ef3c
000002f0: 9229 c4bc 31c1 c93c 74f3 5abd 29af f1bd
00000300: 2ef7 be3d 631b 4abd d90b d2bd 2b20 ffbd
00000310: b362 f83d 4099 013e 3fbb 23bc 429d 1a3d
00000320: 87d9 a0bb 228c 1fbe 4cf2 b0bd c65e 1abc
00000330: a065 1f3e f725 f23d 9775 98bd 93a9 1e3c
00000340: 36b5 823c 9a56 a5bb daaf 8ebd 2e3d 173b
00000350: 4562 00bd 8e20 b63d e6dd 063e 53ff 90bd
00000360: 5fe1 1dbd 4202 873d 1e73 afbc e4a0 163e
00000370: 2e5a 8c3d 160a 863d 0559 163e 7926 a2bd
00000380: 2e99 62bb 1aff 9bbd d0f6 51bd d3d0 853c
00000390: 8444 77bc 84c3 13bd 52bb b63d e293 f23d
000003a0: fc03 863c 0138 ee3d a72e bd3c 9f29 933a
000003b0: 5749 063e f787 1239 6172 3c3d 2484 a33c
000003c0: 4430 143e 87e2 053e afdf 46bd a54c c5bd
000003d0: 4e46 e0bd 1523 a73d 53b5 7f3d daae d4bc
000003e0: 14c8 12bd 917c 4a3e 89fa 833d 3707 f8bd
000003f0: c9c9 6b3d eb3b 8e3b f7df 8b3d 2ca3 f6bd
-0.05491365 0.07512909 -0.02529088 0.0021116917 0.044823103 -0.059020624 -0.06508412 0.069723114
-0.07970973 0.082144335 -0.08806737 0.02353911 -0.016229818 -0.05862247 0.06804805 0.10366848
-0.0875325 0.08345143 0.013631082 -0.0037865678 -0.028196678 0.038882688 0.059552673 -0.008915135
-0.0032263047 -0.048527014 -0.07327668 0.037980236 0.06321154 0.034226418 0.08768577 0.04813013
0.081324786 0.06835651 -0.05864357 -0.0266669 -0.09059926 -0.03722537 0.029630248 -0.063032426
-0.02109172 -0.01624645 -0.03710921 -0.05035107 0.044545658 0.06380007 -0.038418148 0.038406845
0.05395433 0.007871947 0.04741825 -0.0112812705 0.036341455 0.00015706221 0.0715726 0.044056542
-0.090771064 -0.074640684 -0.014850115 0.0063660583 0.061834868 0.11521877 0.020677455 -0.0809082
-0.14286754 0.10940315 -0.048042838 0.06762997 0.169381 0.04045599 0.10060617 -0.009298988
-0.042359363 0.16621447 0.07224372 0.08254668 -0.21949433 0.02232112 0.10296193 0.14197686
0.12692331 0.030383158 -0.042929616 -0.038747206 -0.13041896 -0.06761622 -0.0911165 0.14368643
0.1374359 -0.09309231 0.08053356 -0.08889113 0.03307752 -0.044090476 -0.08723671 -0.09038815
0.06975506 0.19484897 0.009572369 0.18266904 0.18557197 -0.07420191 0.09881104 -0.096919365
0.036417354 0.044769187 0.03703543 0.0877188 0.04472361 0.13786364 -0.049638283 0.03127052
0.05915384 0.038589355 0.17079166 0.110411465 0.110489175 -0.04045958 -0.030974202 0.050150577
-0.03509333 -0.16609274 -0.08945222 -0.21350057 0.02487255 0.050503604 -0.06204503 0.010435582
0.012279748 0.060472105 -0.09363378 0.0412378 0.062096264 0.020592231 0.0053189695 0.04429473
-0.044896167 -0.014889862 -0.027867837 0.02098907 -0.08078325 -0.043879967 -0.019172296 -0.07264868
0.023060594 -0.09070308 0.06552247 -0.015839702 -0.07748849 -0.068036295 0.05233416 0.069872156
-0.0070322463 -0.036175013 0.08874471 -0.047504075 -0.054741606 -0.044704817 0.009311764 -0.11591605
-0.07027298 0.06055509 -0.06479801 0.035273455 0.044250764 0.07290815 -0.051019873 0.09064066
-0.07527554 0.06854175 0.060454972 0.0040928833 -0.10716677 -0.05768884 -0.022574581 -0.0057614194
0.062209547 0.092875056 -0.05009792 0.018127587 -0.08014418 0.011142645 0.034695793 0.083129734
0.05241077 0.057972487 -0.046014998 0.029194584 -0.023945604 0.024628254 -0.05345483 -0.11800987
0.093244895 -0.049342524 -0.10256166 -0.124573074 0.121282004 0.12656116 -0.009993373 0.03774763
-0.004908744 -0.155808 -0.086399645 -0.00942201 0.1556611 0.118236475 -0.074443035 0.009683984
0.015955549 -0.005045724 -0.06967135 0.0023077237 -0.031343717 0.08892928 0.13170585 -0.07079949
-0.03854501 0.065922275 -0.021417197 0.14709812 0.06853138 0.065448925 0.14682396 -0.07917494
-0.0034576165 -0.07617016 -0.05126077 0.016334927 -0.015092019 -0.03607513 0.08922447 0.11844613
0.016359322 0.11631776 0.023093535 0.0011227614 0.13113914 0.00013974296 0.046007518 0.01996047
0.14471537 0.13074695 -0.048553165 -0.096337594 -0.109509096 0.08160988 0.062428784 -0.025962282
-0.03583534 0.19774081 0.0644427 -0.12110751 0.057565484 0.004340639 0.06829827 -0.12042841

fusion.bias f4 [6]
00000000: 8aeb 873d 8d37 9e3d b7e4 66bc d936 d43c
00000010: b7e9 1cbb fc6c 60bd
0.066367224 0.07725439 -0.014092616 0.02590506 -0.0023943016 -0.054791436

hnn.fc.0.weight f4 [128, 6]
00000000: 2290 34be f858 83be bed8 86be c97c 423e
00000010: f03b b73d 0d5c 053d f80b 693d e050 e73d
00000020: e4eb 9b3e 7c1a 543e b6a3 90be 9897 ad3d
00000030: a37c 5e3e 94b6 10be 1f20 983e 83d9 d0be
00000040: 1ed2 96be 9d8c 40be 548a 81be c82e 90be
00000050: e5e0 123e 4014 1abe 1cc2 36bd d83f 713e
00000060: 9e98 9bbe 7fee 903e 6890 363d d8f4 cebd
00000070: 161c 853e b3ce d5be 9d3e 513d 1708 b1be
00000080: 5e27 aa3e cc9e 7abc 2913 29be ae04 06be
00000090: a198 933e a93e 8bbc b1b3 8d3e 5256 033e
000000a0: 6fd4 b2be b032 d5be 8ce5 933e c601 01bd
000000b0: 04aa 6e3e c618 71bb 9bf5 b53e e8fe 04bf
000000c0: 991c c2be ad4c 46bc cee2 08bb fac5 babd
000000d0: 6169 893e b322 b3be 75fc a73d 4768 e03d
000000e0: fbce 513d 1331 e33d bcef 19bd 423e 87bc
000000f0: e4e3 163e 3413 a4be 1e5c a13e 725b c2be
00000100: de18 0dbe 00e4 04bb 9148 99be 41f4 b73e
00000110: 4d95 12be a483 8a3e 0ae1 eebc 035e 963e
00000120: 28e4 a9be 14ef 82be 3657 1d3e 32cb f23d
00000130: c978 06be bcfc c83e a290 0b3e da92 ab3e
00000140: 9601 123e e4ff 97be 4bef 7e3d c9c1 a1be
00000150: 6cba 54bd c5f6 733e e1bc c03e 5e2d af3c
00000160: 8026 31be 4f89 7dbe 0695 86bc f3bf e2be
00000170: fbd7 e6bd d2ce ab3e d468 85bd 037b 203e
00000180: 4881 bfbe 6c84 97bd 81f2 54bd 0afd b93e
00000190: 6bf8 c53d a9f0 c93e 5e03 c7bd 3292 31be
000001a0: fb50 d03e 5b86 acbe 1f34 27be 92cb cabe
000001b0: c052 eabc 8e0a 343e 4600 d8bc 4bbb 093d
000001c0: b344 983e 0c67 893e 4e8b 0fbe 7515 33bd
000001d0: 8a34 abbe 562a a1bd 78b5 7ebe 5b22 0c3e
000001e0: a295 433e 6305 a2be 7193 e2bd e156 db3e
000001f0: 99cb cf3e 27b3 9e3d 2b31 883e bb73 a5be
00000200: 560c dc3e c2cf 91bd e068 ab3e 2e90 433d
00000210: 8166 743e acd4 a3bd c300 3f3e 23c4 323e
00000220: 8acc fe3d 919f ac3e cfae 733d b856 7c3e
00000230: 93f8 62be a4e0 413e 72fa 613c 334b 373e
00000240: be99 2bbe bb46 d5be f7ec 633e dd47 113c
00000250: a11f a53e 2dc8 aa3e 89af 7e3e 8c92 d8be
00000260: a9cd b63e d4af b4be 0797 943e c3ae b5bd
00000270: ff94 9c3e 7f52 e83e 092c 973e 1a3a 9e3d
00000280: 749e e23d ca5f 56be 3b98 c23e 51af d6be
00000290: 2470 d1be 16a9 2a3e 2230 443e d809 41be
000002a0: 5cd6 8abc 5bf4 d33d 9b58 933e b877 babe
000002b0: 0676 92be 2599 3d3e 8f65 00be c4e5 9c3e
000002c0: 93b1 1abd 0042 f7bd 1696 be3e efdd 093e
000002d0: 2028 53be d854 cabe a924 1a3e dfef 4cbe
000002e0: b283 443e 53b5 6b3e 9919 8d3d f580 633d
000002f0: 292e cebe c325 25be d752 c9be 4cbd 023e
00000300: 13a5 9b3e b645 babe 43f1 313d 243a cdbd
00000310: 4043 67be 7339 663e 7968 ce3e dd23 afbe
00000320: 93d5 6fbe e5a0 293c 8fb9 b23e da72 eb3d
00000330: 3e77 9c3e f38d a4be d6bb 02ba d876 7fbe
00000340: 77c1 bcbe 3f29 6d3e 637c 9bbd 937e 88be
00000350: 3057 443e 75ab 3b3e 0758 2bbe 5bbf 8cbe
00000360: a0de 2abd c6dd 08be c04b 4b3e 605d 07bc
00000370: ec25 f6bd 002f 3c3b b8d8 993e 23b4 3b3e
00000380: 0fbb bd3e f25c 533e 2628 433c ef9a aa3e
00000390: 8eb3 dbbe 6d0b 47be 24c0 133d 45e1 c23c
000003a0: 7b85 6abe af41 683e a14e c13e 482c 82bd
000003b0: eb18 a7bd 2770 ad3e 97b9 c9bd 2c82 9b3e
000003c0: e745 9abd d8a1 64bd 432a d7bd 5142 75be
000003d0: 09e6 debc cebc cbbe 9826 9f3d 4f19 85be
000003e0: 480e 1a3d d0f4 303d 562c 91be e81d 0cbd
000003f0: ee95 9f3e 3aec 03be 4185 0ebe c567 513e
-0.17633107 -0.25653815 -0.26337236 0.18992914 0.08946979 0.03255849 0.05689618 0.112947226
0.30453408 0.20713228 -0.28249902 0.0847618 0.21727233 -0.14132148 0.29712006 -0.40790948
-0.29457182 -0.1880364 -0.25300848 -0.2816069 0.14343603 -0.15046787 -0.04461871 0.2355951
-0.30389875 0.28306958 0.04457131 -0.10105294 0.2599799 -0.4175926 0.051085103 -0.34576485
0.3323316 -0.015296649 -0.16511215 -0.13087723 0.28827384 -0.016997652 0.27676156 0.12825897
-0.349277 -0.41640234 0.28886068 -0.031495832 0.23307043 -0.0036788448 0.35538945 -0.51951456
-0.37912443 -0.012103242 -0.002088714 -0.09119792 0.2683821 -0.3498741 0.08202449 0.10957389
0.051222783 0.110933445 -0.037582144 -0.016509179 0.14735371 -0.320459 0.31515592 -0.37960392
-0.13779017 -0.00202775 -0.29938176 0.35928538 -0.14314766 0.2705356 -0.029160041 0.293686
-0.33181882 -0.25573027 0.153653 0.11855163 -0.13132013 0.3925532 0.13629392 0.33510476
0.14258417 -0.29687417 0.062239926 -0.3159316 -0.0519356 0.23824604 0.37644103 0.021383937
-0.17299843 -0.2475941 -0.016428482 -0.4428707 -0.11271664 0.3355623 -0.06514135 0.15671925
-0.3740332 -0.07398304 -0.051989082 0.36325866 0.096665226 0.39441422 -0.09717439 -0.17340925
0.40686783 -0.33696255 -0.16328476 -0.39608437 -0.028603911 0.17582151 -0.026367318 0.033625882
0.29739913 0.2683643 -0.14017984 -0.043721635 -0.33438522 -0.07869403 -0.24873912 0.1368498
0.19100049 -0.31644735 -0.110632785 0.4283972 0.4058502 0.07749014 0.26600012 -0.32314858
0.42978162 -0.07119705 0.3347845 0.047744922 0.23867227 -0.07999548 0.18652634 0.17457633
0.124413565 0.3371549 0.059492882 0.24642456 -0.22165136 0.1893335 0.013792621 0.1789978
-0.16757867 -0.41655526 0.22258364 0.008867231 0.32250693 0.33355847 0.24871649 -0.42299306
0.3570378 -0.35290396 0.29021475 -0.08871224 0.30582425 0.4537544 0.29525784 0.07725926
0.11065379 -0.20934978 0.38006768 -0.4193063 -0.4090587 0.16666064 0.19158986 -0.18851411
-0.016947918 0.103493415 0.28778538 -0.36419463 -0.2860567 0.18515451 -0.12538742 0.30644047
-0.037767004 -0.120731354 0.3722388 0.13463567 -0.20620775 -0.39517856 0.15053047 -0.20013379
0.19190863 0.23018388 0.06889648 0.055542905 -0.40269592 -0.16127686 -0.39321014 0.12767524
0.3039938 -0.3638131 0.043442976 -0.10020855 -0.22584248 0.22482853 0.4031408 -0.3420705
-0.23421316 0.010353302 0.34907195 0.114965156 0.30559725 -0.3213955 -0.0004987096 -0.24947679
-0.36866352 0.23160265 -0.07592084 -0.26659068 0.19173884 0.18327124 -0.16732799 -0.27489743
-0.041716218 -0.1336585 0.19853115 -0.008262008 -0.12018952 0.0028714538 0.30048156 0.18330435
0.37056777 0.20640925 0.011911428 0.3332133 -0.42910427 -0.19437952 0.03607191 0.023789058
-0.22902481 0.22681306 0.37755302 -0.06356102 -0.081590496 0.33874628 -0.098498516 0.3037275
-0.07532864 -0.05581841 -0.10506108 -0.23951079 -0.027209299 -0.39792484 0.07771033 -0.2599587
0.037611276 0.04320222 -0.28354138 -0.03420821 0.31169075 -0.12883082 -0.1391802 0.20449741

hnn.fc.0.bias f4 [128]
00000000: d3a0 98be 73ee 9dbe 3912 4c3e 0f07 d4be
00000010: 469c e43d c6ad 213e 0c52 063e 77f2 903d
00000020: eb48 00bc 1a85 a03e 6faa 5abe dfbf 9bbd
00000030: 5d33 53be 3c31 c03e 5dff aa3e 71ab aabe
00000040: f5b7 be3e 3c06 b5be fe7c c33e 805f 303d
00000050: 2327 acbe 92bb c8bd 93b2 54be 8a8f 2d3e
00000060: b5ef 80be 3343 9d3d 58b2 fd3d b14e 3cbe
00000070: 9b16 8b3c c1d5 41be 3232 7dbe 5995 52be
00000080: 2467 553e f121 abbe 2f36 893d 2336 5c3e
00000090: c4f0 03be 0f58 4f3e 1c2d 723e 37ed 95be
000000a0: 6e6e dc3d d9e5 3ebe c925 513d 58f1 9abd
000000b0: a89f 713e 635a 763e 4d0d 85be d027 cb3d
000000c0: 459d b8be 9dbc 56be 3416 cabb 52c7 373d
000000d0: 3247 7bbd 96a4 85bd 6564 89bd 4f1c 5bbe
000000e0: 0f9f 8e3e 576d 123e 1a2b 643e a4c4 bb3e
000000f0: bed2 acbe 32ec 73be 664e a8be a723 b63e
00000100: fbd2 b6bd b66d bd3d ab41 0a3e f006 86be
00000110: fd31 4f3e 30a0 18be 1d61 82be 1e1a af3e
00000120: 51dc 283e 02d6 643d ab87 a83d 74b6 2e3d
00000130: 61e0 52be 236b 22be f7ab 843d b1d2 983e
00000140: 8c10 bdbd 7d4a 013e 7f1e 803e 4e0c 5cbe
00000150: 35c3 1cbe d34e d5be 3ab9 b63e ba1a 993e
00000160: bfa6 c2bb cc02 d03d ce1c 32be 7893 fcbc
00000170: 32fa 993e 8834 46be fe87 2a3c 545d 913e
00000180: d502 bdbe ce9f 933e 389c 903d fa45 253e
00000190: 0232 893e 4bc2 743e ddf0 a4be fa09 0a3e
000001a0: 836e 54be ebc1 a7be 19e5 64bd 0591 bdbe
000001b0: 2628 903e 9f6a 523d dc07 dabe 9416 a43e
000001c0: d39d 8ebe 8821 9e3e 0b90 ac3e 56cf c33e
000001d0: fee0 313d c030 bdbe be36 883e c8a2 093e
000001e0: 4824 c83d cf19 acbe ab07 55bd 0400 9f3e
000001f0: 137b 763e 250f b6be fe16 b4be 3143 c43d
-0.298102 -0.30845985 0.19928826 -0.41411635 0.11162619 0.15788946 0.13117236 0.070774965
-0.007829885 0.31351548 -0.21354078 -0.07604956 -0.20625062 0.37537563 0.33397952 -0.33333924
0.37249723 -0.3535632 0.381813 0.043059826 -0.3362361 -0.09801401 -0.20771246 0.16949287
-0.25182882 0.07678833 0.12387532 -0.18389393 0.016978553 -0.18929197 -0.24726179 -0.20564784
0.20840126 -0.33424333 0.06699788 0.21505027 -0.12884814 0.20248435 0.2365002 -0.29282543
0.1076325 -0.18642367 0.051061425 -0.07565564 0.2359606 0.24057917 -0.2598671 0.09919703
-0.36057487 -0.20970388 -0.0061671976 0.04486782 -0.061347194 -0.06525533 -0.06708602 -0.21397518
0.27855727 0.14299522 0.22282067 0.36673462 -0.33754534 -0.2382057 -0.32872313 0.35574076
-0.0892696 0.09249441 0.13501613 -0.26177168 0.20233913 -0.14904857 -0.25464717 0.34199613
0.16490294 0.055868156 0.082290016 0.04265447 -0.20593406 -0.15861182 0.06478112 0.29848245
-0.09231672 0.12626071 0.25023267 -0.21489069 -0.1530884 -0.416617 0.35688192 0.29903203
-0.005940288 0.101567835 -0.173938 -0.030832037 0.30073696 -0.19355977 0.0104084 0.28391516
-0.36916223 0.2883286 0.07061046 0.16139975 0.26795965 0.23902242 -0.32215014 0.13480368
-0.20745282 -0.32765135 -0.055882547 -0.37024704 0.2815563 0.051371213 -0.4258412 0.32048476
-0.27854785 0.30884957 0.33703646 0.38244122 0.04342746 -0.36951256 0.26604265 0.13441002
0.09772545 -0.3361344 -0.052009266 0.310547 0.24070387 -0.3555843 -0.35173792 0.09583128

hnn.fc.3.weight f4 [64, 128]
00000000: d230 213d ae1f 75bd 3b95 933d 07ed f3bc
00000010: 2c9f 51bd b142 a53d 2f7a 0bbd dc4b 793d
00000020: 331b 56bd 5979 bbbc 8025 11bc 6565 1f3c
00000030: 9790 71bc 71aa 8fbd bf45 7abd 719c 92bc
00000040: c664 143d 65b5 75bc d59d 22bc 6e33 973d
00000050: 61a1 d2bd 3905 8fbc babb 4e3d 7b92 9fbd
00000060: b8e0 e93c 5240 f13c 9759 c43d e1c6 2fbd
00000070: 650f b73d 94f9 fabc 5c25 cebd 4666 0e3c
00000080: c543 653d 9145 3e3d 9a0e 223d e89d b93c
00000090: 1a52 89bd 17cd cdbb 6b27 6ebd 5449 183d
000000a0: c4df 5fbc aab2 fbbc bf80 b0bd 415e 4eba
000000b0: 9787 09bd ac2c 883d c025 973d ddbf babd
000000c0: 006f 773c 0698 233d 4465 a43c 3c6c dbbc
000000d0: d15c 7abd 09a0 83bd 645e 4a3d 32b0 603d
000000e0: c348 113d 77a8 923d c1a4 4d3d 0c89 483b
000000f0: 4343 92bc 6d5b 463d 2c01 88bd ddf9 a63c
00000100: abcc c2bd 72da 883c ab88 c83c 20b8 14bc
00000110: bc0e 8bbd c7fe 253d 59e5 d6bd 7c28 59bd
00000120: f950 d83c be3e ae3c 8e0d 623d 3227 f53a
00000130: 0cef 513d 04fc ef3b 8b56 a5bc 8a56 45bb
00000140: fb3d bcbd c768 c7bb c176 37bd 0711 89bd
00000150: 6a2c 7b3d c179 773d c027 cd3c 4e22 173d
00000160: 42f2 8ebd a21d a0bd 16ef 94bd 6310 86bd
00000170: b925 a3bd a7e2 dcbc 1026 ef3b cd69 9fbd
00000180: 2688 553d 7a2d 3f3d 2dc6 3a3d 7794 70bd
00000190: 6d8d 96bd ba07 ac3d b960 873d 5723 2abd
000001a0: 8157 813d ca5b 593d bf3f 443c b0e3 9b3d
000001b0: f33c 9dbd 88c5 aa3c e027 c8bc f475 69bd
000001c0: d941 0a3d 5579 25bd 3820 be3b c346 ccbc
000001d0: d02c be3c 88b1 083d 375e 59b8 dc63 fc3c
000001e0: 3e9a babd fbac 33bd 6ee1 52bd 7a27 bb3c
000001f0: 7ecf 823c 11bc b03b 7987 5d3c 2f34 193d
00000200: 394a a4bd 29ed aa3d 56c6 9e3c 5e2b 3bbd
00000210: 3703 20bd 0baf a6bc 94f5 1d3d 1882 c5bd
00000220: 4af7 a539 9fc9 3dbd f996 a93d e0cc 893b
00000230: b128 ccbd 9005 b1bc 326e 793d 52ba a9bc
00000240: 16ff 953c b457 55bd 8825 7d3c ca35 3a3d
00000250: 2abf 3838 68e1 e8bc aded cabc cfce 80bd
00000260: 0f1a 51bb 87c1 5cbb 1e02 23bd ab12 e63c
00000270: 445b 9bbd 4a52 243d a24c 53bc 778b 123d
00000280: aaca e43c b727 47bd 337c 6abd d75e 063d
00000290: 0ea5 363d 2a47 d4bc 8137 2abd c556 bfbd
000002a0: 4fcb 9cbd aefe 523d 8fda 413d ccfc b0bd
000002b0: 0061 adbd 84eb 86bd 330a cabd 5798 a83c
000002c0: c8c4 b73b d084 c03b 7955 143d eaef a5bd
000002d0: 99de 8bbd 1f6e 06bd fc6f 353b ee87 b1bd
000002e0: 8e07 a3bd 3893 333d 714c 9a3c bb53 0fbd
000002f0: 3967 02bd a219 d4bd 0f7e 033d 2f9a 473d
00000300: 3d16 9cbd 9483 94bc 2959 43bd 2500 ea3c
00000310: 70ed 4fbd 22de b63c 10ca 10bd 0ab8 db3c
00000320: 743a 8ebd 176e 693d ee88 1d3d 66d1 a8bd
00000330: 6b48 14bd 5b00 19bd 5da5 01bd e843 9f3d
00000340: 781c c93c c0a3 173d 53b3 88bb 51c8 fbbb
00000350: 98f2 8cbd dc61 87bc 66ea 473c c14a ec3b
00000360: 6af1 25bd af73 d03c 3cc0 d43c 0e02 843d
00000370: 077c 0b3b 5a76 3e3d 20e7 45bd 50e7 c43c
00000380: 0545 1abd 4c06 1b3d 1b67 9e3c f4f4 523d
00000390: 8fd6 0ebc a937 83bd ccaa 6d3d 88b2 8bbd
000003a0: 2c80 7d3d 0b68 ee3c 63e5 7a3d 4a7f 03bd
000003b0: cb48 99bd 7e60 873c 5496 49bd 3eab 853d
000003c0: ae94 7bbd c3d3 3dbd 7c50 223d be51 56bd
000003d0: 89e5 153c fee0 24bd f75f f23c e9bd c6bc
000003e0: e896 c93c 72f8 21bd baf5 853c 8489 abbc
000003f0: a155 38bd 2177 db3c b38a aebc 0080 9bbd
0.0393532 -0.059844665 0.07206198 -0.02977611 -0.05117719 0.08069361 -0.03405207 0.06086336
-0.052272033 -0.022885012 -0.008859038 0.009728764 -0.014743946 -0.07014931 -0.06110167 -0.017896863
0.036228918 -0.014996861 -0.009925325 0.07382856 -0.10284687 -0.017458545 0.050472 -0.07791611
0.028549537 0.029449616 0.095874004 -0.042914275 0.08938483 -0.030636586 -0.100657195 0.008691376
0.055972833 0.046453062 0.039564706 0.022658303 -0.06705113 -0.006280552 -0.05814306 0.037179306
-0.01366419 -0.030724842 -0.08618306 -0.00078723213 -0.033576574 0.066491455 0.07380247 -0.09118626
0.015102148 0.039939903 0.020067818 -0.026785009 -0.061123673 -0.06427009 0.049406424 0.054855533
0.03546978 0.07161038 0.05020595 0.0030599264 -0.017854339 0.048427034 -0.066408485 0.020382816
-0.095116936 0.016705725 0.02447923 -0.009077102 -0.0678992 0.040526178 -0.10492963 -0.053017125
0.026405798 0.021270152 0.055188708 0.0018703698 0.051253363 0.007323744 -0.020182868 -0.0030111396
-0.09191509 -0.0060854885 -0.044790987 -0.06692701 0.061321653 0.060418848 0.025043368 0.03689795
-0.06979801 -0.07818152 -0.072721645 -0.06546094 -0.079661794 -0.026963545 0.0072982386 -0.07783852
0.052131794 0.04667423 0.04559915 -0.058735337 -0.073511936 0.08399911 0.06610245 -0.04153761
0.06315518 0.053066052 0.011978089 0.07611787 -0.07677641 0.020846143 -0.024433076 -0.056997254
0.033754203 -0.040398914 0.0058021806 -0.024936086 0.023214728 0.033372432 -5.1824576e-05 0.030809335
-0.091114506 -0.04386614 -0.051484518 0.022845972 0.01596808 0.005393513 0.013521069 0.03740328
-0.08021969 0.08346016 0.019381683 -0.045695655 -0.039065566 -0.020347139 0.03856428 -0.09643954
0.00031655497 -0.04633486 0.08280749 0.004205331 -0.09968699 -0.021609098 0.060896106 -0.020718727
0.018310111 -0.052085593 0.015450843 0.045461453 4.4047054e-05 -0.028427795 -0.024771536 -0.062894456
-0.0031906401 -0.0033684687 -0.03979694 0.028085073 -0.07585767 0.04011754 -0.012896689 0.035777535
0.027928669 -0.04862186 -0.05724735 0.03280529 0.044591002 -0.02591284 -0.04155684 -0.09342722
-0.076559655 0.051512413 0.047327574 -0.08641967 -0.08465767 -0.0658789 -0.098652266 0.020580454
0.005608175 0.0058752075 0.036214326 -0.081024006 -0.068295665 -0.032819863 0.0027685156 -0.08668505
-0.07960425 0.04384157 0.018835278 -0.03499196 -0.031836722 -0.103564516 0.03210264 0.048731025
-0.07621429 -0.018129148 -0.04769245 0.028564522 -0.050763547 0.022322718 -0.03534895 0.026821155
-0.06944743 0.056989755 0.038460664 -0.082430646 -0.036201876 -0.037353855 -0.031651843 0.07776624
0.024549708 0.0370214 -0.0041717677 -0.0076837917 -0.068822086 -0.016526155 0.012201881 0.00721106
-0.040513434 0.025445787 0.02597057 0.064457044 0.0021283643 0.046499588 -0.04831612 0.02403608
-0.03766348 0.037847802 0.019336274 0.051503137 -0.008718147 -0.06407101 0.058024213 -0.068211615
0.061889812 0.029102346 0.061253916 -0.032103814 -0.07484587 0.016525503 -0.04921563 0.065268025
-0.06142109 -0.04634453 0.039627537 -0.05232405 0.009148964 -0.04025363 0.029586775 -0.024260478
0.02460809 -0.039543577 0.016352523 -0.020939596 -0.045003537 0.026790204 -0.021306371 -0.075927734

hnn.fc.3.bias f4 [64]
00000000: 5b3a b4bc 0997 52bd 8358 5c3d 7570 93bd
00000010: 2bef 53bd 12ca 58bd 5382 c4bd 23f7 89bd
00000020: bb45 023d 421b 9b3d 315d b9bd 70a8 853d
00000030: 935c a5ba ce23 bdbd 4160 223d 6aac c4bd
00000040: 3bdc cc3c 26df c8bd 2dcd b2bc 8e80 863c
00000050: eb04 5fbd 7174 b63b 486a 3dbd d736 b1bb
00000060: d99c 283d a5b0 b6bd d824 fd3b cd01 b4bd
00000070: e4e6 9cbd 917b a83d 49af d23b ca9f d4bd
00000080: 1f62 323d bcb2 1fbd 4725 86bc a0b6 c03d
00000090: a767 b2bd ac1c b6bd e6fa b73b 2f7f 4a3c
000000a0: 1d5b 373d f7f8 a9bc 0857 8c3d b59f 5abd
000000b0: 5245 a53d 26a2 7b3d 5252 703d 42dd dbbd
000000c0: 19ae acbd 94fd 5bbd fd38 453d 5655 d2bd
000000d0: f92c 553d cac8 ddbc 8007 7b3a 64e9 cbbc
000000e0: c30e d13c 26a5 90bd 878c c8bc 9560 afbc
000000f0: ec56 a03a 09b3 16bd 1844 6b3c 3204 2fbd
-0.022000482 -0.05141357 0.05379535 -0.07199184 -0.05174176 -0.052927084 -0.0959517 -0.06736591
0.03180478 0.075735584 -0.09050978 0.065262675 -0.001261609 -0.09235345 0.039642576 -0.09603198
0.025007358 -0.09808187 -0.021826351 0.016418722 -0.05444805 0.00556808 -0.046243936 -0.0054081487
0.041165207 -0.08920411 0.0077253394 -0.08789406 -0.076612264 0.082266934 0.006429587 -0.1038204
0.043550607 -0.038988814 -0.016375197 0.09409833 -0.08711176 -0.088921875 0.005614626 0.0123594245
0.044764627 -0.020748599 0.068525374 -0.053374965 0.080698624 0.061433934 0.058672257 -0.10735561
-0.08431644 -0.053708628 0.04815005 -0.10270183 0.052044842 -0.027073283 0.0009576008 -0.024891563
0.025519734 -0.070627496 -0.024481071 -0.021408359 0.0012232936 -0.036791835 0.0143594965 -0.04272861
